Exercise-1-RL/reinforcement_learning/models_carracing/dqn_agent.ckpt (torch, 369671 bytes, 10 tensors)

conv1.weight f4 [6, 4, 6, 6]
000000 16 f7 b4 bd f2 cf 02 bc fb 3a 2a 3d c8 ea 6e bd
       -0.088361904 -0.007984148 0.041560154 -0.058329374
000010 ec 37 4c 3c e2 84 aa bd 82 bb 4a 3d 16 f6 a0 bc
       0.012464505 -0.08326127 0.049495228 -0.019648593
000020 2b 0b bc bd 5a 18 85 bb 2d 8f 09 3c 72 08 a4 bc
       -0.091818176 -0.004061741 0.008395952 -0.020023558
000030 d9 b0 00 be 84 01 17 3d ad 1c b7 bd b7 ea e7 bd
       -0.12567462 0.03686668 -0.08941016 -0.11324065
000040 bd d1 22 bd 68 26 14 ba 6b 79 92 bd 19 d6 7d bd
       -0.039750803 -0.0005651475 -0.07152065 -0.061971758
000050 08 3c 11 3d 4c 00 73 bd 96 cf 09 3d 2e cd d4 3c
       0.03545764 -0.059326455 0.033645235 0.025976744
000060 73 cd ee bc df 8e de bd 87 98 49 bd d9 71 18 3d
       -0.0291507 -0.10867094 -0.049217727 0.03721795
000070 aa 60 52 3c 59 69 35 3c dd e7 5c 3d 67 b6 86 bd
       0.012840429 0.01107248 0.05393206 -0.06577759
000080 9a 64 3d 3d 26 55 8f 3d b5 2b 86 bd b7 07 36 3d
       0.04623852 0.06998663 -0.06551305 0.04444095
000090 6b dd 8c bd ef 76 24 3d 4f 91 08 bd ba 4c 33 3d
       -0.068781696 0.040152486 -0.033341702 0.043774344
0000a0 75 cc ae bd 96 1a e9 bd 10 ba fe bc 57 6d 42 bc
       -0.08535091 -0.11382024 -0.03109458 -0.011866889
0000b0 a2 c2 07 bd 97 5d c7 bc 6d 4e 83 3c f8 c5 d5 bd
       -0.0331446 -0.02433662 0.016028607 -0.1043815
0000c0 8f 6a 17 bc 17 bd 23 bd 14 38 85 3d e0 49 2a 3c
       -0.009241714 -0.039975252 0.06504837 0.01039359
0000d0 2b db c7 bb 47 3b 84 bd d7 db aa 3d e7 1b c8 3c
       -0.006099125 -0.06456619 0.083427124 0.024427367
0000e0 91 c6 83 bc e5 d0 70 3d ef 87 f2 bd 27 67 24 bd
       -0.016085895 0.058792967 -0.118423335 -0.040137436
0000f0 2e 2c b2 bd 6e d9 f4 3b 9e e6 df bc 41 12 54 bd
       -0.08699833 0.0074722087 -0.027331647 -0.05177522
000100 17 00 03 be af 85 e5 bd ec 67 6d bd fc 50 86 3d
       -0.12793003 -0.11207139 -0.057960436 0.06558415
000110 fe 28 17 bc de 3b 49 3b a3 35 dd 3c f0 80 bb bd
       -0.009226082 0.003070585 0.027003115 -0.09155452
000120 16 ed 3d 3d 4f 81 a8 3c 21 d3 4a 3d e0 95 36 bd
       0.04636868 0.020569472 0.049517754 -0.044576526
000130 3a 6d ec bd 61 a1 c1 3c 0c d9 00 bd 17 80 e7 3c
       -0.11544271 0.023636522 -0.031456992 0.02825932
000140 78 83 0e bd 14 53 af bd 4d 41 45 3d 3d 5c 89 bd
       -0.034793347 -0.08560768 0.04815798 -0.06707046
000150 81 b8 c8 bd 12 ba 95 bd ee a3 66 3c e2 cf 83 bd
       -0.09800816 -0.07310881 0.01407717 -0.06436135
000160 eb 01 07 3b 94 fa cb bb a8 f8 7c bd 15 00 4e 3d
       0.0020600508 -0.0062249396 -0.061760575 0.050293047
000170 00 2d cc 3c 1c 57 a6 3d 4e e4 f7 3c a2 76 8b 3d
       0.024923801 0.081220835 0.030260231 0.06809737
000180 0f 5f 31 bc 3b 47 91 bd 44 42 a2 3b de c7 51 3d
       -0.010825886 -0.07093664 0.004951747 0.051216
000190 b5 7b 9e 3c 45 6c 4c 3d c8 3c 9a 3b cb 5b 83 3d
       0.019346097 0.04990794 0.0047069527 0.064139925
0001a0 a6 3d 95 bc 85 07 66 3d 1b 6d 9b bd 3f 1d c5 bd
       -0.018217873 0.056159515 -0.075891696 -0.09624719
0001b0 d2 ce 9a bd fe 7c db 3a 73 ca 56 3d 04 3d 7a 3d
       -0.07558979 0.0016745625 0.052439164 0.061093345
0001c0 72 81 e6 bd e4 63 9d bd f2 52 c0 bd 27 46 85 bd
       -0.112551585 -0.07685068 -0.093908206 -0.06507521
0001d0 16 2c 13 bd dc 37 d5 3a 32 fa d6 bd 79 d4 fa bc
       -0.035930716 0.0016267258 -0.1049694 -0.030618893
0001e0 6f eb 65 bd ab 20 35 bd ba c1 e3 bd 56 57 27 3d
       -0.05613273 -0.044220608 -0.11120935 0.040854774
0001f0 c5 a9 73 3c 8c 01 2d 3d ba 7b ff 3c e7 7d 4e 3d
       0.014872019 0.042237803 0.031186927 0.05041304
000200 27 80 9c bd 50 84 ae bd de a9 0e 3c 2e e0 ac 3c
       -0.076416306 -0.0852133 0.008707492 0.021102991
000210 48 ec 8e bd 22 ee 50 3d 04 6c 4d 3d 1a 03 cf 3c
       -0.06978661 0.05100835 0.05015184 0.025270034
000220 5c f5 c9 bd 4e e6 3a b7 db 6d d9 3c 22 d4 1e bd
       -0.09861252 -1.1140086e-05 0.026541641 -0.038776524
000230 9f eb 90 3d 79 d4 30 bc 47 67 50 bd 74 bd 2e bc
       0.07076191 -0.010792845 -0.050879743 -0.010665286
000240 60 81 13 bd aa 4c a7 bd bc 04 41 3d 50 0f 6d 3c
       -0.036012053 -0.081689194 0.047123656 0.014468983
000250 5b f9 90 bd 00 e7 71 bd 5e 98 15 bd 0a 65 83 bc
       -0.07078811 -0.05905819 -0.03652226 -0.01603939
000260 36 cc 05 bd 7a 91 1d 3d 1c ee 9d bd 4b a1 6d 3d
       -0.032665454 0.038468815 -0.077114314 0.05801515
000270 99 4b e4 3c 65 3c 3d 3d 1c fb a8 bd 30 54 31 3d
       0.027868079 0.046200175 -0.0825102 0.043293178
000280 9c 10 f0 3c fb 0a 41 bb 3b f4 4a bd db ad c5 bd
       0.029304795 -0.0029456008 -0.049549323 -0.09652301
000290 73 ce 0a bc 08 db df 3a 8d d5 d6 3b 99 0b 10 bd
       -0.008472073 0.0017078826 0.006556219 -0.03516731
0002a0 1b 75 b3 3c a1 1d c9 bd 97 d8 6e 3d 80 7d ce bc
       0.021906426 -0.098201044 0.058312025 -0.025206327
0002b0 61 00 0f be 40 d0 56 3c c9 61 a3 3d 14 e7 81 3b
       -0.13964988 0.013111174 0.079776354 0.0039643142
0002c0 1d ed 2b bd 14 e0 17 3d 8a cd 83 bd c2 d8 03 3c
       -0.041974176 0.037078932 -0.06435688 0.008047285
0002d0 7a 0c b6 3c d8 01 bd ba 12 72 1d bd bc 79 ac bd
       0.022222746 -0.0014420105 -0.038438864 -0.084216565
0002e0 9e 74 29 3d 84 e1 21 bc e8 74 28 bc 75 41 b0 3d
       0.04137098 -0.009880427 -0.010281779 0.08606235
0002f0 b0 07 20 3c 14 ed 36 bd 95 64 c4 bd ee 9d 8d bd
       0.009767458 -0.04465969 -0.09589497 -0.06914888
000300 2d ac 27 3c 45 83 ac bd 8d 32 16 3d cf 46 a6 bd
       0.010233921 -0.08423475 0.036669303 -0.081189744
000310 0c a8 1d 3d 15 4a 80 3a f6 bf 5b bd fd 4a 6e 3b
       0.03849034 0.0009787703 -0.053649865 0.0036360614
000320 a0 c0 e7 bd 7e 26 f6 3c 40 f0 21 bd 8c 88 98 bd
       -0.11316037 0.030047651 -0.03953576 -0.07447919
000330 23 33 62 bd 6d dc 7f bd 6f fb 8a bd 44 2a 82 3d
       -0.05522455 -0.062466074 -0.067862384 0.06355718
000340 15 20 95 bb e6 88 01 bc fc 22 80 3d 56 bc fe 3b
       -0.0045509436 -0.007906174 0.06256673 0.0077739162
000350 0b d7 95 bc 27 a6 57 3d 19 6b ab 3d 2d b4 91 bd
       -0.018291017 0.05264869 0.08370037 -0.07114444
000360 94 5d 50 bd 02 a5 67 3d 36 36 2e bd 36 d1 1b 3d
       -0.050870493 0.056553848 -0.04253217 0.038041316
000370 26 e4 57 3d 39 e5 1f 3d ed dc 07 3d eb 43 0a bd
       0.052707814 0.039036963 0.033169676 -0.033756178
000380 93 fe 84 bd e6 45 df bb 88 8d 3a 3d 37 ec af 3c
       -0.06493869 -0.0068137525 0.04554513 0.02147494
000390 cd 80 53 bc 35 a6 08 bd 34 cb 36 bd 80 ca ef 3c
       -0.0129091265 -0.033361632 -0.044627383 0.029271364
0003a0 b9 d5 a2 bd bb 44 b1 3c 26 f5 45 bd 60 89 de bc
       -0.079509206 0.021639219 -0.048329495 -0.027165115
0003b0 e4 f1 fb bd 01 bf ea bc ab f2 00 3d 49 0b a9 3d
       -0.12301996 -0.02865553 0.031481426 0.082541056
0003c0 78 50 39 3d a4 ec ce bd 78 ac 6a bd 1c 2b 61 3d
       0.045242757 -0.10103729 -0.057293385 0.054972753
0003d0 fa e3 c0 bd e4 61 43 3d d8 d5 2b bc 8a d1 b9 3d
       -0.09418483 0.047700778 -0.010487996 0.090731695
0003e0 49 d4 8e 3d b3 9d 55 3d 58 f1 c6 bb f6 a5 67 bd
       0.06974084 0.052152347 -0.006071251 -0.056554757
0003f0 d7 8f 54 bd 8f ba 91 bd a4 82 0d 3c bd c6 86 3d
       -0.05189499 -0.07115661 0.008637104 0.06580875

conv1.bias f4 [6]
000000 19 f3 27 3c ae 83 7a bd fb 24 15 bd 07 8b a2 bc
       0.01025083 -0.061160736 -0.03641222 -0.019841684
000010 79 0d 3b 3c de 43 3c ba
       0.011416786 -0.0007181744

conv2.weight f4 [12, 6, 5, 5]
000000 83 24 b3 3d 58 1d bd 3d 28 d9 9b 3d 2a ac 4f 3c
       0.087471984 0.092341125 0.07609779 0.012675324
000010 f3 4a b1 3c 2e 01 c7 3d fc 8b cd 3d 30 83 ec 3d
       0.021642184 0.09717022 0.100364655 0.115484595
000020 29 1a 82 3c 00 ea 8a 3d 7e 17 6e bd 1a dd 8c bc
       0.015881615 0.06782913 -0.058127873 -0.017195273
000030 4a d3 0b bd e7 45 a9 3d e3 f4 ed 3d b2 78 52 3d
       -0.034137048 0.08265286 0.11618974 0.051384635
000040 b0 47 dc 3d cd 61 dc 3c 01 83 8c 3d c8 61 97 bd
       0.10755861 0.026902104 0.068609245 -0.07391697
000050 c2 d6 82 3d 17 56 4b bc 68 85 a1 bb 37 9f 28 bd
       0.06388618 -0.012410662 -0.0049292333 -0.041167464
000060 af fe 92 3d fe 26 e7 3d e6 bc 9c 3d 58 10 55 3c
       0.07177483 0.11286734 0.07653217 0.013004385
000070 76 77 1c 3a ac f1 96 bd 9b a1 29 3d 1f 91 87 3d
       0.0005968729 -0.07370314 0.041413885 0.066194765
000080 15 c8 a6 3c 9a 52 1a bd 11 6c 01 bd ea ae a4 3c
       0.020359078 -0.03767643 -0.0315972 0.020102937
000090 0e d4 17 bc bb 31 98 bd 37 35 82 3c ce 73 8d 3d
       -0.009266866 -0.0743136 0.015894515 0.069068536
0000a0 0a 49 c0 3d 02 93 e5 3d 7d dc a3 bb 08 ed 94 3c
       0.09388931 0.1120968 -0.0050006495 0.018179432
0000b0 85 4f 37 3d 19 a0 a9 bd 65 5a 41 3d 0b 33 ae 3d
       0.04475357 -0.08282489 0.047205348 0.085058294
0000c0 e2 a3 8c bc 36 48 3e 3d c9 f8 76 3d 32 60 9b 3d
       -0.01716799 0.046455584 0.060295854 0.07586707
0000d0 94 65 94 3d 1d 58 47 bd 63 24 d1 bc 71 49 1d bd
       0.07245937 -0.048668016 -0.025530046 -0.038400117
0000e0 6f 86 40 bd 71 ae ed bc ab 14 0b bb d6 9e a9 bc
       -0.047003206 -0.029013844 -0.0021222036 -0.020705622
0000f0 bb 9e bb 3d 30 2f b6 3d 1d bd 86 3d 6a 04 7f bc
       0.09161135 0.08895719 0.06579039 -0.015565017
000100 c7 4d 42 bd e0 70 05 bb cc 9e 5c 3d 96 55 cd bc
       -0.047437456 -0.0020361468 0.053862378 -0.025065225
000110 9b 4d 16 bd b6 69 7b bd 1c 78 4c 3d a0 e3 d5 3d
       -0.036695104 -0.06138011 0.049919233 0.10443807
000120 51 48 72 bc af 52 75 bd 41 13 c1 bd 0a 91 a0 bc
       -0.014787749 -0.059893306 -0.094275005 -0.01960041
000130 71 2e 35 bd 00 d9 d5 bd 64 2b 5c bd 7c 77 2a 3d
       -0.044233743 -0.1044178 -0.053752318 0.041617855
000140 4d 4c 83 bd e8 41 98 3d 50 b2 d6 bd 09 9a 19 3c
       -0.064110376 0.074344456 -0.10483229 0.009375104
000150 b1 c8 86 bd 29 0c da 3d cc 5c 1a bd c3 89 25 3d
       -0.065812476 0.106468506 -0.037686154 0.040414583
000160 41 7f b3 3d d0 80 ec bb de 8b 12 3d ca e7 88 3d
       0.08764506 -0.007217504 0.03577792 0.06684835
000170 75 a2 ae bd cc 01 76 bd 82 81 97 bd 14 7b 68 bd
       -0.0852708 -0.060060307 -0.073977485 -0.056758
000180 d6 14 ad 3d 56 f2 a0 bd c1 23 2b bd 91 7e 54 bd
       0.0845124 -0.07858722 -0.041782144 -0.051878516
000190 0c b7 c9 3c 08 de 92 bc e8 9f 8b bc bd 03 0c be
       0.024623416 -0.017928138 -0.017044023 -0.13673301
0001a0 79 9a e2 bd 48 38 ae 3d af a4 ee 3c 42 73 c8 bd
       -0.110646196 0.085068285 0.029131262 -0.09787609
0001b0 47 52 be bc 93 5e bb bd de 80 8c bc c3 2a 73 bc
       -0.023232592 -0.09148898 -0.017151292 -0.014841738
0001c0 8a 46 e5 3b c0 aa 0d be 0f d7 85 bd e3 e6 76 bc
       0.0069969343 -0.13834667 -0.0653516 -0.015069696
0001d0 2d 11 63 3d b0 d4 fb bd 47 85 46 3a 73 bf ef bc
       0.055436302 -0.12296426 0.00075729605 -0.029266095
0001e0 a8 8c a8 bb 5f e1 cf 3c 8e 9d 97 bd 71 ee 31 bd
       -0.0051437207 0.02537602 -0.07403098 -0.043440286
0001f0 10 3d c5 bd dd 29 d2 b9 3c 87 55 3c 30 ef 0f 3d
       -0.096307874 -0.00040085512 0.013032731 0.035140216
000200 f7 83 a5 bb 05 b4 c1 3c a5 e7 86 bb f9 00 16 bd
       -0.005051132 0.02364541 -0.0041169696 -0.03662202
000210 81 b9 a2 bd 7f 79 62 bd 82 aa c4 3c 5c cd 96 3d
       -0.07945538 -0.05529165 0.024007086 0.07363388
000220 61 30 5c 3d 7e bb ae bd 2d 8d 09 be e3 14 b2 bb
       0.053757075 -0.08531855 -0.1343276 -0.005434619
000230 6e 49 87 bb be ae 05 3b c6 2a d7 3b f6 d9 ef bd
       -0.0041286265 0.0020398344 0.0065663783 -0.117114946
000240 7f 00 c1 bd c1 d9 fc bc 91 aa b8 3c bc e0 84 bc
       -0.09423923 -0.030865552 0.02254227 -0.016220443
000250 c3 1d 35 bd 44 ef 1e 3c 52 e8 14 bd 7c 0a b5 3c
       -0.044217836 0.0097006 -0.03635437 0.022099726
000260 05 fc 9d bd 58 03 24 3d 8b 37 86 3d ad 38 a7 3c
       -0.077140845 0.04004225 0.06553563 0.020412767
000270 34 d0 7b 3c 24 e0 cc bb 2f 91 84 3c ff 7a 22 3d
       0.015369464 -0.0062523056 0.01618251 0.03966808
000280 84 ef f1 bc b6 1a 9e bc 7a fe 6e bd fc c4 aa 3c
       -0.029533155 -0.019299846 -0.058348157 0.020845883
000290 4f fe c0 bd 7c 19 b5 bd 9d aa 04 3c 43 78 16 3d
       -0.094235055 -0.088427514 0.008097318 0.036735784
0002a0 84 54 a0 bd e3 af b1 bd 39 2b 41 bd 3f 76 cb bd
       -0.0782862 -0.08676126 -0.04716036 -0.09934663
0002b0 98 d5 47 3c 93 c5 a9 bd 92 6a 6d 3d 9f 9d c6 bd
       0.012196921 -0.082896374 0.05796296 -0.096980326
0002c0 ed bd 21 bd 60 27 8c bd 63 1c ac bd 80 62 0c bd
       -0.039487768 -0.06843448 -0.08403852 -0.034273624
0002d0 75 cb 06 3d ae 16 72 3c 57 f7 4d 3c 8b a1 9f bd
       0.032908875 0.014775915 0.012571177 -0.07794484
0002e0 1a e5 90 bd cf 8a d1 bd 45 27 65 bb 65 7b 9d bd
       -0.07074948 -0.10231554 -0.0034966033 -0.07689551
0002f0 e0 c7 a0 bd 48 e3 fb bd f1 60 b4 bc d0 ce f9 bb
       -0.07850623 -0.1229921 -0.022018882 -0.007623531
000300 e7 c7 a6 bd 3d 26 b3 bd a2 6c f7 bd cf 55 9c bd
       -0.08143597 -0.08747528 -0.12081267 -0.07633554
000310 45 5f c1 bc d6 fa 09 3b 1f c1 68 bd 86 4e 4e bd
       -0.023604998 0.002105405 -0.0568248 -0.050367855
000320 20 c3 02 bc 74 92 9e bd 65 29 e2 bc 54 ad 2b 3c
       -0.007981092 -0.077427775 -0.02760763 0.010478336
000330 45 80 c1 bd c9 10 60 bd d3 aa 49 3c 14 73 91 bd
       -0.094482936 -0.054703508 0.012308794 -0.071020275
000340 4d f3 80 bd 97 8b d1 3c d0 88 21 bd 20 0c 1b 3d
       -0.06296406 0.025579257 -0.039437115 0.03785336
000350 04 c9 78 bd 83 fc 0a be 42 14 37 bd 3e 38 0e 3d
       -0.06073858 -0.13572888 -0.044697054 0.034721605
000360 50 35 3c bc ec 43 e7 bc 21 5a b7 bc 97 04 b1 bd
       -0.01148732 -0.02823063 -0.022381844 -0.086434536
000370 2e 90 bb bc 2a 70 af 3d 32 ec 9e bd e0 88 a9 bd
       -0.022895899 0.085663155 -0.077598944 -0.0827806
000380 56 d6 c8 3b 47 31 8a bc b7 a2 08 3d 85 99 1a bd
       0.0061290665 -0.0168692 0.033358302 -0.037744064
000390 5b 08 02 3d 73 2c 28 3d 17 d2 8d 3d a8 5d 19 3d
       0.03174625 0.041058015 0.06924837 0.037442833
0003a0 d3 04 59 3c c1 5e 79 3b f6 10 bb 3d c4 83 02 3d
       0.013245779 0.0038050862 0.091340944 0.031863943
0003b0 d6 88 c3 3c db 35 f3 3a 8b 87 19 bd 59 fe 5b 3c
       0.02386896 0.0018555479 -0.03748278 0.01342734
0003c0 5a 22 44 3d 19 e3 b4 bc c0 62 62 3d 51 a4 31 3d
       0.047884323 -0.022080945 0.055269957 0.043369595
0003d0 47 64 59 3c e1 c8 ac bd 48 fc 28 3d a5 5e db bd
       0.013268537 -0.08436752 0.04125622 -0.107114114
0003e0 5a fa 88 bd c6 d9 b7 bd 57 60 09 3d 90 e7 8c 3c
       -0.06688376 -0.08977084 0.033539142 0.017200261
0003f0 8b 0a 17 3e 51 ba 7b 3d 39 d0 ae 3d 9e 3d 15 3d
       0.14750116 0.061456982 0.08535809 0.036435716

conv2.bias f4 [12]
000000 77 6e 53 bd 37 a4 43 bd a6 55 28 3d e1 84 dc 3c
       -0.05161902 -0.04776403 0.041097306 0.02691883
000010 a0 d1 06 3c 41 f1 aa 3d ae d7 0b 3d f2 5d 0e bc
       0.008228689 0.08346797 0.034141235 -0.0086893905
000020 f1 76 79 bd 45 eb 21 3d f6 e4 f1 3c ae f3 d1 3c
       -0.060904447 0.03953101 0.029528122 0.02562889

fc1.weight f4 [216, 300]
000000 ba 37 16 3d 1f d5 9d bc ef 3e a0 bd 2e ed 12 3d
       0.03667424 -0.019266663 -0.07824504 0.035870723
000010 76 17 0f 3d ac e4 0e bd 5d b1 ab bd 66 c5 2a 3c
       0.034934483 -0.034886047 -0.08383439 0.01042304
000020 24 82 d5 3d 03 07 91 bc 00 a0 b8 3b 3e 4e b1 bd
       0.10425213 -0.017703539 0.005634308 -0.08657502
000030 ce 7d b4 bc 09 ce c6 3d c1 6c 48 bc 74 47 71 bd
       -0.022032645 0.09707267 -0.01223296 -0.058906034
000040 e9 88 c3 bc 76 b3 d5 bc 84 9b 8d 3c 0d 31 fa 3d
       -0.023868995 -0.02608655 0.01728607 0.12216387
000050 f3 24 04 3d 02 80 8e bb 11 b6 93 bd 12 df fd 3c
       0.0322618 -0.004348756 -0.07212461 0.030990157
000060 53 f3 0e 3d a0 8d 61 bd 1a c6 21 bd 24 e5 78 3c
       0.03490002 -0.055066705 -0.039495565 0.01519135
000070 67 15 9c bd e1 2c 17 bc 93 76 4c bc 38 66 d0 bb
       -0.0762127 -0.009227009 -0.012479442 -0.0063598417
000080 01 d3 57 bc 3e 61 77 bd 64 35 43 bd 50 8d 52 bd
       -0.013172866 -0.06039547 -0.04765834 -0.051404297
000090 e6 03 0b 3d 74 7f 95 bd 21 00 6a 3c 93 77 2b bc
       0.033939265 -0.072997004 0.014282257 -0.01046552
0000a0 07 ef fb bc 72 e6 c9 3c 01 82 9e bd ec dc 8f bc
       -0.030753626 0.024646018 -0.0773964 -0.017561398
0000b0 25 ae 86 bd 69 88 3a 3d 2f 74 32 3c 28 92 ae 3c
       -0.06576184 0.045540247 0.010891958 0.021309927
0000c0 54 3e 1a 3d 02 c9 02 3d 48 0f 0b 3d 45 17 e3 ba
       0.037657097 0.031929977 0.03395012 -0.001732566
0000d0 28 dc 72 3d fd 32 05 3e 13 a7 00 3e ea 5f 3d 3d
       0.05929199 0.13007732 0.12563734 0.04623405
0000e0 bf 58 f9 3d bf de 93 3d cd f8 07 3e 1e 30 b6 3d
       0.1217513 0.0722022 0.13278504 0.088958964
0000f0 4b 76 f6 3c ba c5 e9 3c 8b 2c 42 3d 41 d5 bf 3d
       0.030085703 0.028536666 0.04740576 0.09366847
000100 fb 8e 92 3d 6c 38 06 3d 1b 40 a8 3d 17 ea a7 3c
       0.071561776 0.03276865 0.08215352 0.020497365
000110 91 b9 81 3c 13 af 0a 3e 07 5e d9 39 76 e0 ce bd
       0.015835555 0.13543348 0.0004145952 -0.10101406
000120 ad e7 3b 3d 5f 63 c4 3c 31 02 06 3d 12 5b df bd
       0.04587524 0.023973165 0.032716934 -0.10906042
000130 82 b2 9b bd 1c f5 10 3b 71 f5 25 bd 62 17 9c bb
       -0.07602407 0.0022118753 -0.040517274 -0.0047635296
000140 ae ba c0 3c 57 65 13 3c f9 a6 99 bc ac c7 23 bd
       0.023526516 0.008996329 -0.018756377 -0.039985344
000150 7b d7 46 bd 6c a0 ed 3c a9 94 fb 3c e0 88 a5 3d
       -0.048545342 0.02900716 0.030710535 0.080827475
000160 8a ec 86 bd e2 4f d0 bd 03 a0 25 bc 18 9d 81 3c
       -0.06588085 -0.101714864 -0.010108951 0.015821978
000170 99 96 bf 3d d6 40 45 bc 73 84 9a 3c 4a 9b 4a bd
       0.09354896 -0.012039384 0.018861985 -0.0494645
000180 d7 a4 9c bd 9d 2c df 3b 23 bd c5 ba 63 68 c7 bd
       -0.07648628 0.0068107382 -0.0015086274 -0.09736707
000190 a6 fa d4 bd 12 7b 03 bd 9c ea 40 bd cc ab 61 bd
       -0.1039937 -0.03209979 -0.04709874 -0.05509548
0001a0 67 d7 e4 bd ef b6 fa bc dd d1 35 3d e4 ed 2f bd
       -0.11173897 -0.030604808 0.044389594 -0.04295148
0001b0 79 24 2d bd 98 37 d5 bc f1 68 05 bd 00 25 f2 bc
       -0.04227111 -0.026027486 -0.032570783 -0.029558659
0001c0 c4 6a 3f 3d 2f 59 79 bd a1 8c 14 bd 77 03 47 3d
       0.04673268 -0.060876068 -0.036266927 0.04858729
0001d0 4a 63 ad 3d 58 4e 86 3d 87 d6 5e bd 1b 6f ab bd
       0.084662035 0.06557912 -0.054403808 -0.08370801
0001e0 11 0a af 3c 11 dc 25 bd e8 66 0d bd 56 10 92 bd
       0.021367105 -0.040493075 -0.034521967 -0.07132022
0001f0 94 c1 f9 bd 22 17 ce 3d aa 8b 37 3b e7 63 e3 3d
       -0.12195125 0.10063006 0.002800683 0.11103039
000200 27 1c e8 3c 80 bc 3e 3d d1 0a da 3d bf 87 e6 3d
       0.028333737 0.046566486 0.10646594 0.1125636
000210 18 5e b5 3d cd e9 a8 3b 6e 5d 53 3d b9 1a a0 3d
       0.088558376 0.0051548244 0.051602773 0.07817597
000220 87 ab 82 3d a1 61 f3 bb a1 26 ce 3d 01 67 e8 3d
       0.063803725 -0.0074274098 0.10065962 0.113477714
000230 76 bf 3e 3d 4e 9b 5d 3d 9a f7 88 3d e7 c5 c9 3c
       0.04656931 0.05410319 0.06687851 0.0246305
000240 3d de 07 3e 84 7e 04 3d c8 da 32 bd 56 1a 09 3d
       0.13268371 0.032347217 -0.043665677 0.03347238
000250 5c 21 ca 3d 6f 2f 00 3d c7 e3 ff 3c 32 05 29 3c
       0.09869644 0.031295236 0.031236542 0.01031618
000260 8f 7c 85 3d d7 ec 50 3c 5c 26 db 3c 2e 28 53 bd
       0.06517898 0.0127517795 0.02675169 -0.05155199
000270 57 1d 85 3c e5 50 cd 3c 88 25 25 3d cb ca 52 bb
       0.016249342 0.025062988 0.040318996 -0.003216433
000280 9e 29 f0 bc 61 82 a3 3d 67 21 0d 3b fe 4e 4f 3c
       -0.02931672 0.07983852 0.0021534802 0.012653111
000290 87 2e 39 3c 0f 50 11 3d 76 1c ca bb c0 1f 43 bc
       0.011302597 0.03547674 -0.0061679436 -0.011909425
0002a0 76 8f e3 3c 32 fc b0 bc 0b 9d 1e bc 5d 48 8d bc
       0.027778368 -0.021604631 -0.009680997 -0.01724642
0002b0 15 64 d4 3d 1b d6 9a 3d 30 be 5b 3d 8d b9 ef 3c
       0.10370652 0.075603686 0.053648174 0.029263282
0002c0 c7 a1 ef 3b 66 76 20 bc b0 6d 10 bb 28 3d 52 3b
       0.0073129865 -0.009793853 -0.0022038035 0.003207991
0002d0 25 ee 5d bd d8 56 3a 3d 56 59 8d bd a7 43 f5 bb
       -0.05418219 0.045492977 -0.06901805 -0.0074848714
0002e0 e1 fc 73 bd 96 93 31 3d 8e a9 e0 bc 84 72 50 3c
       -0.059567336 0.04335364 -0.0274246 0.012722615
0002f0 6a 25 c0 3b c9 3b b0 3c 7b c0 ed bc f1 54 68 3c
       0.005863835 0.021512883 -0.029022446 0.014180408
000300 37 bf a0 bd 2b b2 8f 3d d3 11 39 3d 50 b1 61 3c
       -0.07848971 0.07016405 0.045183014 0.013775185
000310 5b 6c 65 bc aa f7 46 3c be e1 d2 3b da 30 0a bd
       -0.014002885 0.012144009 0.006435602 -0.033737995
000320 0f 61 3e 3d 1d fa fb 3b 97 9c 74 3d 3e 08 2a 3d
       0.04647928 0.007689728 0.05971965 0.041511767
000330 6e 12 72 bd 1d be 2c 3d 9b 2e 61 3d 7b a4 55 bd
       -0.059099607 0.042173494 0.054976087 -0.052158814
000340 88 44 29 3d 1b 40 43 3d 2b 3a 90 3c 77 8a 43 bd
       0.041325122 0.047668558 0.017605862 -0.047739472
000350 68 bc 19 bb 2c 5d d6 3c 4a 87 34 b9 df 60 3c bd
       -0.0023458246 0.026167475 -0.00017216537 -0.04599082
000360 fb a1 94 bb 76 99 2a 3c 85 6f 69 3d 16 01 b1 3d
       -0.004535911 0.0104125645 0.05699112 0.08642785
000370 a8 13 3b bd 36 58 e4 b8 08 66 24 bd a9 a1 7d 3b
       -0.045673043 -0.00010888318 -0.040136367 0.0038701093
000380 c4 c0 b3 bb c9 2b 60 3d f3 25 74 bb 96 ad b6 3c
       -0.005485626 0.054729257 -0.0037254065 0.02229957
000390 11 5b f2 3b 12 65 e1 3c dc 27 93 3d 78 7f 33 3d
       0.00739611 0.027514014 0.07185337 0.043822736
0003a0 91 e0 25 3d 10 e3 8d 3c ed 45 3b 3b 02 e6 92 b9
       0.040497366 0.017320186 0.0028575615 -0.0002801866
0003b0 41 57 16 3c bc 05 84 3c bc f0 9b 3c 02 3f 3f 3c
       0.009176076 0.016116016 0.01903569 0.011672737
0003c0 1e 22 d3 3c 51 b9 19 3d 7c cf e8 3d a4 a9 87 3d
       0.025773104 0.037530247 0.113676995 0.06624153
0003d0 3e 44 f2 3c c7 75 d4 bc d8 1c 62 bd a3 91 b0 3d
       0.029573556 -0.025935067 -0.05520329 0.08621528
0003e0 c9 ab 4c 3d cf c3 ea 3d cb 83 f0 bc e8 cd ba 3c
       0.049968515 0.11463129 -0.029359719 0.022803262
0003f0 5e d8 7e 3a 70 04 f0 bc f7 41 20 bd 1c 79 1a 3d
       0.0009721572 -0.029298991 -0.03912541 0.037713155

fc1.bias f4 [216]
000000 87 a6 d1 3d 8a 6e 94 3d ad 65 a0 3c a6 95 6c bd
       0.10236841 0.07247646 0.019579733 -0.057759903
000010 fc 5e 49 bc 3b 49 bf 3b a2 ce 57 bc 04 41 14 3d
       -0.012290712 0.005837587 -0.013171824 0.036194816
000020 a7 3d eb 3c 3c 00 c9 3d ff a6 19 bd 5a 41 28 bd
       0.028715922 0.09814498 -0.037512776 -0.04107795
000030 fb 57 eb 3c 5e 86 61 bc d5 21 64 3d 97 c3 2c bd
       0.028728476 -0.013764946 0.055696327 -0.042178717
000040 01 e7 1d bc 0c b4 04 bd 81 fb 39 3d 91 f7 e0 3d
       -0.009637595 -0.03239827 0.04540587 0.109847195
000050 c6 e6 d7 3d 2e 60 b7 3d 9f 65 18 bd b0 88 87 3d
       0.105420634 0.08953892 -0.03720629 0.06617868
000060 5a f1 b8 bc 93 a5 83 3d 59 03 c0 3d 30 56 4d bd
       -0.022576023 0.06428065 0.093756385 -0.050131023
000070 81 8c c0 3d 4c 67 b7 3c c9 02 1f bd e8 e0 34 3d
       0.09401799 0.022388123 -0.038821016 0.0441598
000080 91 e3 1a 3c a2 14 15 bc 5f 87 f2 3d b2 72 58 3d
       0.00945367 -0.0090991575 0.11842226 0.052843757
000090 0f c9 cc bc 23 4e a6 bd e9 0b 56 3c 43 14 43 bd
       -0.024998216 -0.08120372 0.013064363 -0.047626745
0000a0 68 51 ad bc db 6e 89 bd 23 b8 bb 3d a3 56 3a 3c
       -0.021156982 -0.06710597 0.09165981 0.011373195
0000b0 be 39 67 3d c7 be 62 3d 9a ca dc bc b3 c8 0d 3c
       0.05645155 0.05535772 -0.026952077 0.008653807
0000c0 e8 d9 6c bc a5 77 2e 3d 8b 4d 30 3d b3 35 c1 bc
       -0.01445625 0.04259457 0.0430427 -0.023585176
0000d0 e8 e1 90 3c 77 ee b9 bc dc 56 be 3d 52 14 69 3d
       0.017685845 -0.022696717 0.09293911 0.056904145
0000e0 4f 3f 80 3b a2 a7 5b 3d f8 1f c4 3c c5 b0 09 bd
       0.003913797 0.053626664 0.023941025 -0.033615846
0000f0 40 81 94 bc 43 d6 8a 3b 73 28 0b 3d bc 6d 5d bc
       -0.018128037 0.004236968 0.033974122 -0.013514932
000100 2e 42 74 3d 29 14 47 bc ac 99 98 3d e6 96 65 3d
       0.059633426 -0.012150803 0.074511856 0.05605211
000110 24 77 6b bd b5 1a 7a bc 0d 3b 9d 3d 40 71 e2 bc
       -0.05748667 -0.0152651565 0.07677279 -0.027641892
000120 96 66 87 bd 20 bc e1 3d 3e 38 6e bd e2 ae a1 bc
       -0.066113636 0.1102221 -0.058159105 -0.019736711
000130 07 f6 40 bd 17 b0 0c 3e 29 ae 39 3d 2e 42 39 3c
       -0.04710963 0.13739048 0.045332108 0.011307282
000140 78 0f a3 3d 14 dc 9d bb a5 e8 51 bd e9 2d f1 bc
       0.07961935 -0.004817495 -0.051247258 -0.029440837
000150 17 63 10 bd e4 55 76 3d 39 dc 1d 3c 51 b0 df bc
       -0.03525075 0.060140505 0.009635025 -0.027305754
000160 5e c8 1f bd 6f c5 33 bc 01 4e d7 3c 48 62 18 bd
       -0.039009444 -0.010972365 0.026282312 -0.037203103
000170 d5 a1 58 bd dc 16 f1 3c 8f 73 c6 bc 21 e4 5e bd
       -0.05288871 0.029429846 -0.024225025 -0.05441678
000180 88 21 3d 3d 9d 9f 37 bd 7f 16 8a bb 39 49 5f 3d
       0.046174556 -0.044829953 -0.0042141075 0.05451319
000190 b2 97 c7 bc f6 14 03 3e a6 d0 38 3d f5 f6 19 bd
       -0.024364326 0.12800965 0.045120858 -0.037589032
0001a0 1c 34 80 3d a1 e3 db bc be 31 01 bd 30 18 2f 3b
       0.06259939 -0.02684194 -0.03154158 0.0026717298
0001b0 6d f2 0f 3d f5 a5 4b 3d c3 85 db 3d 00 c5 8e bd
       0.035143305 0.049718816 0.107188724 -0.069711685
0001c0 58 76 2f 3d ef 79 cf bc 77 2e 9e 3d bd 38 21 3d
       0.04283747 -0.025326697 0.07723706 0.03936075
0001d0 f1 cc c5 bc 37 f7 0f bd 5a a3 41 bd 3d 84 6b bc
       -0.024145575 -0.03514787 -0.047274925 -0.01437479
0001e0 5c f5 0b 3d 4c 67 8e bd 2e 7f 1c 3d bb b8 54 3d
       0.03416954 -0.06953296 0.038207226 0.051933985
0001f0 b9 3b 8b 3d 2a bb 3f 3d e3 50 7e 3d 0a a5 94 3c
       0.067985006 0.046809353 0.06208886 0.018145103
000200 94 bb e1 3d 41 20 6a 3b 2e 10 b2 3d 76 0e da bc
       0.11022106 0.0035724791 0.08694492 -0.026618224
000210 2d 2c 1d 3d 99 9f 61 3d fe 0d a5 bc bf 5b 25 3d
       0.038372207 0.055083845 -0.020148274 0.0403707
000220 52 01 09 bd 20 e6 40 bd 7b 69 56 3d ec 86 9e bc
       -0.033448525 -0.047094464 0.052346688 -0.019351445
000230 6c a3 f3 bc e9 44 d1 3d 00 60 8d bc d6 d5 71 bd
       -0.029741012 0.10218222 -0.01725769 -0.05904182
000240 fb 47 65 3c 09 69 bf 3d e6 7e 6b 3c 1b 6b 94 3d
       0.013994212 0.09346206 0.014373517 0.07246991
000250 63 88 79 bd 1d cc 20 3d 19 a0 6e bd 7e b5 d7 bc
       -0.060921084 0.039257158 -0.05825815 -0.02633166
000260 84 06 1b 3d 92 0c b9 3c 10 cb 35 bd 92 e2 4b bc
       0.03784801 0.022589002 -0.04438311 -0.012444155
000270 45 27 76 3d c3 1b 2b 3d ce ba cd b9 32 60 40 bb
       0.060096044 0.041774523 -0.00039239827 -0.0029354212
000280 09 14 d8 bb 4e 3e e2 3d 44 83 63 3c 1c 40 e5 3c
       -0.0065941853 0.1104704 0.013886277 0.027984671
000290 e8 7b c8 bc 8e bf 98 bd 7e 16 df 3b cc 0f 34 3d
       -0.024473146 -0.07458411 0.006808101 0.043960378
0002a0 06 63 16 3c 77 f3 30 ba e9 e9 5a bd dd 99 cd 3c
       0.009178882 -0.0006750146 -0.05344573 0.025097782
0002b0 f0 2e 41 bc ae dc 92 3c ce d2 7e bd 04 79 76 bd
       -0.011790976 0.017927494 -0.062212758 -0.060174003
0002c0 8f ec 99 bc ce 8b b9 3d ec 9e cc 3c 8b 53 31 3c
       -0.018789558 0.09059869 0.024978124 0.010823141
0002d0 a1 6d 83 3d 65 67 81 bd 4d fe c2 bc 00 17 e7 3c
       0.064173944 -0.06318549 -0.0238029 0.02820921
0002e0 7d 83 36 3d 05 ae c7 3c 49 d7 43 3c 98 63 18 bd
       0.04455899 0.024374971 0.011953183 -0.037204355
0002f0 9e a6 be 3d 1d 84 1e bd 0c 74 8d bc b6 18 bf 3d
       0.093091235 -0.03870021 -0.01726725 0.09330885
000300 81 d0 82 bd d7 98 47 3d 49 2a 36 bd cd 8e a3 3d
       -0.06387425 0.048729744 -0.04447392 0.079862215
000310 f7 c7 46 3d d8 d0 07 3d 42 ac f2 3d d7 d0 d6 b9
       0.048530545 0.033158153 0.11849262 -0.0004097286
000320 94 b8 78 3b fb ef 13 3d 64 d3 6d 3d 4b 79 28 bb
       0.0037951814 0.036117535 0.058062926 -0.0025707062
000330 4f 40 50 bd b3 4f 32 3d b9 3c 94 3c 03 e8 81 bc
       -0.05084258 0.04353304 0.018095361 -0.015857702
000340 7e 53 29 bc 3c 18 18 3c 10 90 dd 3c 60 6f 89 3c
       -0.0103348475 0.009283122 0.027046233 0.01677674
000350 f3 56 b4 3d 4c 0f d5 3d ac 63 d8 bc 72 5b 5b bd
       0.08805647 0.10403308 -0.026414715 -0.053554006

fc2.weight f4 [108, 216]
000000 73 0f 86 bd c5 02 bc bc 43 f9 ca 3d 48 a8 8e 3d
       -0.065459155 -0.02295054 0.09910824 0.06965691
000010 f6 e4 ab bd bc a8 b2 3b f2 c3 85 bd 79 81 92 bb
       -0.0839328 0.0054522436 -0.06531514 -0.0044710007
000020 e2 15 10 3d 10 d3 0b bd 8b 41 6e bd d9 8c 1f bd
       0.03517712 -0.03413683 -0.058167975 -0.038952682
000030 e2 0c 00 3d b6 8d 5c bd 2e 40 c2 3c cd 06 01 bd
       0.031262286 -0.053846084 0.023712244 -0.031500626
000040 7a 26 ec bb ab 0b 72 bd 3c 0e 85 3b 73 e9 d4 bb
       -0.007206735 -0.05909316 0.0040605348 -0.006497556
000050 af 22 2d bb bf 90 81 3d 70 cc 13 3c 5f 64 57 bd
       -0.0026418378 0.06326436 0.00902091 -0.052585956
000060 6a 65 c0 3c 84 d5 ac bc 91 4d b7 3c ae a4 05 3d
       0.023485858 -0.021097906 0.022375854 0.032627754
000070 8e 88 fe 3b 3d 89 f1 bc a0 36 12 3d 2c be f6 bc
       0.0077677434 -0.029484386 0.035696626 -0.030119978
000080 63 9a 67 3c 97 46 00 3d 3b 20 08 3d 48 22 86 bd
       0.01413593 0.03131732 0.033233862 -0.065495074
000090 60 84 08 3d d5 67 0a 3a 48 85 9b 3b 9a bf ae bc
       0.033329368 0.00052797544 0.004746113 -0.021331597
0000a0 89 a7 8a bc 15 19 84 3d e7 7d b7 ba 51 8d 2d bd
       -0.01692559 0.064500965 -0.0013999314 -0.042371098
0000b0 c1 e1 a6 bd 6d a7 14 bd 0a eb a8 bc 42 93 65 3d
       -0.08148528 -0.036292482 -0.020619888 0.05604864
0000c0 0a fc 7d bb ac 5d 84 3d f0 f2 82 bd 04 55 32 3d
       -0.0038754963 0.06463179 -0.06393993 0.04353811
0000d0 e6 49 69 3c 42 ac 24 bd 17 03 34 bd d1 20 9b bb
       0.01423881 -0.04020334 -0.04394826 -0.0047341366
0000e0 e5 3a 1f bd ab fc ce bb 86 f3 48 3d 99 21 80 3d
       -0.038874526 -0.0063167415 0.049060367 0.06256408
0000f0 23 ec 45 bd cb fb 2a 3b 64 0a 78 3d 4c 3e 72 bc
       -0.0483209 0.0026090022 0.060556784 -0.014785361
000100 e6 52 45 3d ce 29 6d 3c 19 35 da 3c 9b 22 65 bd
       0.04817476 0.014475299 0.026636647 -0.055941205
000110 cd 70 95 ba 72 21 41 3b 89 32 f7 bb 0e 0e 38 3d
       -0.0011401415 0.0029469398 -0.007543866 0.04493528
000120 75 34 99 3c 3f 16 1c 3d 5b b5 e5 3c a6 ff c1 ba
       0.018701771 0.038107153 0.028040579 -0.0014800921
000130 ee 5c 25 3d 2e bd 92 bc 13 9d 9e bc 63 00 21 bc
       0.040371828 -0.017912474 -0.019362008 -0.009826752
000140 e6 d5 ef bb 73 81 1f 3a 50 b9 cc 3c 1f d0 24 bd
       -0.0073192 0.0006084658 0.024990708 -0.040237542
000150 a6 93 42 bd 3f ed 56 bd 54 8d 7d bd 94 13 e2 bc
       -0.04750409 -0.05247235 -0.06190236 -0.027597226
000160 1a b8 6b bd ea 72 a5 bc 97 e8 2d 3c a2 04 8e bc
       -0.05754862 -0.020196397 0.010614536 -0.017336193
000170 76 5f 68 3d 5a 1f 58 3d 3d 8b 29 bd d4 69 26 bb
       0.056731664 0.052764274 -0.041392554 -0.0025392668
000180 60 be 06 3c f8 46 58 bc ac 94 2c bc 45 e9 c0 bc
       0.0082241 -0.013200514 -0.010533493 -0.023548732
000190 b4 72 25 bd 64 6a 19 3c ee 6d 04 bd 0c e9 c0 3d
       -0.040392593 0.009363744 -0.0323314 0.0941945
0001a0 39 01 57 3c fc 99 41 3d 4d 42 64 3d af 55 83 bd
       0.01312285 0.04726599 0.05572729 -0.06412827
0001b0 3c 05 b5 3c 0a 9a a4 3c 6d d8 35 bd 4f 42 16 3d
       0.022097223 0.020092983 -0.044395853 0.03668433
0001c0 36 d1 dc 3c 14 b4 52 bd c3 71 65 bc b7 e3 0a 3d
       0.026955228 -0.051441267 -0.014004174 0.033908572
0001d0 43 cb cc bc 27 4d 07 bc 36 9c b8 bc b0 13 51 ba
       -0.024999266 -0.008258141 -0.022535425 -0.0007975651
0001e0 30 73 3c 3d 4f b7 9f 3c 71 dc 65 bd 83 38 7b 3c
       0.04600829 0.019496588 -0.056118432 0.015333298
0001f0 ec 14 0d bd 5d ba 54 bc f8 a8 2a 3d 87 64 13 3d
       -0.03444378 -0.012983886 0.041665047 0.035984542
000200 b8 9d 11 bd 1f 75 39 3d d1 3e 6f 3c 5e 5c 43 3d
       -0.035550803 0.04527771 0.014602379 0.04769551
000210 d7 fa a5 bc f0 73 a6 3c 3c e0 04 bd 6b b1 22 3b
       -0.020261211 0.020318955 -0.03244041 0.0024824988
000220 f5 9b 75 bd 95 24 24 bd fb 63 c7 3c 2c 24 9a bc
       -0.059963185 -0.04007395 0.024339667 -0.018816076
000230 47 a5 14 3c 22 d5 0e 3d 1b 0a 87 bd f1 34 81 3d
       0.009072608 0.034871228 -0.06593724 0.06308926
000240 88 26 de bc ad 23 eb bb fb 18 5b 3d 85 51 be 3a
       -0.027117983 -0.0071758837 0.05349062 0.0014520144
000250 83 d2 6c bc f7 de 2a 3b 54 2f 60 3d ec 28 cc 3c
       -0.014454487 0.0026072839 0.054732636 0.024921857
000260 04 26 11 3d 73 1f c2 bc 17 7a 89 bd aa 30 7f 3c
       0.035436645 -0.023696637 -0.0671274 0.015575567
000270 6e d2 4f 3d 26 50 72 3d c8 a7 4e 3d 67 45 04 ba
       0.05073779 0.059158467 0.050452977 -0.0005045742
000280 9c 05 ab bd 9d 82 41 bd 37 78 ec 3c 1b f4 b4 bd
       -0.08350679 -0.047243703 0.028865917 -0.08835622
000290 b5 dc 68 bd a9 ad 88 3d d9 98 d0 3c da 7d 1a 3d
       -0.056851108 0.06673748 0.025463508 0.037717678
0002a0 b0 b2 44 3c 5f 18 67 3d 72 95 34 3d 8f 31 ed bd
       0.012005493 0.056419726 0.044087835 -0.11581718
0002b0 5a 35 ac bc 88 3b 93 bd d7 da 2e 3d a2 c7 9a bd
       -0.021021534 -0.07189089 0.04268917 -0.07557608
0002c0 0d c5 ce bc 2b cf e6 3c 5e e3 03 bd f0 a3 f0 3c
       -0.025240446 0.028174957 -0.032199256 0.029375046
0002d0 37 23 25 bc 18 52 3e bd f5 6a 99 bb e9 92 c8 3c
       -0.010079197 -0.04646501 -0.0046819397 0.024484115
0002e0 1f 11 32 bd 8d 2f 49 3c 6a 56 02 3d a6 d6 1f 3d
       -0.04347336 0.012279403 0.031820692 0.039023064
0002f0 06 70 77 bc 3f a9 01 bc a3 89 c3 bb 07 0a 3c bd
       -0.015102392 -0.007913887 -0.0059673353 -0.045908
000300 b0 d9 c9 bc 6b 64 a1 3d c6 0d da bc 4f 98 0e bd
       -0.024639934 0.07880481 -0.026617896 -0.03481322
000310 3a 9d 35 bd e2 68 0b 3d 05 07 a3 3c b5 17 1f 3d
       -0.044339396 0.03403557 0.019900808 0.03884097
000320 1b 7a 28 3c 24 a3 cb 3c ef 90 92 bd 9e c5 05 3d
       0.010283018 0.024858065 -0.0715655 0.032659166
000330 9b 69 89 3d 6c 87 18 3d 22 a8 6d bd ac 67 42 3c
       0.06709596 0.037238523 -0.058021672 0.011865538
000340 9d e1 03 bc 3d 78 4a 3d a4 09 22 3c fe 2f 0a bc
       -0.008049396 0.049431074 0.009889994 -0.008434294
000350 f9 c1 58 3d e7 16 a8 bd 4d 36 a7 bc 01 15 0c bd
       0.05291936 -0.08207493 -0.020411635 -0.03419972
000360 05 0d 0b 3d 45 bf a9 3d 82 56 ce 3a a9 70 da 3c
       0.033947963 0.08288435 0.0015742334 0.026665049
000370 56 70 fb bd 9b b1 b4 bd 2d 86 81 bd 72 34 bf bd
       -0.12277286 -0.08822938 -0.0632442 -0.09336175
000380 81 fa 87 3c 93 46 a8 3b c3 c5 9c 3c ad 67 8f bd
       0.016598942 0.005135366 0.019137269 -0.070021965
000390 b5 1f b1 3d f4 9c 8e bc 6f 73 ce bc b3 73 91 bd
       0.08648626 -0.017408825 -0.025201527 -0.07102146
0003a0 f5 31 7a 3d 06 d0 9e bc a5 fb 9f 3d 3e c5 0b bd
       0.0610828 -0.019386303 0.07811669 -0.03412365
0003b0 e9 29 c0 bd 21 32 a3 3d 92 17 8d 3d 8c da d9 3c
       -0.09382994 0.07968546 0.06889261 0.02659347
0003c0 7c fb 54 bd 6e 8a c4 bc ca c5 ef 3c b7 97 55 bd
       -0.051997647 -0.02399179 0.029269118 -0.05214664
0003d0 72 51 1b bd df 4d 39 3d 17 37 66 bd 9a 83 a1 bd
       -0.03791947 0.04524028 -0.05620488 -0.07886429
0003e0 5d fe ba bc df f4 fb bc 68 b5 ce 3c 85 75 3c bc
       -0.022826368 -0.030756412 0.025232986 -0.011502628
0003f0 b6 6d a8 3c 65 f4 71 bd 58 1f 14 3d 77 2c db 3b
       0.020560127 -0.059070963 0.036162704 0.00668865

fc2.bias f4 [108]
000000 94 9e a9 bd c9 b1 d9 3d 74 65 18 bc 05 19 39 3d
       -0.082821995 0.10629613 -0.009301532 0.045189876
000010 bb a4 67 bd 30 1d 18 3d 81 56 d4 3d cf cb 45 bd
       -0.056553584 0.03713721 0.10368062 -0.04829007
000020 fe a8 c4 bd 4d 56 30 bd 2b 8b 09 3e 7a 89 b6 3c
       -0.09602545 -0.043051053 0.13431995 0.02228235
000030 7f e2 86 bd ca 94 89 bd 06 db 33 3d c6 e8 8b 3d
       -0.065861695 -0.067178324 0.04391005 0.068315074
000040 73 ba b4 3d f3 2e 93 bd 1f 73 5f bd 8f 43 2c 3c
       0.08824625 -0.07186689 -0.054553147 0.010514154
000050 9a 71 1a 3d 35 9c 1a bd 0c 28 91 3d a8 ca 85 bd
       0.037705995 -0.037746627 0.070877165 -0.06532794
000060 5f 79 51 3d a0 f6 6e bd 38 42 9e bb d9 84 fb bc
       0.05114114 -0.05834067 -0.0048296712 -0.030702995
000070 60 f5 fd 3d 3e 8f 1b bc ee 37 ad bd 75 0e 11 3c
       0.12400317 -0.009494601 -0.08457933 0.0088535445
000080 95 61 79 bd f2 cc 97 3c f0 f8 09 3e a1 41 3f bd
       -0.060884077 0.018530343 0.13473868 -0.046693448
000090 b9 92 8f 3d ea db 5f bd 23 f0 30 bd eb 60 8f bd
       0.07010407 -0.054653086 -0.043197762 -0.070009075
0000a0 74 24 9c 3d 42 27 b9 3c b0 3d 98 3d 0f ec 50 3c
       0.076241404 0.022601727 0.07433641 0.012751593
0000b0 62 56 8a 3d f3 c3 73 bd c9 0f 17 3e be 0e a0 bd
       0.067547575 -0.059513044 0.14752115 -0.07815312
0000c0 dc b8 5d 3c 9d 55 83 3c 0a 23 66 bd 8c 86 cc 3c
       0.013532843 0.016032035 -0.05618576 0.0249665
0000d0 37 8e c1 3c ef 89 9e bc 2d 01 29 3d 82 07 88 bc
       0.023627384 -0.019352881 0.041260887 -0.016605143
0000e0 3f 52 8b 3d a1 df d7 3b 6d 40 ed 3d 95 26 be 3c
       0.068027966 0.006587938 0.11584554 0.023211757
0000f0 23 e5 9a 3c 53 9c 44 bc 84 7c 98 bd 8d 63 7c bd
       0.018908089 -0.012000161 -0.074456245 -0.061618377
000100 67 c6 14 bd e9 01 67 bd 1f 80 83 bd 16 5b 98 3b
       -0.036322024 -0.056398306 -0.064209215 0.00464953
000110 f9 f1 64 bd f2 55 a0 bc 38 1f 80 3d f3 45 29 bd
       -0.055894826 -0.019572232 0.062559545 -0.041326474
000120 36 1d 8a bc 0f 0f e9 3d 8e d3 49 bd 3d 8f 9f bc
       -0.016859632 0.11379825 -0.04927402 -0.019477481
000130 e6 8e e3 3c 44 f3 8f bd ce 4f 0d 3a 65 88 4a bd
       0.0277781 -0.07028821 0.0005390615 -0.049446482
000140 89 f9 17 3d a6 ff 0c bd 70 50 a7 bc ef 78 24 3d
       0.03710321 -0.034423493 -0.020424098 0.040154394
000150 bc d6 56 3c 7f 6d 78 3c 74 28 a6 3d 83 04 8d bb
       0.01311272 0.015162825 0.081131846 -0.0043035164
000160 be 0e fc 3c 6f 50 69 bd f8 c7 9d 3d 0e 55 91 3d
       0.030768748 -0.056961473 0.07704157 0.07096301
000170 8b cd 9e bd ca 0d 6a 3d 9a 1d d9 3d cd 13 f2 bb
       -0.07754048 0.057142057 0.10601349 -0.0073876143
000180 cd 21 83 3d 9f 5d 3e 3b 22 2e c0 3d 03 b5 53 3c
       0.06402931 0.0029047502 0.09383799 0.0129215745
000190 9a 79 ed 3b fa 5e 17 3c dd 8f 2c bd 94 d2 e7 3d
       0.007247162 0.009238953 -0.042129386 0.113194615
0001a0 59 4f 93 3d 5e e0 a2 3c e4 ad d1 3c 76 78 ac bd
       0.07192869 0.019882377 0.025595613 -0.084214136

fc3.weight f4 [5, 108]
000000 cf 3e 7d bd fe 01 31 3d e0 db 1c 3c dc 90 fd bc
       -0.061827477 0.04321479 0.009573907 -0.030952863
000010 0d 1c 1d 3d 90 f8 17 bb 71 84 aa 3d 55 5d 56 bd
       0.03835683 -0.0023188926 0.083260424 -0.052335102
000020 55 27 0d 3d 1c 6d 0d bd 36 fb 8c bc 81 3f f7 3d
       0.034461338 -0.034527883 -0.01720963 0.12072659
000030 b0 23 b6 bd 35 1e f1 3d e2 5a 97 3d c7 75 fb bd
       -0.088935256 0.1177334 0.073903814 -0.122783236
000040 94 ca ee 3d 53 b8 9f bc 44 53 86 bd 6f 53 06 bd
       0.116597325 -0.019497072 -0.065588504 -0.032794412
000050 5f 73 39 3d f4 4d 91 3c 6e 15 71 3d bb 87 9a 3d
       0.045276042 0.017737366 0.058858328 0.0754542
000060 db 0f 98 bd 97 69 c8 3c 21 0f 89 bd 59 4f a4 3d
       -0.07424899 0.024464412 -0.06692339 0.08022947
000070 10 38 30 bd a3 be e1 3d 50 fe 31 bd b4 85 f5 3c
       -0.043022215 0.11022689 -0.043455422 0.029970981
000080 57 49 b8 3d 55 57 63 3c 2a 9e 89 3d ad 9f 89 bd
       0.089983635 0.013875802 0.067196205 -0.06719909
000090 45 78 ef bc b2 af 29 bd 8f 54 5d bd 32 24 b3 3d
       -0.029232154 -0.04142732 -0.05403572 0.08747138
0000a0 07 8e 14 bb ff 1d 3d bd e0 42 03 bd 37 c7 29 3d
       -0.0022667663 -0.046171185 -0.0320462 0.04144975
0000b0 b4 e7 4f bd 7f 57 db 3d c2 1d 18 bd eb 63 71 bc
       -0.05075808 0.10710048 -0.037137754 -0.014733295
0000c0 2a db 57 3d e2 25 8d 3d a9 18 86 bc a6 cd 9d bd
       0.052699246 0.06891991 -0.01636918 -0.0770524
0000d0 37 cf b6 3d c7 ca 37 3d 64 99 0b bd 16 10 bc bd
       0.08926242 0.044871118 -0.03408183 -0.09182756
0000e0 78 91 7d 3d b9 43 b7 bd c1 56 bc bb 02 ca 1c 3d
       0.061906308 -0.08948464 -0.0057476466 0.038278587
0000f0 ef 6b 9a bd 0a 36 b3 3d 45 2c d2 3c 22 4b 64 3d
       -0.07540118 0.087505415 0.025655875 0.055735715
000100 80 e5 0a bd df 30 84 3d 24 a2 82 bd 73 6e b4 bc
       -0.033910275 0.06454634 -0.06378582 -0.022025323
000110 eb 66 84 bd 03 99 9c bb 2c 55 21 3c 7c 86 a4 3c
       -0.064649425 -0.0047789826 0.009846967 0.020083658
000120 70 45 a8 bd 5f 14 a0 bd 96 93 5a bd 85 27 be 3d
       -0.08216369 -0.078163855 -0.053363405 0.092848815
000130 bf b6 a8 bd 52 6d aa 3d ce c5 f9 3c 1e 82 43 3d
       -0.08237981 0.083216324 0.030489828 0.04773151
000140 64 42 82 bd 6c c7 c7 bc db 93 7c bd 17 38 17 3d
       -0.06360319 -0.024387084 -0.061664443 0.036918726
000150 c8 c9 7e 3c 65 52 b6 3c a4 2d 03 be 1f d5 cf bd
       0.015551038 0.022256086 -0.1281038 -0.101480715
000160 3a ab 4c bd 3c ec 11 bd 43 be 03 bd 6e 73 a0 bd
       -0.049967982 -0.03562568 -0.03216387 -0.078345165
000170 22 b0 22 3d d8 90 8a 3c 9d dc e3 bb 75 30 50 bb
       0.039718755 0.01691477 -0.0069537894 -0.0031767164
000180 34 c7 9b bb 37 df 25 bc 5a 94 fd bd 36 4e bc 3c
       -0.0047539715 -0.010124019 -0.123818114 0.022986513
000190 0b d0 00 3d a8 51 d8 3c 1a 3b 67 bd 67 39 8a bb
       0.031448405 0.026406124 -0.056452848 -0.0042182687
0001a0 2e ee 16 3d fc 08 d8 3b 0d 1c 80 3d fe 46 2c 3b
       0.03684824 0.006592868 0.0625535 0.0026287432
0001b0 e4 e4 df 3c 2b df 34 3b 0f 14 06 3c 59 07 76 bd
       0.027330823 0.0027598839 0.008183493 -0.0600656
0001c0 4a 7a 9d bd 1a 23 33 bd de 12 ee 3b ec 2f d9 3b
       -0.076893404 -0.043734647 0.0072654327 0.006628027
0001d0 44 71 a3 bc 8c 27 53 bd e0 f1 87 3c f7 62 fa bc
       -0.01995147 -0.051551387 0.016594827 -0.030564768
0001e0 73 47 db bc 5b f2 cf 3c ce 18 2e bb 8a 48 f4 bd
       -0.026767468 0.025384119 -0.0026565078 -0.11927898
0001f0 2d ec 93 3d 4d 5f 92 3d 45 6c 2e bc 50 d8 2e 3d
       0.07222781 0.071470834 -0.010645931 0.04268676
000200 46 52 53 3d ff 39 ce bb b3 b2 b3 3c 63 91 a8 bb
       0.051592134 -0.0062935348 0.021935796 -0.0051442846
000210 c6 9d 84 3d 1b 87 13 bd 9c f7 43 bc 80 5e 6d 3b
       0.064754054 -0.03601752 -0.01196089 0.0036219656
000220 09 d2 c7 3d 43 46 0d bb 17 3e 94 bd a2 e6 f7 3c
       0.09756858 -0.0021556772 -0.07238405 0.030261341
000230 8e 17 38 bd 7a 7a cb bb b9 3e 9a b9 12 c8 ba 3d
       -0.04494434 -0.0062096687 -0.000294199 0.09120192
000240 48 96 c0 bd 9d b4 16 bd 3b 48 f1 bc c8 65 27 3d
       -0.09403664 -0.03679334 -0.029453387 0.04086855
000250 d7 14 25 bd 87 d2 43 bd 4a c3 c0 bd 5f d0 96 3d
       -0.040303078 -0.047808196 -0.094122484 0.073639624
000260 08 c1 6e bd 0e 6c 8b 3d 8a 1b 8f 3d af 8a b4 3d
       -0.058289558 0.06807719 0.069876745 0.08815514
000270 8b ae e3 bd 91 4d 1c 3d 20 b5 a8 3d 5e 3b 9b bd
       -0.11117276 0.03815991 0.08237672 -0.07579683
000280 27 5f b6 3d ad e7 86 3b 89 81 15 3a 05 7a 42 bd
       0.089048676 0.0041169734 0.0005703201 -0.04747965
000290 6d 31 b6 3d c5 a0 01 bc 15 6d 38 3c 50 c7 53 bd
       0.08896146 -0.007911866 0.011256476 -0.05170375
0002a0 83 aa d4 bd 76 1e 9a 3d 9f e6 82 bd 57 3f be 3d
       -0.10384085 0.07525341 -0.06391644 0.09289425
0002b0 8b 1e 43 3c d7 f9 2d 3a d7 0b 55 bd a0 65 58 3d
       0.0119091375 0.00066366553 -0.052013244 0.052831292
0002c0 7a 70 2f 3d 90 78 54 3d 7c 83 ca 3d 13 ef 55 bd
       0.042831875 0.05187279 0.0988836 -0.052229952
0002d0 35 a8 96 bc 69 b5 5c 3d 82 25 41 3d e8 6a c0 3c
       -0.018390754 0.053883944 0.04715491 0.023488477
0002e0 bb 89 2a bd e6 30 96 bc e7 60 9d 3d 1d 6b 81 3d
       -0.041635256 -0.018333863 0.07684498 0.06319258
0002f0 2b cd 08 bd 7c 95 53 3d 0a 4e 45 bd e0 aa 83 3d
       -0.03339879 0.05165623 -0.048170127 0.06429076
000300 4a 9f 3d bd 5a 84 aa bd b6 d1 a3 bd db 3c aa 3c
       -0.046294488 -0.08326025 -0.079989836 0.020780971
000310 6c ab 76 3d c9 6d a2 3d 7f d1 98 3d 96 1c ac bd
       0.060222074 0.07931096 0.07461833 -0.0840389
000320 bb 2a 4b 3c 14 82 52 b8 ba a2 93 bd 5e e2 18 bd
       0.012400324 -5.0189046e-05 -0.07208772 -0.037325256
000330 57 f0 7b 3c 77 43 ba 3d a1 ca 43 bc 90 0b 17 bd
       0.015377126 0.09094899 -0.011950166 -0.03687626
000340 04 f1 89 bd 9a cd cb bd 22 5f e4 3d 04 82 52 3d
       -0.06735423 -0.09951325 0.11150958 0.051393524
000350 fe e0 69 bc 21 b7 4d bd e9 b8 46 bd 1b 90 d4 bc
       -0.014274834 -0.050223473 -0.048516188 -0.025947621
000360 13 5b 74 bc db 7f 70 3c 0a cf 3a bd 9c 31 01 be
       -0.014914292 0.014678921 -0.045607604 -0.1261658
000370 b9 c5 c3 ba ba fe ea 3a fa 0d d2 3d bb 49 fa bc
       -0.0014936245 0.0017928698 0.10256572 -0.030552736
000380 b8 6f 84 bd 66 c5 df bd d6 f0 9f 3b 00 25 6f 3d
       -0.06466621 -0.10926323 0.004881005 0.058384895
000390 74 ff 4e 3d 9b 1e 5c 3d 14 39 97 3d da b1 b4 3a
       0.050536588 0.053740125 0.07383934 0.0013785914
0003a0 fb 79 d4 3d b6 8b 68 3d e5 03 89 bd 87 b0 43 3d
       0.103748284 0.056773864 -0.06690196 0.04777577
0003b0 c6 68 61 3d 6c a3 ca 3a b8 3a 17 3d 2d 95 b4 3c
       0.05503156 0.001546008 0.036921233 0.022043789
0003c0 ed 3a 6e 3d bb 7c 8f bd 8a 3b 33 bd 9d 9f 89 3c
       0.058161665 -0.07006212 -0.043757953 0.016799742
0003d0 9a e9 96 bd 84 5d 1e 3d c3 15 1a bd 5d d4 e1 3d
       -0.07368775 0.038663402 -0.03761841 0.11026833
0003e0 4f b7 a0 bc 57 b0 8d bb 36 77 21 bd 89 40 81 3d
       -0.019618658 -0.004324 -0.03942033 0.06311137
0003f0 a3 1f 3e bd 86 31 06 3d fe 53 05 3d 34 56 b3 bd
       -0.04641689 0.032762073 0.032550804 -0.08756676

fc3.bias f4 [5]
000000 25 40 2f 3d 6f fe 13 3d d4 40 34 bb d8 10 41 3d
       0.042785782 0.03613132 -0.002750446 0.047135204
000010 60 4e 28 3c
       0.010272592
