Exercise-1-RL/imitation_learning/models/agent_history1_cnn_ndata.pt (torch, 854261 bytes, 16 tensors)

conv1.weight f4 [6, 2, 3, 3]
000000 df e6 4b bb 96 d9 3c 3e d6 a2 6f bb 26 27 a8 bc
       -0.0031112952 0.18442377 -0.0036565564 -0.02052648
000010 6d aa 3f be 09 fb 6d be 33 68 20 3e 05 bd 7a be
       -0.18717356 -0.23240294 0.15664749 -0.24486168
000020 7a 15 5a 3c 37 a6 c4 bd 8d 89 20 3d 5b 75 0f 3d
       0.0133107845 -0.096020155 0.03919368 0.03502403
000030 05 74 8c 3d c1 76 85 3e a5 89 70 bc ac 2c 48 3d
       0.068580665 0.26067165 -0.0146812545 0.048870727
000040 83 25 5a be cd f8 5c 3e e8 bc 6c 3e 1d be 0b be
       -0.21303372 0.21579285 0.23118937 -0.13646741
000050 9e 45 b4 bd bf 7b ad bd 01 e7 63 3e 18 43 0b be
       -0.08802341 -0.08470868 0.2225609 -0.13599813
000060 d0 dc a0 3d 1f 4f 43 be 5f 83 ae bd 5a 94 81 3e
       0.07854617 -0.19073151 -0.08521151 0.25308496
000070 54 37 02 be 97 b3 18 3e 1d bd 25 be 7e 43 17 be
       -0.12716419 0.14912258 -0.16185422 -0.1477184
000080 e6 e8 66 bd ca 5a 6b bc 31 6e 8c 3d 8c 6b 9f bd
       -0.056374453 -0.0143649075 0.06856955 -0.07784185
000090 0f d4 f7 bd 88 30 0b be b3 40 6d bd 74 4f 4c bd
       -0.12100994 -0.13592732 -0.05792303 -0.04988046
0000a0 bb f0 0b 3d cf 1a 0b 3d ea 9e a7 bb a9 00 50 3e
       0.034165125 0.033961114 -0.0051153796 0.20312752
0000b0 47 79 27 3d 25 4a 82 3e 54 56 6a be 51 fb 5a be
       0.040887143 0.25447193 -0.22884494 -0.21384932
0000c0 9e 37 29 bd ad f0 b4 bd 48 11 11 bd 54 83 06 bd
       -0.041312806 -0.08834968 -0.03541687 -0.032840088
0000d0 8f e1 75 3e 95 a6 4e 3e 2f 86 b0 bd dc 62 1b bc
       0.24011825 0.20180734 -0.086193435 -0.009484019
0000e0 c3 45 11 be fe 99 a0 3c 29 e1 0d 3e 6f fd 37 bc
       -0.14186768 0.01960468 0.13855423 -0.011229857
0000f0 19 f7 68 bd 10 ef 8b 3d 88 4a 11 be 94 c5 ca bd
       -0.056876276 0.06832707 -0.14188588 -0.09900966
000100 3e cc 4f 3e 27 f2 73 be bf 9d bb bd eb b2 41 3e
       0.20292756 -0.23822843 -0.09160947 0.18915908
000110 8d 6c 0f be 84 a2 9a bd 47 ba 09 be 3d 54 0d 3e
       -0.14006253 -0.07550529 -0.13449965 0.13801666
000120 18 67 7e be ae 6a 95 3e 18 a6 74 3d a7 c2 9c 3d
       -0.24844015 0.29182953 0.05972871 0.076543145
000130 41 c4 2e 3e 0a 7a 62 3e 25 cb 16 be 6a fc b8 3c
       0.17067052 0.22116867 -0.14725931 0.022581298
000140 c0 9d 7f be 1c da fe bd a3 85 b7 3d af 10 86 bd
       -0.2496252 -0.12443945 0.08961036 -0.06546151
000150 76 e1 61 be d8 6b 0c be cf eb 35 be e8 79 54 bd
       -0.22058663 -0.13713014 -0.17765735 -0.05187407
000160 83 48 51 bd 93 15 3d 3d b4 00 26 be bc d2 17 be
       -0.051094543 0.046163153 -0.16211206 -0.14826483
000170 e0 09 1f 3d 74 55 6d 3d df 35 f4 3d ae 73 39 be
       0.038827777 0.057942823 0.119243376 -0.18110535
000180 21 93 42 3e e0 a5 06 be f8 8b 8c be 57 00 91 3e
       0.19001438 -0.13149214 -0.27450538 0.28320572
000190 4d 51 d6 3d c8 1f df bd 86 49 d2 bd 11 77 70 be
       0.10464726 -0.10894734 -0.1026793 -0.2348292
0001a0 e3 1b c4 3d ae 0f 55 be 6b 81 2a be f4 6e e6 bd
       0.095756315 -0.20806763 -0.16650932 -0.112516314

conv1.bias f4 [6]
000000 b7 d8 e1 3b 14 3b f3 ba 03 d9 a9 3d ff fa b0 bd
       0.0068922895 -0.0018557035 0.08293345 -0.08641624
000010 cc b0 0d be 30 5f ee 3d
       -0.13836974 0.11639249

conv2.weight f4 [12, 6, 3, 3]
000000 4f 3f ba 3c 11 1c 16 3e 81 64 16 be 97 aa 34 3e
       0.022735266 0.14659144 -0.14686777 0.176432
000010 30 b5 57 3d 02 a3 f8 3d 5e a2 85 bc b4 3e 1d be
       0.05266303 0.12140466 -0.016312774 -0.1535595
000020 e4 45 c1 3d 5a 0d 0b bd 38 fb 93 3d d9 5c 36 3d
       0.09437159 -0.03394828 0.072256505 0.04452214
000030 35 52 41 be 77 db b4 3d 77 97 1b bd c4 cf 90 3d
       -0.18879016 0.08830922 -0.037986245 0.07070878
000040 f6 b1 10 3d 1f 5e ff 3d 13 ed 8f bc 77 79 76 3d
       0.035325967 0.12469124 -0.0175691 0.06017443
000050 3a 86 d7 3d 88 51 d0 3d 4c 5f f4 bc 7d 0c db bd
       0.105236486 0.10171801 -0.029830597 -0.10695741
000060 f1 84 b5 3d 2c 0c 24 3e cb c3 12 bc fa e3 99 bd
       0.08863247 0.16020268 -0.0089578135 -0.07514186
000070 6d 8f a7 bd 8d 93 82 bc ec 72 3b 3c a1 64 7d 3d
       -0.08181653 -0.015939498 0.011440974 0.061863545
000080 e4 91 44 be e6 a5 06 be 04 b3 dd bd 13 bf 80 bc
       -0.19196278 -0.13149223 -0.1082516 -0.015716111
000090 19 2b 56 bd 59 a0 dd bd 00 7a d8 3d 77 6d 81 bc
       -0.052287195 -0.108215995 0.10570145 -0.015799267
0000a0 3f 08 cf bd 9a 01 e8 bd 1a ed 8d bc f4 33 36 3d
       -0.10108995 -0.113284305 -0.017324973 0.04448314
0000b0 95 ad 1d 3d 88 2a ff 3c fc 60 be bd 4a fd 7c 3e
       0.03849562 0.03114821 -0.09295842 0.24705997
0000c0 e3 13 ed 3d 6e 03 8f bc 7d ec 01 3d b5 58 f3 3d
       0.11576059 -0.01745769 0.031719673 0.11882154
0000d0 42 a3 41 3e 69 2b 47 3e 1c bf be bc de ac 19 be
       0.18909934 0.19450153 -0.023284487 -0.1500735
0000e0 1c 72 c0 3d 0e a4 10 3e 1e 04 e9 bd 52 11 4d 3d
       0.09396765 0.14125082 -0.113777384 0.050065346
0000f0 d2 aa ad 3d 41 6b 0d be a0 b3 6a 3d b7 e3 bd bd
       0.08479847 -0.13810445 0.05730021 -0.09271949
000100 66 ea 8c bd 14 e7 61 3c a7 d8 bd 3d 6c 24 ab 3d
       -0.068806455 0.0137880035 0.09269839 0.08356556
000110 c9 e3 9f bd d9 18 b3 3d 73 45 bb bd 90 11 7e 3d
       -0.078071184 0.08744974 -0.09144106 0.062028468
000120 ab e6 94 3d a5 81 1f 3c 16 c1 04 be 47 31 b6 3d
       0.07270559 0.0097354995 -0.12964281 0.08896118
000130 98 24 09 3e d1 6a d4 3d d9 ff 9f 3c 16 3c b9 3d
       0.13392866 0.10371936 0.019531177 0.090446636
000140 4a 3e e3 bd f6 4b 4f 3d 52 73 b2 3d d0 bf 99 bd
       -0.11095865 0.05060955 0.08713402 -0.075072885
000150 98 db f5 bd eb 68 02 3e 08 01 55 3d 7e f4 0d 3e
       -0.12004775 0.12735336 0.052002937 0.13862798
000160 03 e9 38 bc 6e 55 13 bd ff fd 6c 3d cd bd 10 be
       -0.011286023 -0.035970144 0.057859417 -0.14134903
000170 3d 08 f6 bd 1e a9 29 3c 39 ff e4 3c 26 10 1b 3d
       -0.1201329 0.010355262 0.02795373 0.037857197
000180 05 80 30 be de 6a 98 3d 60 c5 ec bd f6 7a 07 3e
       -0.17236336 0.07442258 -0.11561084 0.132305
000190 bd 2a 47 be 03 91 03 be ed f4 e1 3d ca 7d 0a be
       -0.19449897 -0.12848286 0.11033044 -0.13524547
0001a0 32 9a fb 3d f9 d7 76 bd ff b7 f0 3d ae 48 b4 bd
       0.1228527 -0.06026456 0.117538445 -0.08802925
0001b0 c7 e6 e7 bc 73 30 f1 bc 03 18 5a 3e 87 e7 ee 3d
       -0.028308285 -0.029442048 0.21298222 0.11665254
0001c0 26 79 17 3e d9 44 07 bc 5a bf 92 3d 21 aa aa bd
       0.14792308 -0.008256161 0.07165404 -0.08333231
0001d0 61 02 eb 3d c8 b3 cd bd c3 47 08 be 38 7e 59 be
       0.11475063 -0.10044056 -0.13308625 -0.21239555
0001e0 7c b8 a3 bd d4 15 86 3d 12 3d 4e 3d d1 9d bd bd
       -0.07994172 0.06547132 0.05035121 -0.09258617
0001f0 d6 b3 90 bc ef 54 7d 3d 48 b2 06 bd e5 93 dd 3d
       -0.017663877 0.061848577 -0.032884866 0.10819224
000200 75 34 37 3e a4 25 1b 3e 1d 5f 58 bd 66 3d 5e 3d
       0.17891105 0.15151078 -0.052825082 0.054257773
000210 dd 9d 65 bd 27 e0 6a 3e a8 0f e1 3d 13 a8 96 bc
       -0.056058753 0.2293707 0.10989314 -0.01839069
000220 32 ff d9 bd 25 a1 24 be db ef bb 3d 1f 0f 3f be
       -0.10644378 -0.16077097 0.09176608 -0.18658112
000230 51 7b a0 3d 0b 50 be bd 8a 94 37 bc 22 c7 c8 3d
       0.07836021 -0.09292611 -0.011204848 0.098036066
000240 52 82 64 be 9d 34 71 3d cc 16 5f 3d ee e7 02 be
       -0.22315338 0.058888067 0.0544651 -0.12783787
000250 88 99 79 3c b1 44 21 3d 5f 4d ac bd bc 2d 0e be
       0.015234359 0.03937215 -0.08413195 -0.13884634
000260 19 0b 27 bc 5a 76 c6 bd bb 91 d6 bd 2e c5 10 bd
       -0.010195517 -0.096905425 -0.10477015 -0.035344295
000270 6c 0a be bc ac 48 95 bc 38 ac 13 bd 7e 25 90 3b
       -0.023198329 -0.01822313 -0.036052912 0.0043990007
000280 01 77 eb bd ec 7c 86 bd 4d 5a 84 bc 5f 41 0f be
       -0.114973076 -0.06566796 -0.01615634 -0.13989781
000290 13 c7 48 3c cf 8e fe 3c a1 ee 3d be fb b1 18 bd
       0.012254494 0.031073956 -0.18548061 -0.03727911
0002a0 0f cf c7 3d eb be 2b bd d0 97 ad 3d 3a 6e 9d 3b
       0.0975629 -0.04193012 0.084762216 0.0048044
0002b0 1e 8d c1 bc e5 56 2b be 0a 9f 70 bd 3f ae 1e 3e
       -0.02362686 -0.16732366 -0.05874542 0.15496157
0002c0 c8 2b d4 3d d1 4a d5 3d ea 78 1f be c5 51 1a 3d
       0.10359913 0.10414661 -0.15573469 0.037675638
0002d0 c5 11 53 3d cd 19 81 3c d4 fb 0c 3d 34 14 bb bb
       0.05153062 0.015759373 0.03441985 -0.0057091955
0002e0 6e 97 a1 bc 13 c2 fc 3d 7e 4f 32 3e c3 1e 0b be
       -0.019725528 0.12341704 0.17413136 -0.13585953
0002f0 16 7c 00 3e 94 d7 69 bd f3 4b d8 bc 55 cc 0c be
       0.12547335 -0.057090357 -0.026403403 -0.13749821
000300 1a 12 03 3d 0b 2a 2c be a6 5a ab bd df 5a 21 3e
       0.031999685 -0.16812913 -0.08366899 0.15757321
000310 1b 63 cc bd 3c 4c a9 3d 07 14 e5 3d 98 c6 39 be
       -0.0997984 0.08266494 0.111854605 -0.18142164
000320 42 97 f0 3d ad 9e 0c be 21 43 4d bb 75 14 ef bc
       0.117476 -0.13732405 -0.003132053 -0.02918456
000330 f9 b3 e1 3d 04 94 2f be da fe bb 3d e8 90 57 3d
       0.11020655 -0.17146307 0.091794685 0.052628428
000340 65 ea b6 bd 0c 49 c2 3c 9a 9a c8 bc f4 5a d8 3d
       -0.08931426 0.023716472 -0.024487782 0.10564223
000350 28 3c d8 bb 3a 48 6c 3e 0e 06 3e bc 52 a9 01 be
       -0.006598968 0.23074427 -0.011598123 -0.12662247
000360 60 81 e3 3d c9 a9 02 3e 31 68 c7 bd 52 da c8 3b
       0.11108661 0.1276008 -0.0973667 0.0061295414
000370 75 fe 4c 3e ce de 13 be b9 df d8 bd 31 a0 35 bd
       0.20018943 -0.14440462 -0.10589547 -0.044342224
000380 50 6d 0d be 11 83 00 be 6c 6d ee bd b4 fc 91 3d
       -0.1381123 -0.12549998 -0.11641964 0.071282774
000390 97 fe cd bd a4 17 a1 3d 8b b1 8b bd fb ff b8 3c
       -0.10058325 0.07865837 -0.06820973 0.022582998
0003a0 47 b5 c9 3d ad 03 86 3b 03 10 39 bd 8b fa 4e 3c
       0.09849029 0.0040897937 -0.045181286 0.012632976
0003b0 ed 45 f0 3c fd 73 93 3d 8b f1 aa 3d 4b 38 31 3b
       0.029330218 0.071998574 0.08346852 0.002704161
0003c0 54 18 a1 bd dc 2d 39 3e cf f7 df bd 16 a5 01 3d
       -0.07865968 0.180839 -0.109359376 0.03165158
0003d0 54 8a f4 3d 99 1c 85 bc f4 2d c3 bd ab 2d 42 3d
       0.119404465 -0.016248988 -0.09530249 0.047406834
0003e0 9c fa 97 3d 81 1a 8a bd be 50 f2 3d 3d 0d ad 3d
       0.07420847 -0.067433365 0.118318066 0.084497906
0003f0 e3 61 81 3d 5b db b7 3d 05 65 85 bd c0 75 07 3d
       0.063174985 0.089773856 -0.065134086 0.03307128

conv2.bias f4 [12]
000000 e0 a7 d6 bd c4 da 8b bd 37 a2 39 be 8e 39 7f bc
       -0.10481238 -0.068288356 -0.18128286 -0.015577687
000010 6b cd d9 3d b8 21 12 bd 02 32 ba 3d 85 83 8a 3d
       0.106348835 -0.035676688 0.090915695 0.067633666
000020 cf df 44 3d 4a c8 20 bd 9e 04 7d 3d bb 38 01 3c
       0.048065003 -0.03925351 0.06177198 0.007887061

conv3.weight f4 [16, 12, 3, 3]
000000 51 ec ad bc cd 88 20 3d c7 a0 84 3d 51 c9 96 bd
       -0.021230849 0.039192963 0.06475978 -0.07362617
000010 4a 2d fc 3d 5d 09 b2 3d 02 d5 f5 bc c1 93 dd 3d
       0.12313326 0.08693192 -0.030008797 0.108191974
000020 8a f0 6f bc 95 54 26 3d 1e ce 69 3c df 1e 2a bc
       -0.014644751 0.040608007 0.014270334 -0.010383337
000030 03 6e 9b 3d ae 25 a8 bd fb 1c 1e 3c 65 13 88 3d
       0.075893424 -0.08210312 0.009650464 0.06644324
000040 2b fa 7e bd 47 d3 d1 3b 86 76 ec 3c 87 e0 00 bc
       -0.062250298 0.00640336 0.02886511 -0.0078660315
000050 f8 e1 aa 3b cb c6 96 bd 92 85 c3 3d 3d 74 ac 3b
       0.005214926 -0.073621355 0.09546961 0.00526288
000060 b6 18 c7 3d f0 65 7c 3c 29 00 06 bd 65 c5 85 3d
       0.0972151 0.015405163 -0.032714996 0.06531791
000070 56 be b2 3c 5c f8 f0 bd 0c 50 55 bd 6a 11 e2 bd
       0.021819275 -0.11766121 -0.05207829 -0.11038478
000080 9d 1f 57 3c 8f 45 a8 3d bd 54 bc 3c 60 f4 0f 3b
       0.013130096 0.08216392 0.022989625 0.0021965727
000090 a5 ef 8d bb 4e 46 95 bc 55 4b 4b 3d 54 35 7e bd
       -0.0043315464 -0.018222 0.04963239 -0.062062576
0000a0 c4 b0 fd bb 2d 27 5f 3d ab 63 a5 bc 33 3f 9e 3d
       -0.0077420194 0.05448072 -0.020189127 0.07726898
0000b0 c0 a0 28 3e 7a d3 cf 3d 3d c7 d4 bd b1 39 40 bd
       0.16467571 0.10147758 -0.10389564 -0.04693002
0000c0 1a c9 02 be 8d 9d 74 3a 84 69 9b 3c b3 25 bd 3c
       -0.12772027 0.0009331338 0.018971212 0.023089265
0000d0 c1 d8 f2 bb 7c f2 a9 3c b4 d8 13 bd 2a 61 86 bd
       -0.007411093 0.020745508 -0.036095336 -0.06561501
0000e0 2b ec 53 3d df a8 1f 3d 18 e0 8b 3d 8b 84 a4 bd
       0.0517389 0.038979407 0.06829852 -0.08033093
0000f0 23 d0 cd bd 61 ec e2 bd 76 b1 5e bd 4e 23 b7 bd
       -0.100494646 -0.11080242 -0.05436846 -0.08942281
000100 94 a1 d9 3c 79 c0 4e 3d f7 de be bd 5d 40 47 bd
       0.026566304 0.050476525 -0.09319871 -0.048645366
000110 66 44 c5 bd 8f 5e f4 3c 69 36 de 3d c9 05 16 3c
       -0.096321866 0.029830245 0.10850222 0.009156653
000120 31 38 bd bd d3 3e 35 3d f6 92 e3 3d 6b cf 6d bd
       -0.09239233 0.044249367 0.11112015 -0.058059137
000130 ef 43 52 3c 8e 44 3f bc 68 80 48 bd dc 7a a4 bd
       0.012833579 -0.01167406 -0.048950583 -0.08031246
000140 21 77 0c 3d b3 83 22 bd b6 d1 13 3e 5f 93 25 3e
       0.034293298 -0.03967638 0.14435467 0.16169499
000150 3f e1 e7 bb 2e a4 ca 3c 63 53 da 3d 4c d9 bd bd
       -0.007076412 0.02473649 0.10660436 -0.09269962
000160 c6 a1 dc 3d 27 51 58 bd d2 41 cd 3d 50 89 01 3e
       0.10773043 -0.052811768 0.1002232 0.12650037
000170 b3 df 25 3d e9 cc e3 3d 9b a3 cf 3c 02 d9 ad bd
       0.04049654 0.11123068 0.025346568 -0.084886566
000180 07 13 ee 3d f2 f1 d4 bd fa c7 2b bd 8f 84 41 3d
       0.11624723 -0.1039771 -0.04193876 0.04724556
000190 d8 9d c0 bc 66 49 f7 bd 1a 5a 54 bc e0 16 f6 bb
       -0.023512766 -0.120745465 -0.012960935 -0.007510051
0001a0 56 c5 08 3d ac 99 9b 3c bd db dd bc c9 8c 7d 3d
       0.03339132 0.018994175 -0.027082318 0.06190184
0001b0 10 7b 6e 3d 12 fd d3 bc 66 36 4d 3d 5c 49 89 bc
       0.05822283 -0.02587751 0.050100707 -0.016758613
0001c0 2a e5 6c bb 28 38 a4 bd ca 2a 6c 3d 63 63 9b bd
       -0.0036147335 -0.080185235 0.057657994 -0.07587316
0001d0 41 ab a4 bd e7 82 6c 3d 09 8f 85 bd c7 7f 1c 3c
       -0.080404766 0.057742026 -0.065214224 0.009551949
0001e0 c8 4e e0 3d 9c a9 d5 3d 1c 49 e7 3c d2 71 2f 3d
       0.10952526 0.10432741 0.028233103 0.042833157
0001f0 2a fe b5 3d 95 92 cd bd 39 13 32 3c 06 d1 78 3d
       0.088863686 -0.10037724 0.010868841 0.060746215
000200 a3 f6 09 bc dd 5c 13 3e 16 b6 d3 3d dc 62 96 bd
       -0.008420619 0.14390893 0.103374645 -0.07343075
000210 17 e6 4b bc fd 01 00 be e4 25 f6 3c 15 15 96 3c
       -0.012444994 -0.12500758 0.030047365 0.0183206
000220 eb ea 33 bc d4 70 3d 3a a0 7e b5 bd 41 f6 84 3d
       -0.010981302 0.00072265905 -0.088620424 0.06492282
000230 dc 29 a2 bd 2f 09 16 be 22 4d 5b bd dc 64 96 bc
       -0.0791814 -0.14651941 -0.053540356 -0.01835864
000240 e4 5a 95 3d 9f da 66 bb 0b 45 65 3d 3c e6 26 3d
       0.07292727 -0.0035225523 0.055974048 0.040746912
000250 e6 4d 4b 3d ff e3 dc bd 07 ea aa 3d a1 1b 24 bc
       0.049634837 -0.10785674 0.083454184 -0.010016353
000260 44 44 03 be 40 0d 3f 3e e7 55 72 3d 3a 6f c3 bb
       -0.1281901 0.18657398 0.059163954 -0.005964187
000270 7f 9c 17 3e c9 a3 38 bd dd af e2 3b 69 a1 67 bd
       0.14805792 -0.045078073 0.006917937 -0.056550417
000280 14 ae b2 3d 0b 9f 05 bc 7f b3 f2 3c e9 7c 69 3d
       0.08724609 -0.008155595 0.029626606 0.05700389
000290 4f 79 fb bd 3d d3 a8 3d 23 a1 dd bd 05 34 06 be
       -0.12278997 0.082434155 -0.1082175 -0.13105781
0002a0 d0 02 ae 3d 7d ae 37 3d 0f 0f 90 bc 89 a9 90 3d
       0.0849663 0.04484414 -0.017585305 0.07063586
0002b0 33 24 8b 3d e1 9d 85 bc 4d 08 e2 3d 8c 5a b2 bc
       0.06794014 -0.016310634 0.110367395 -0.021771692
0002c0 29 11 df bd d6 bb 27 bd 51 e9 63 3c e9 21 a7 3d
       -0.10891945 -0.04095062 0.013910607 0.08160765
0002d0 b4 57 7d 3d a4 5e 67 3d 5a a2 61 bc 45 90 8d bd
       0.06185122 0.05648674 -0.013771618 -0.06912283
0002e0 43 39 25 bd eb d8 79 3d 2c ce 54 bc 9f 81 81 bd
       -0.040337812 0.060997885 -0.012988608 -0.063235514
0002f0 51 e3 f7 3c f0 91 53 3c a1 ea be 3d 2d 18 c4 bd
       0.03025976 0.012913212 0.09322096 -0.09574924
000300 11 4c b3 3d 7a 2e 8b 3d 09 70 f1 bd 50 a1 75 3d
       0.08754743 0.06795974 -0.11788947 0.059968293
000310 6e d4 d5 bd dd c0 4c bd 32 5f e4 3d a3 c5 91 bd
       -0.10440908 -0.049988616 0.111509696 -0.07117774
000320 3c bc 5d 3d 1d f3 d7 3c 04 c2 f5 bc 81 c5 f7 bc
       0.054134592 0.026361043 -0.02999974 -0.030245544
000330 28 f0 e7 3b 81 b9 ce 3c 37 3b 1d 3c 17 37 ed 3d
       0.0070781894 0.02523494 0.009596637 0.11582773
000340 7d e6 a0 3c 74 e0 c0 3c 41 27 dd bd a3 37 29 bd
       0.019641155 0.023544528 -0.10798503 -0.041312825
000350 ff d6 95 bc c5 9b f0 3d fb 53 2d 3d ed d7 0f bd
       -0.018290995 0.11748461 0.04231642 -0.035118032
000360 c8 54 95 bd e0 a1 d8 3d 0c 73 b3 3d eb 4f 39 bd
       -0.07291561 0.1057775 0.08762178 -0.04524223
000370 77 68 9e bd 58 2c 2b bd 4d 20 f2 bc b5 69 7e 3c
       -0.07734769 -0.041790336 -0.029556418 0.015528132
000380 b2 38 b1 3b 9c 95 39 3d 76 70 9f 3d 1a 26 27 bc
       0.00540837 0.045308694 0.07785122 -0.010201955
000390 0b 9c 7b 3d f4 50 a9 bb 16 33 3a 3c f2 b0 cd bd
       0.06142811 -0.005167121 0.011364719 -0.10043515
0003a0 ed bc 9c 3d 9d e2 0a 3d 2e 06 91 bd 4d 0c 70 bd
       0.07653222 0.03390752 -0.07081257 -0.05860548
0003b0 0f b8 0f 3b cc 78 be 3c 1e a2 a5 bd 57 05 db 3d
       0.0021929776 0.02325096 -0.08087562 0.10694378
0003c0 93 69 a9 bc 62 b1 9b bc 91 a0 a4 3d 01 28 5a 3d
       -0.020680225 -0.019005481 0.08038438 0.053260807
0003d0 8a 60 b7 3d 6d 8e 61 bd 69 a9 9b 3c 25 0a 8d bc
       0.0895396 -0.05506747 0.01900168 -0.017216751
0003e0 4e 0b 35 3d 43 a1 dd bd dd cb b8 3d 88 2b 0e bd
       0.044200234 -0.10821774 0.09023259 -0.034709483
0003f0 2d c8 f7 bc b9 7b 80 3d 46 ca c1 bb 6d b4 d5 bd
       -0.030246818 0.06273598 -0.0059140055 -0.10434804

conv3.bias f4 [16]
000000 c0 84 26 be 18 72 89 bd fe 1f 6d 3d fa 70 bb 3a
       -0.16261578 -0.06711215 0.05789184 0.0014300637
000010 c2 de bb 3c 8b d3 da bc 75 b7 82 bd ab 69 67 3d
       0.022933368 -0.0267122 -0.06382648 0.056497257
000020 f6 35 6d bd 52 79 9f bd ca 3f f4 3c 3f 57 39 be
       -0.05791279 -0.07786812 0.029815573 -0.18099688
000030 c2 59 f9 bc 6c 6d 2c 3c 93 81 33 bb 9a da cc 3d
       -0.030438308 0.010524135 -0.0027390465 0.100026324

conv4.weight f4 [20, 16, 3, 3]
000000 99 2a d5 3d ec e1 ba bd 88 5f 6d bd be 4b f8 bc
       0.104085155 -0.091251224 -0.057952434 -0.030309554
000010 c9 9b 04 3d 24 e3 7f bd e8 21 1b bd a5 8c 25 3d
       0.03237513 -0.062472478 -0.037874132 0.040417332
000020 5d aa 22 3d 09 b7 85 3d 5c fb 70 bd f8 0d 6a bc
       0.039713252 0.06529052 -0.058833465 -0.014285557
000030 10 79 1d bc 93 8f 04 be 4f 10 85 3d 89 43 fe bd
       -0.009611383 -0.12945394 0.06497251 -0.12415225
000040 2a b9 96 bd fb 86 81 bd a5 dc a4 3d 79 33 4d bd
       -0.07359536 -0.063245736 0.08049897 -0.050097916
000050 e1 ff d8 3c a9 22 a6 bd ed 20 f4 3a 6a 2b df 3d
       0.0264892 -0.0811208 0.0018625535 0.108969525
000060 55 c0 2b bd f4 75 37 3d 04 82 f3 bc ef 68 e7 3d
       -0.04193147 0.044790223 -0.029725082 0.11299311
000070 a9 f5 49 bd 69 ed 53 3d f6 2f de 3a 47 9a 9a bc
       -0.049306545 0.051740084 0.0016951549 -0.018872393
000080 c2 24 cc bd 31 7a 10 3d 86 db 73 3d 3c 92 bf 3d
       -0.099679485 0.03527278 0.059535526 0.09354064
000090 52 2e cc 3c 61 06 3d bc b0 5f 2a 3d f8 3d 52 3d
       0.024924431 -0.011537165 0.04159516 0.05132863
0000a0 69 70 20 bc 32 17 0d 3e c8 0b 9f 3c ab b5 77 3b
       -0.009792426 0.1377838 0.019414797 0.0037797492
0000b0 d6 98 f4 bc e6 6e 9f bd f5 db 89 bd 5e b5 a1 bd
       -0.029858034 -0.07784824 -0.067314066 -0.07895921
0000c0 d3 1b af bd a1 09 49 bd fa 0a fb 3d af d8 14 3c
       -0.08550229 -0.04908145 0.12257953 0.0090848645
0000d0 a4 83 83 3d d2 f6 0a bd 65 c6 6c 3d 2e 7e c8 bd
       0.06421593 -0.033926792 0.05780639 -0.09789692
0000e0 a1 ae 99 3d e7 d8 6b bc bb 00 00 bd cb 32 e7 3a
       0.07504011 -0.014394975 -0.031250697 0.0017639039
0000f0 25 87 5a 3d ed 46 be 3c cc ef 34 3d 9d fc 99 3d
       0.05335154 0.02322718 0.044174 0.07518885
000100 42 9f 1d 3d 9e eb e0 3d 7c e1 1c be a6 12 d4 3d
       0.03848196 0.109824404 -0.1532039 0.103551194
000110 21 eb 55 3d c5 74 68 bc c2 6e 1c 3d 42 e0 bc 3c
       0.05222619 -0.014187996 0.038191564 0.023056153
000120 b8 a6 dd 3b 8e 3c b2 3c 7b 54 9c 3c ab 3c ae 3d
       0.006764259 0.02175739 0.019083252 0.08507665
000130 a4 0a e7 bc dc 80 2d 3e 55 fb 09 3d 38 35 3c 3d
       -0.028203316 0.16943687 0.033686955 0.04594919
000140 20 f3 1f 3d fd 7b 03 3d 3e ee da bc 53 05 07 be
       0.03905022 0.032100666 -0.02672493 -0.13185625
000150 9a 72 56 bd 92 43 e1 bd 09 ff 91 3b d3 14 41 3c
       -0.052355386 -0.10999216 0.0044554514 0.01178475
000160 8d c3 4d bd a5 9b f8 3b 54 a6 ec 3d e8 c8 5e bd
       -0.05023532 0.0075869136 0.11555162 -0.054390818
000170 1e 4a 0f bd fb 20 d9 bd b2 ac 3c bd 92 8f 3c bc
       -0.034982793 -0.10601994 -0.046063133 -0.011508839
000180 15 51 d0 3b c4 9f 23 bc ac ff 1c 3c 82 2d 63 bd
       0.006357322 -0.009986822 0.009582441 -0.05546332
000190 03 af 9b bd e5 b7 66 3b d9 1c 3d bc 48 f7 45 bd
       -0.0760174 0.0035204825 -0.011542522 -0.04833153
0001a0 62 4c 22 bc 12 28 86 3d 35 b2 02 bd b2 5a 79 bd
       -0.009905906 0.065506116 -0.031908233 -0.06087751
0001b0 70 e8 b4 3c 4c 9e 5f bd dc c9 54 3d 9a cd 5b bd
       0.022083491 -0.054594323 0.05195032 -0.053662874
0001c0 d0 0c 91 bc ba b6 8a bd a6 e0 02 3c e1 16 96 3d
       -0.017706305 -0.067731336 0.007988131 0.073285826
0001d0 f8 76 9f 3d b8 96 bf bd 76 a7 bd 3c 68 dc 2e 3d
       0.07786363 -0.09354919 0.02315114 0.042690665
0001e0 08 cd 09 be 76 04 b4 bc f2 18 22 be ea 97 db bd
       -0.1345712 -0.021974783 -0.15829828 -0.10722335
0001f0 b7 90 28 bd 3b a9 31 bd a5 a1 c4 3b cf 25 b6 bd
       -0.041153636 -0.04337428 0.006000715 -0.0889393
000200 f8 ce 70 3d 60 d3 0b bc de 59 6e 3d 45 e5 08 bd
       0.05879113 -0.008534282 0.058191173 -0.033421773
000210 bc 67 10 3d 4a 49 0a 3d f0 6b 93 bd 20 f9 b8 3d
       0.03525518 0.0337613 -0.07198322 0.09031892
000220 7a 91 2a 3d b6 99 04 bc 2d 80 6b b9 b8 43 ad 3d
       0.041642644 -0.008093288 -0.00022459096 0.08460182
000230 f0 8b 9d bd 19 c4 13 bc f8 77 97 bd 4f a0 9e bc
       -0.076927066 -0.009018921 -0.07395929 -0.01936355
000240 67 d9 86 3c 56 1d ea 3c 67 60 6e bd 99 dc b2 bd
       0.016461087 0.028578442 -0.058197405 -0.08733482
000250 6f 67 f5 bc 48 1f c8 bd f0 35 ec bd 18 9f a5 bd
       -0.029956548 -0.097715914 -0.11533725 -0.08086985
000260 61 93 3b bd 3a 08 08 bc 03 86 d5 3c 84 a9 8d bd
       -0.04579485 -0.008302743 0.026064878 -0.06917098
000270 b7 b1 d6 bc aa 21 b9 3d 2f b7 97 3d 99 cb 02 be
       -0.026207788 0.09039624 0.074079864 -0.12772979
000280 f4 dc 9d 3d fc f1 8b 3c 5a e8 7d 3d ca 1e 82 3d
       0.07708159 0.01708316 0.061989166 0.06353529
000290 6b 5c a8 3d a7 3a 92 3c e1 e7 7c 39 ab 16 40 3c
       0.08220752 0.017850233 0.00024118974 0.011724154
0002a0 ed e1 a2 3d ff fb 06 3e ad 21 4f 3d d4 a7 09 3d
       0.07953248 0.13182066 0.050569225 0.03360732
0002b0 08 a8 f2 3d f6 7a cc 3d ea 16 e3 3c 4d 73 c1 3c
       0.11848456 0.099843904 0.027720887 0.02361455
0002c0 36 40 24 3d 2a ce a5 bd 36 e5 01 bd f0 d5 5f bd
       0.0401003 -0.08095963 -0.031712733 -0.054647386
0002d0 11 1b ad bd cb 58 39 bd be 6c 85 3c 91 b7 ac bc
       -0.08452428 -0.045250695 0.016287204 -0.021083625
0002e0 22 83 ca bc ee dc ae 3c 7a 39 2d 3d a6 08 21 bd
       -0.024720732 0.021345582 0.042291142 -0.03931489
0002f0 3a 23 14 bd 0a 96 30 bd ec 89 8c bd 23 3b 81 3b
       -0.036166407 -0.04311184 -0.06862244 0.003943817
000300 de 3f d3 bd 6c 03 01 bc 30 83 44 bc 2f 17 f9 3d
       -0.10314916 -0.007874351 -0.011994168 0.12162625
000310 b3 57 c7 3d 5c b5 57 3c c6 f3 b9 bd d3 64 1b 3b
       0.09733524 0.013165798 -0.09079699 0.002371122
000320 25 cb 96 bd a5 35 21 3d 17 13 ca 3c 14 be 94 bc
       -0.073629655 0.0393578 0.024667306 -0.018157043
000330 ea 25 8b 3d cc 7b 4e bd 61 8b 90 bd 5b 63 4b 3c
       0.06794341 -0.05041103 -0.070578344 0.012413825
000340 b1 b1 74 3d bb 03 8c bd 7f 04 b6 3d cb d5 42 3d
       0.059739772 -0.06836649 0.08887576 0.04756717
000350 f2 9d b1 bc dd 0e 7a bd c8 51 20 3d 6b d3 ca 3d
       -0.02168176 -0.06104933 0.039140493 0.09903606
000360 c4 9c f7 3c 2c 16 87 bd 0a e0 60 bd 86 7b 42 3c
       0.030226119 -0.06596026 -0.05490116 0.011870271
000370 c6 55 be bd 1d 00 37 3d 0d e8 76 3b 1d d2 0d 3e
       -0.09293704 0.044677842 0.0037674934 0.13849683
000380 c7 1d 85 3d ab 2c 30 bc f6 88 ef bc 07 56 57 bd
       0.0649982 -0.010752837 -0.029240113 -0.052572276
000390 01 68 41 be be 11 ca bd 1e b9 e5 3c 7a 68 4d bd
       -0.1888733 -0.09866665 0.028042372 -0.050148465
0003a0 81 e5 c3 bc fa c5 5a bd 74 3c d8 bd f3 eb c9 3c
       -0.023913147 -0.05341146 -0.105584055 0.024648642
0003b0 2e 37 aa 3d 98 67 27 3c e4 ec 5e bd 2d cd a2 3d
       0.08311306 0.01021757 -0.054425135 0.079492904
0003c0 d3 0b 85 3c c1 d4 cd bc f4 f2 68 3d 61 03 d7 3d
       0.01624099 -0.025125863 0.056872323 0.10498691
0003d0 94 1c 2f bd 6f 99 ae bd c9 b1 e9 3c 3a 71 2d bd
       -0.042751864 -0.08525359 0.028527157 -0.04234431
0003e0 e7 db f2 bc ff ea ea 3b 0c 38 79 bd 98 3b 0c bd
       -0.029645873 0.007169127 -0.060844466 -0.03423652
0003f0 b0 b2 d1 bc 45 30 24 bd ca 2c 41 bc 1b 06 4a 3d
       -0.0255979 -0.040085096 -0.011790464 0.04932223

conv4.bias f4 [20]
000000 2c 9d 7a 3c 6f 10 6d 3d fb e2 9d bd 46 a8 af 3d
       0.015296262 0.057877 -0.07709309 0.085770175
000010 00 89 55 bb 23 5a b8 bd bd 1b f1 3d 1d c1 a8 bd
       -0.003258288 -0.09001567 0.11772869 -0.082399584
000020 41 d0 f4 3d f4 ee 15 3d f1 e0 b6 3c 4f 11 8c bd
       0.11953784 0.036604837 0.022324057 -0.06839239
000030 ec ae c4 3b 64 5c db 3c e5 c6 a3 3d 5b 91 0d bd
       0.0060022976 0.026777454 0.079969205 -0.03456245
000040 d1 b9 8f bd a8 f0 2e bd 77 1e 54 bd a6 24 a1 3c
       -0.070178635 -0.042709976 -0.051786866 0.019670796

fc1.weight f4 [240, 720]
000000 92 2c d3 3c e4 8f 0f bd 08 b5 08 3d a5 a6 8c 3c
       0.025778089 -0.035049334 0.03337577 0.017169306
000010 60 60 17 3c 73 bc fd bc 97 97 a4 bc d8 4d 94 3c
       0.009239286 -0.030973649 -0.020091815 0.018103525
000020 9a 67 10 bd fe fc b2 bc a0 e0 53 bc da 0d 17 3d
       -0.035255052 -0.021849152 -0.012931973 0.036878444
000030 f1 5d d4 3c 18 2a 08 3d 2f c2 15 bd 5b 0e 28 3b
       0.025923701 0.03324327 -0.03656214 0.0025643322
000040 d8 f6 81 bc 7b 8c 98 bb 72 ec 0c bc d4 06 e9 3c
       -0.015864775 -0.0046554185 -0.008601295 0.028445639
000050 1d 51 ac 3c 9b 7c 77 bc 1c d3 0b ba 5c 1f 16 bb
       0.021034772 -0.015105392 -0.0005333887 -0.0022906875
000060 8e 8c 0f 3c a0 c4 04 bd fe 35 31 3c 37 ee f7 3c
       0.008761538 -0.03241408 0.010816095 0.030264957
000070 16 58 3a bc d3 97 af 3a 34 25 ed 3c 2d 8d 8b ba
       -0.01137354 0.0013396688 0.028948404 -0.0010646932
000080 46 e0 f9 3b aa 9e d5 bc 35 b9 27 bd 13 c1 5a bb
       0.0076256124 -0.026076633 -0.04094811 -0.0033379241
000090 23 ec 89 bc 3b c1 1e bc 55 ea a5 3b 4d fb b8 bc
       -0.016836232 -0.009689624 0.005063335 -0.022580767
0000a0 00 75 c9 3c ed dc e9 3c b0 91 b9 3c 5e a7 f5 bc
       0.024591923 0.028547728 0.022652477 -0.029987033
0000b0 e1 c4 7f 3c f5 53 a3 bc 71 16 9d bb 5d cb 1d 3c
       0.015610904 -0.019937495 -0.004793935 0.009631005
0000c0 c2 a9 04 3d 22 25 f3 3c 2a c9 b0 bc 7f 84 7d bc
       0.032388456 0.029680792 -0.021580297 -0.015473484
0000d0 da a2 18 bc 70 96 88 3b 4f 72 9b 3a 55 97 3f bc
       -0.009316171 0.004168324 0.0011859628 -0.011693795
0000e0 d6 e1 25 bd 7e 99 6f bc cd 33 d9 bb 9f e7 ec bc
       -0.040498577 -0.014623998 -0.0066284896 -0.02891904
0000f0 68 5c a6 bc 02 d3 8a 3c 90 03 c4 bc c3 d2 10 bd
       -0.020307735 0.01694632 -0.02392748 -0.035357248
000100 11 8f 29 bd a9 26 8a 3a 3f 1f 08 3d f3 93 7f bc
       -0.041396204 0.0010540086 0.033232924 -0.015599239
000110 eb 70 b6 bb b9 7d a0 bc 95 34 12 bd 10 48 bf bc
       -0.00556766 -0.0195912 -0.035694677 -0.023349792
000120 82 a5 00 3d f8 7b 12 bc c5 75 8a bc a3 7d 9e 3c
       0.03140784 -0.008940689 -0.01690186 0.019347018
000130 43 09 9f 3b 29 dc 0e bb ed 0c f8 bc bd 3e 14 bc
       0.004853399 -0.0021798706 -0.030279601 -0.009048161
000140 32 ca 12 bd 8f 17 f0 bc 55 32 69 bc 72 6e f0 3c
       -0.03583736 -0.029308109 -0.0142331915 0.02934954
000150 69 4d 73 3c 9a 84 b8 3c 2b 6b fc bc 15 68 0d 3d
       0.014849999 0.022524167 -0.03081282 0.03452309
000160 bd 18 04 bd 86 d7 03 3d 90 45 bf bc 4b c9 1c bd
       -0.032250155 0.03218796 -0.0233486 -0.038277905
000170 e0 be 10 bc 12 10 9c 3c 9c 4f 09 3c 7c 0d 0e bd
       -0.008834571 0.019050632 0.008380797 -0.03468083
000180 d9 1e 14 bc 09 3d 1f 3c 21 fd 9e bc 14 57 d9 bc
       -0.009040558 0.009719142 -0.01940781 -0.02653078
000190 d7 9a 53 3c 85 9f 9c bc 24 0f 08 bb fb ac b8 ba
       0.012915335 -0.019119034 -0.0020760978 -0.0014089638
0001a0 f8 1f 50 3c 15 f7 cd bc 85 37 9b 3b 28 95 45 bc
       0.012702934 -0.025142232 0.004736843 -0.012059487
0001b0 b9 81 05 bd dc 6d 87 3a aa a2 f9 3c 01 cb 2e 3c
       -0.032594416 0.0010332423 0.030473072 0.010668517
0001c0 63 3b 16 bd e5 94 95 3b 2a fe d4 3c 53 68 18 3c
       -0.03667773 0.0045648688 0.026000101 0.009302217
0001d0 46 a4 13 bd 49 f7 08 bd 61 5d 28 bc ea d0 b4 3c
       -0.036045335 -0.033438955 -0.0102761695 0.022072274
0001e0 ac 02 ec bc 66 b4 fd 3c 33 dd 46 bc 53 1e cc 3b
       -0.028809868 0.03096981 -0.012137699 0.006229201
0001f0 6c c7 85 bc f2 67 1b bd b4 d3 c2 3c 8c 72 93 bc
       -0.016330443 -0.037940927 0.023782589 -0.017998956
000200 0c f4 c0 bc f5 d5 c7 3c 4a 88 f4 bc eb 80 c5 3c
       -0.02355387 0.024394015 -0.029850144 0.024109324
000210 63 07 69 bb 00 76 81 3c b3 b1 bb 3c aa 4b d4 bc
       -0.0035557381 0.015803337 0.022911882 -0.025914986
000220 d7 71 6f 3b a4 9f 1b bc ba ef 81 3c b5 68 40 3c
       0.003653636 -0.0094985105 0.01586138 0.011743714
000230 6e 56 a5 3c 5b 3e 0d 3c a4 7f 16 bd 0d 22 b5 bc
       0.020182814 0.008620824 -0.03674282 -0.022110963
000240 b5 fa f4 3c 09 71 b4 3a 49 92 c3 3c 7a e4 bf 3c
       0.029904703 0.0013766597 0.023873465 0.023424376
000250 d4 5f 61 3c da ff 8e 3b 1b c9 e5 3c 56 aa 15 bd
       0.013755757 0.004363996 0.028049996 -0.036539398
000260 0e f1 cf bc 19 6e db bb 10 67 a5 3c 79 3d 22 3c
       -0.025383499 -0.0066964743 0.020190746 0.009902352
000270 ed 19 ae 3c 95 4b cf 3b 76 e8 f3 bb 74 77 af bc
       0.021252597 0.0063261488 -0.007443483 -0.021419264
000280 12 f9 88 bc 1d b4 e5 bb 0e 95 a1 bb 55 92 6f bc
       -0.016720328 -0.0070099966 -0.004931099 -0.014622291
000290 a1 07 a4 3c a1 66 96 3c 6f 7f 9c bc 85 ea 0a 3b
       0.020023169 0.018359484 -0.019103734 0.0021196913
0002a0 f0 f9 18 3c 88 af 1c 3c eb 41 62 bc 1b af 02 3d
       0.0093369335 0.009563334 -0.013809661 0.031905275
0002b0 9b f3 ff bc ad 3b 36 bc 0b 3d 1c bd 72 46 5b bc
       -0.03124409 -0.011122626 -0.038144153 -0.013383495
0002c0 60 2a b6 3c 12 67 f2 3c c1 d2 b5 bc 6f aa 2c bb
       0.022237003 0.029590163 -0.022195222 -0.0026346704
0002d0 87 8b fc bc 79 b6 a0 3c 99 ba 93 bb c7 2b 44 bc
       -0.03082825 0.01961826 -0.004508328 -0.011973328
0002e0 23 fa 0e bd 8c ec 21 bd c4 f6 88 3c 57 b6 f4 3c
       -0.034906518 -0.03953223 0.01671923 0.029872103
0002f0 8c 47 0a bd 66 6a eb bc dd 06 97 bc 3a ec 22 bd
       -0.03375964 -0.028737258 -0.01843589 -0.039776064
000300 39 9f 66 bc a4 13 f6 3c 48 9d 04 bd 2d b4 6f ba
       -0.014076048 0.030038662 -0.032376558 -0.0009143975
000310 27 08 fb 3a 77 b9 34 bc c7 c5 bf 3c 70 9c dd 3c
       0.001915221 -0.011030546 0.023409737 0.027052134
000320 33 85 d6 bc c3 ad a9 3b 99 bf 27 3c 37 d6 00 bd
       -0.026186561 0.0051781847 0.010238552 -0.03145429
000330 14 af d5 bc 91 c8 02 3c c1 17 a2 3c 5e 5b da bc
       -0.02608446 0.007982389 0.019786717 -0.026654895
000340 30 1c a6 bb 32 ef 07 bd 4c 19 8e 3b 00 02 4e bc
       -0.005069278 -0.0331871 0.0043365117 -0.012573719
000350 eb 95 e5 bc 38 f9 dc bc 82 7c 15 bd 9b 0e cf bc
       -0.028025588 -0.026974306 -0.036495693 -0.02527552
000360 58 f0 22 bc c0 77 2c ba 8c 9f e3 3c 81 7d ac 3a
       -0.009944998 -0.00065791234 0.027786039 0.0013159962
000370 92 32 23 3c e0 9a 15 bd 7d 3a 43 3c 40 52 cd bc
       0.009960787 -0.036524653 0.0119158 -0.025063634
000380 7d ac 9f 3c 3c cb ac bb ac bc 85 3c 1d c3 2b bc
       0.019491429 -0.005273251 0.016325317 -0.01048353
000390 29 8e 98 bc bf 9a f8 3c 1b 4c 01 bd cd e4 79 bc
       -0.018622475 0.030347226 -0.03156672 -0.015252304
0003a0 8d f1 de 3b e8 72 0c bd 69 c5 a9 bb 6f ce 85 bb
       0.0068036974 -0.03428927 -0.005181004 -0.0040834467
0003b0 2b b8 be 3c 77 50 46 3c 47 33 f7 bc 3d ef ae 3c
       0.023281178 0.012104145 -0.030175818 0.021354312
0003c0 79 ed 00 bd a0 bf cd bc 71 5c 16 bd 2a ab e6 bc
       -0.03147647 -0.025115788 -0.036709253 -0.02815779
0003d0 d2 ef 14 ba 70 9c 3b 3c 2b be 1e bd 42 e1 f2 3b
       -0.0005681488 0.011450872 -0.038755577 0.0074121067
0003e0 45 88 8d 3c c8 d0 b9 3c 26 cb 8a 3b 0e 8a 73 bc
       0.017276892 0.022682562 0.004235643 -0.014864458
0003f0 c4 f9 d8 3c 02 b2 2b 3c 97 cb 0c 3c dd 03 00 3d
       0.026486285 0.010479452 0.0085934615 0.031253684

fc1.bias f4 [240]
000000 87 f5 d2 3c cc a4 9a 3c 92 41 1e 3c 02 f2 cf bc
       0.025751842 0.01887741 0.009659188 -0.025383953
000010 75 66 0f bd 9d 6a d5 3c e5 3d e5 3c ce 76 83 bb
       -0.03500982 0.026051814 0.027983615 -0.0040119654
000020 30 17 ea 3c 6e ff 39 bb 0d a2 ce 3b ba 04 5c 3c
       0.02857551 -0.0028381008 0.006305939 0.013428861
000030 35 dd f5 3b 5a a2 b0 bc 11 0c 13 3d 00 1b 06 bc
       0.0075031766 -0.02156179 0.03590018 -0.008185148
000040 b6 c6 b2 bb 99 5f cd 3c b6 eb f4 bb 5d 38 3b 3b
       -0.005455817 0.025069999 -0.007474388 0.002856753
000050 67 9f d3 bc a0 26 0e 3d aa 00 f2 3c a3 45 f0 b9
       -0.025832845 0.034704804 0.029541332 -0.0004582825
000060 be 55 1b bc c8 44 06 3d a0 65 94 3c 10 52 72 ba
       -0.009480892 0.03278044 0.018114865 -0.00092437956
000070 6f c6 65 3c d8 91 bf 3c 00 ad 79 3b 7e aa 19 3d
       0.014024361 0.023384973 0.00380975 0.03751611
000080 bd 79 38 3d c3 31 12 bd 91 1e a2 3c 53 ae db 3b
       0.045037974 -0.035691988 0.019789966 0.0067041307
000090 42 36 f0 3c 22 2e f5 3c 73 d6 e9 3c 52 7e f6 bb
       0.029322747 0.029929224 0.02854464 -0.007522383
0000a0 11 18 ac 3c fe 75 43 bc bd 60 0d bd 48 08 ab bc
       0.02100757 -0.011929987 -0.034516085 -0.020877972
0000b0 6b 7b 31 3d 27 f2 ca 3c 06 de 0b 3c b7 78 15 bd
       0.04333059 0.02477367 0.008536821 -0.036492076
0000c0 be da e8 3c 76 41 24 3c a4 07 16 3b 65 b7 57 bc
       0.028424617 0.010025373 0.0022892738 -0.013166283
0000d0 fa 60 3c 3d 1c 9c 18 3d bb e2 1d bd d5 ab 1a 3b
       0.04599092 0.037258253 -0.038546305 0.0023600955
0000e0 10 e3 93 3c 9c fb 73 3a e2 26 ad bc 7e f2 0b 3d
       0.018052608 0.0009307207 -0.021136705 0.034166805
0000f0 33 6d 91 bc 28 76 08 bc 29 89 7a 3c 9a a3 24 3c
       -0.017752266 -0.008328952 0.015291491 0.010048771
000100 b4 6e ae 39 47 e4 3e bd 34 d7 08 3c e5 dd b5 bb
       0.00033270346 -0.04660442 0.00835209 -0.0055501335
000110 93 ae f9 bb 4f 45 12 3a 30 08 2e bc 4b b8 94 3c
       -0.007619688 0.0005579786 -0.010622069 0.018154284
000120 a1 24 1b 3d 77 39 12 bd 31 d0 8f 3c 42 c0 c3 3a
       0.03787673 -0.035699334 0.017555328 0.0014934617
000130 ce f1 f0 bc ed c5 0e 3d e9 bc 2b 3c 32 75 1d 3c
       -0.029412176 0.034856725 0.010482051 0.009610461
000140 a3 2a c3 3b e3 2e 70 bc cb 03 dd bb ca 22 20 3d
       0.0059560104 -0.014659616 -0.006744837 0.039095677
000150 fe 8d df 3a 8e bf bc bc cd 15 eb bc 0b 06 f7 bc
       0.0017055867 -0.02304056 -0.028696919 -0.030154249
000160 95 79 ab 3b a2 16 09 bd c3 8f 15 ba aa 3f c4 bc
       0.0052329996 -0.03346885 -0.0005705321 -0.023956139
000170 ce a8 a0 bc 2f af c8 bc 65 47 d4 bc 5f 51 69 3c
       -0.019611742 -0.024497597 -0.02591295 0.014240592
000180 bf 03 d1 bb af c2 c8 3c 2a 5f 6a 3c f7 e1 1a bd
       -0.0063786204 0.024506895 0.014304915 -0.037813153
000190 d5 53 6e bb c3 f3 17 3d 9a 81 ad bb a8 65 9f bc
       -0.0036365886 0.037097704 -0.0052949907 -0.019457653
0001a0 4c bd dd bc 16 66 c8 3b dd b5 f4 bc da fa 95 3c
       -0.027067803 0.006115685 -0.029871875 0.018308092
0001b0 1b 77 a1 bc 3e 09 45 3b 51 45 04 3d 9d bf c9 bc
       -0.019710114 0.0030065323 0.032292668 -0.024627501
0001c0 a5 f8 7c 3c 94 fc aa bb 2f 85 09 bd 72 e9 10 bd
       0.015440141 -0.005218098 -0.03357428 -0.03537888
0001d0 25 51 12 bd e3 6c 5e bb 5f 29 ae bc 93 2e 8c bc
       -0.035721917 -0.0033939413 -0.021259962 -0.017112052
0001e0 db b6 cd 3c d3 d9 fa bc 8b f4 8b 3c 73 b9 cc 3c
       0.025111606 -0.030621445 0.01708438 0.024990773
0001f0 fe 7a 4d 3c 09 cd 96 3c a7 86 41 bc 3d 3d fc bc
       0.012541531 0.018408315 -0.011811889 -0.03079092
000200 07 ac e4 bc e3 fe 1e bc 31 bd a4 3b b7 cd 1c bd
       -0.02791406 -0.009704324 0.005027436 -0.038282122
000210 f4 05 b5 bc e1 dd f3 3c 00 fe 25 bd 03 fa 25 3c
       -0.022097565 0.029768886 -0.040525436 0.010130408
000220 4b 60 ff bb 54 ad 80 bb 3f 54 15 3d ad 23 71 bc
       -0.0077934614 -0.0039269123 0.036457296 -0.014717978
000230 fd 92 96 3c 0d 65 d6 3c 1e e5 c5 3c 40 43 1c bd
       0.018380636 0.026171232 0.024157103 -0.038150072
000240 a5 66 84 3c 5b 8f 5b 3c df 23 bc bc 34 54 11 bd
       0.016162226 0.013400878 -0.022966323 -0.035480693
000250 44 87 0d 3d d9 5b e9 bc 2c c4 47 bc c6 9f 01 3d
       0.034552827 -0.02848618 -0.012192767 0.031646512
000260 1d de 38 3d 6c 82 17 bc 26 48 f0 bc 54 6a c5 3c
       0.0451337 -0.009247404 -0.029331278 0.024098553
000270 cf ed 0e 3d a4 af 34 bd d5 32 81 3c d8 25 4a bc
       0.03489476 -0.044112816 0.015771309 -0.012338124
000280 8e 39 9e bc ad 98 3a bd 62 87 1c 3d 27 63 bc bc
       -0.019314554 -0.04555576 0.03821505 -0.022996498
000290 99 26 46 bc 8a 48 e4 3c fb 74 53 bc 1d c9 f4 bb
       -0.012094163 0.02786662 -0.012906308 -0.0074702636
0002a0 dc 27 dc 3c 23 bd 9f 3c 7c d9 fa 3c 11 a2 6d ba
       0.026874475 0.019499367 0.030621283 -0.00090649823
0002b0 b2 21 e3 3c 6f e7 da bc 98 1e ec bc fd 60 04 bc
       0.027726028 -0.026721684 -0.028823182 -0.008079764
0002c0 38 44 0e bd 3a ae d4 3c a7 a7 8c bc be 0e 23 bd
       -0.034733027 0.025961984 -0.017169787 -0.03980898
0002d0 03 0c 17 bb b9 3f f0 3b 24 64 6c 3c c7 45 22 bc
       -0.002304793 0.007331815 0.014428172 -0.0099043315
0002e0 cc e5 28 3c 12 bd 27 bb fd b1 2d bc ce dd ad 3c
       0.010308694 -0.0025594872 -0.010601518 0.021223929
0002f0 9b 48 de 3b 0b 6a f2 3c 4f ef 7f 3c 63 8e af 3c
       0.0067835576 0.02959158 0.01562102 0.0214302
000300 02 e5 01 bd f5 33 eb bb cc e8 22 bb 22 3c e9 bc
       -0.03171254 -0.0071778246 -0.0024857996 -0.028471056
000310 35 e7 c9 3c 10 64 7c bb ac e3 06 bd f5 08 2c bd
       0.02464638 -0.003851179 -0.03293197 -0.04200073
000320 da 2b d7 ba 3d cc 0e bc 3a b8 a8 3c cf e9 a2 3c
       -0.0016416267 -0.008715686 0.020595659 0.01988688
000330 de 6f 79 bc d4 97 00 3c 3b b7 df 3c 2b 86 1b 3d
       -0.015224425 0.007848699 0.02730905 0.03796975
000340 38 94 8e bc 55 86 a8 bb a1 c9 39 3a c5 a2 99 bc
       -0.01740466 -0.0051429668 0.0007087235 -0.018754372
000350 b8 4b c1 bb 66 fe 06 3d 87 85 c6 3c f7 77 20 bc
       -0.005898919 0.032957457 0.024233593 -0.009794227
000360 af 48 93 3b d5 aa e6 3c 5f 2f 0b bd 2a a7 a2 3c
       0.0044947485 0.028157631 -0.033980723 0.0198551
000370 5b ac ee 3a 12 ba 92 bc f8 a7 b1 bc 57 da ee 3b
       0.0018209325 -0.01791099 -0.021686539 0.0072892117
000380 8c 34 d8 bc 80 a5 3d 3c 03 8b c9 3c ca bc 97 bc
       -0.026392244 0.011575103 0.024602419 -0.018522639
000390 f9 04 a4 3c d2 67 a9 bc 1f 90 c2 3c 75 9e 0e 3d
       0.020021902 -0.020679388 0.023750363 0.034819085
0003a0 e7 c9 26 bc df 1a c3 3c 70 a8 91 3c 48 9b e0 bb
       -0.010179973 0.023816524 0.017780513 -0.0068544485
0003b0 3c 85 de bc 6f fe a5 3c cd b4 05 3d 2d 95 0b 3c
       -0.02716314 0.020262925 0.03264313 0.008519453

fc2.weight f4 [120, 240]
000000 cb 76 10 3c 0e ce 6a bc eb d5 02 3e 2d ef c7 bc
       0.008817385 -0.014331354 0.12776916 -0.02440604
000010 5d 2f 5b bd 61 d7 1e be b2 71 86 bc 1a b7 2c 3d
       -0.053511966 -0.15511848 -0.016411636 0.042166807
000020 eb 5f 1e 3c 32 a0 3d bd b7 21 e6 3c cf 66 8b bb
       0.009666423 -0.046295352 0.028092248 -0.004254199
000030 f6 a3 1b bc 8d b2 59 bd 6b 30 1d 3c 64 75 01 3d
       -0.009499541 -0.053148795 0.009594063 0.031606093
000040 4c 7b c5 bc 70 77 69 bd cc 7c bb bc d6 d3 c9 39
       -0.024106644 -0.05699867 -0.022886656 0.00038495538
000050 0a 73 ca bd 38 a5 8b 3d 2b 95 ad bc a3 6a b0 3c
       -0.09885223 0.06818622 -0.021189293 0.021535223
000060 18 62 f9 3c c5 35 f7 3b 01 49 55 bc 7f 8b 3d bd
       0.030442283 0.0075442516 -0.013017894 -0.046275612
000070 b1 a4 0b bd 73 81 df 35 89 aa 9e bd 49 8f 96 3d
       -0.03409261 1.6652469e-06 -0.07747371 0.07351548
000080 bf 60 38 bc bd fd 0e 3e c2 ca 9e 3d 3c 56 3c 3c
       -0.011253535 0.13963981 0.07753517 0.011495169
000090 6b 8d 31 3d 28 02 e7 bd cf 43 60 bd 86 2f 1b bc
       0.043347757 -0.11279708 -0.054752167 -0.00947178
0000a0 5b fe 1e bd 6e 0c 76 bd 0c db 19 3d f6 e8 25 3c
       -0.03881679 -0.060070448 0.037562415 0.010126343
0000b0 2b aa e2 3d c2 99 f0 bc 73 69 1d 3d 65 8c 98 3c
       0.11067613 -0.029370192 0.038430642 0.018621633
0000c0 e0 fc 7e 3d 13 b8 3c 3d 24 15 29 3d 71 8a ab 3d
       0.06225288 0.046073984 0.041279927 0.08376015
0000d0 82 66 6c 3d 0f 1e 29 bd 5e 9d d6 3c 06 21 33 3c
       0.057714947 -0.04128843 0.026198085 0.010933166
0000e0 f4 bf 57 3d c2 a1 12 3d db c3 82 3c b6 4e c1 3d
       0.052673295 0.035798796 0.015962532 0.09438841
0000f0 59 d2 19 bd 2b 18 a3 bd a7 ce c1 bc d5 ba e0 b9
       -0.03755412 -0.07963594 -0.02365811 -0.0004286381
000100 ca 11 e4 3c 13 e4 75 39 47 3d 4c 3d 7d 16 0a 3d
       0.027840514 0.00023449985 0.049863126 0.033712853
000110 43 c6 81 bc 7f 31 1f bb 20 b9 fa 3b 4c ba 76 bc
       -0.015841609 -0.0024290977 0.007651463 -0.015059065
000120 bc ab 0b 3d 15 5c 96 ba 1e 3d 3f bd 31 e9 ed 3c
       0.034099326 -0.0011471534 -0.046689145 0.029041858
000130 2f 2a c5 3b f7 28 91 3d bd e1 8c bc 93 11 0a bd
       0.0060169916 0.070878915 -0.017197484 -0.033708166
000140 f2 5b 93 bd d7 5a 88 3c b0 03 48 bb 1f e8 8a 3d
       -0.071952716 0.016644878 -0.0030519776 0.06782555
000150 2d ff 09 bd e8 b2 8b bd 98 56 f7 3c e6 b8 1b bc
       -0.03369062 -0.06821233 0.030192658 -0.009504532
000160 75 81 9f bc ce c0 21 bd a2 e8 87 bd b3 a0 cf 3d
       -0.01947091 -0.039490514 -0.06636168 0.10138073
000170 1d 31 b6 bd 53 fa d5 3c df 0a b0 3d 5c 07 42 bd
       -0.08896086 0.02612034 0.085958235 -0.0473703
000180 a9 16 ae 3d 3d 95 84 3c 2c fc 7a bd ac 4b 6e bb
       0.08500416 0.016184444 -0.061275646 -0.0036361022
000190 12 b4 27 3d 39 f5 85 3c 0b cb 04 bd c0 16 63 3d
       0.040943213 0.016352283 -0.0324202 0.055441618
0001a0 00 8b 4c 3d d3 4a 01 bd 0c df 14 3c 2d 79 75 3c
       0.04993725 -0.0315655 0.009086382 0.014982504
0001b0 a5 52 7f bb 02 21 c2 bc 06 5c b4 3c 30 4a 18 bd
       -0.0038959172 -0.02369738 0.022016536 -0.037180126
0001c0 a7 64 16 bd e9 fc b7 3d 40 78 0a bd 16 11 67 bd
       -0.036717083 0.08983786 -0.033806086 -0.05641278
0001d0 2a cd 30 3d 80 ec 88 3d 14 f2 25 bd 43 e2 d0 bc
       0.04316441 0.06685734 -0.040514067 -0.025498515
0001e0 72 07 c0 3d d7 f2 09 bd 8a c7 09 3c af f0 c1 3c
       0.0937642 -0.033678856 0.00840939 0.023674337
0001f0 a2 00 0f 3d 72 16 eb 3c 86 12 0f 3d 9a ab cb bc
       0.034912713 0.028697226 0.034929775 -0.0248621
000200 c5 dd 3e bb bb 3b 35 bd 5a 3d 5c 3d 28 e1 b9 3c
       -0.0029123884 -0.044246417 0.053769447 0.02269037
000210 df 8b 93 3d 3e c4 1c 3c 5d 46 c3 3d 9d 29 c3 3c
       0.07204413 0.009568272 0.09534905 0.023823554
000220 f9 74 43 3c 86 22 dd bc b1 d7 c1 3b d6 7c 89 3c
       0.011929744 -0.026994001 0.005915605 0.01678316
000230 8d 97 e0 3c 53 e4 74 bd f7 e3 4b 3d fa bd 2c bb
       0.027416015 -0.05978806 0.04977795 -0.0026358352
000240 38 f0 98 bc 02 39 24 bd 0a be 20 bd 01 95 38 bd
       -0.018669233 -0.04009343 -0.039243735 -0.045063976
000250 b2 a3 87 b9 41 44 ee 3c c2 90 53 bd e5 a2 04 3e
       -0.0002587117 0.02908528 -0.051651724 0.12952764
000260 d4 4f ae 3c b7 70 9d 3c 44 2b 8e 3d b6 08 03 bd
       0.0212783 0.019218786 0.06941846 -0.03199073
000270 9e 8c 86 3d f0 77 ab bc 56 d0 09 3d 9e c4 94 bb
       0.06569789 -0.020931214 0.03364595 -0.00454004
000280 89 8a 38 3d cf e8 61 bd 36 9e 3f bd e8 89 88 3d
       0.045053992 -0.055153664 -0.04678174 0.066669285
000290 32 9e aa 3d 72 c3 f4 bb 16 0f 80 bd e6 e3 c1 3c
       0.083309546 -0.007469588 -0.062528774 0.02366824
0002a0 1c 4f 3e bc 77 86 be bb 4c 22 63 3d 4e f4 68 bd
       -0.011615541 -0.0058143693 0.05545263 -0.056873612
0002b0 e0 9e 38 bd b5 97 e9 3d 97 20 c6 bb 54 31 a2 3c
       -0.04507339 0.11405889 -0.0060463655 0.019798912
0002c0 22 d1 81 3c 38 78 5b 3d 1c fe 4d bd 7c 67 00 3d
       0.015846793 0.053581446 -0.050291166 0.03134869
0002d0 11 af 25 3d af 59 2e 3b 0a 7d 77 3d 0e 4b fa 3c
       0.04045016 0.0026603749 0.06042198 0.030553367
0002e0 f6 29 0a 3d 25 2c 1e bc 83 0a f4 bc 06 2e eb 3a
       0.033731423 -0.00965408 -0.029790169 0.0017942793
0002f0 b8 fb cd 3d 3b 59 35 bd 63 49 db bc d0 2c 7b 3c
       0.10057777 -0.04427455 -0.026768392 0.015330508
000300 54 f2 81 bc 4d 4a b4 bc ca 7b f8 3b 21 78 8a 3d
       -0.015862621 -0.022008086 0.007583116 0.06761194
000310 41 1e 9d bd 7a dd eb bd c5 07 39 3c f5 1a be 3c
       -0.07671786 -0.11516853 0.011293356 0.023206213
000320 a8 f4 a9 bd 1e be 00 3c 5e 32 9c bd 80 45 d9 3d
       -0.082986176 0.0078578275 -0.07626794 0.10608959
000330 18 86 35 bd 09 d3 44 3d 26 3e 92 3c 52 da d4 bc
       -0.044317335 0.04805282 0.0178519 -0.02598301
000340 66 fb 95 bd 48 46 a6 3d 4e aa cc 3c 45 ea 5b bd
       -0.07323341 0.08118874 0.024983551 -0.053690214
000350 82 71 d0 3d 74 f6 41 bd ae 35 6c 3d 69 70 6a bd
       0.101779 -0.047354177 0.05766838 -0.05723611
000360 6a 74 dc bb 10 44 47 3d a3 94 43 bd 08 b0 8a bc
       -0.006727745 0.048648894 -0.047749173 -0.016929641
000370 c2 57 9a 3c 1a af 09 bd 4a 8f ec bd 54 04 34 3d
       0.018840674 -0.033614255 -0.11550768 0.04394944
000380 0f d8 07 3c 20 48 42 bc 9e ed 98 3d e7 38 c4 bc
       0.0082912585 -0.011858016 0.07467197 -0.023952914
000390 a2 2e 46 3d 57 92 22 3e 15 02 8d 3d dd 69 66 3c
       0.048384316 0.15876137 0.06885163 0.014063326
0003a0 25 90 1b bd e1 0a 34 bc f4 95 57 3c c6 a2 69 bd
       -0.037979264 -0.010988922 0.01315831 -0.05704
0003b0 dd 91 8c 3d b0 87 fb 3c 53 3d 91 3c 62 0c 40 3d
       0.06863759 0.03070435 0.017729437 0.04688681
0003c0 26 0e e4 bc 8c e0 26 bd ba a9 21 bd 1b b3 23 3d
       -0.027838778 -0.04074149 -0.039468504 0.03996573
0003d0 67 c3 dd bc c5 d3 b5 3d ea a0 03 bd 7a 80 a6 bd
       -0.027070714 0.088782825 -0.03213588 -0.08129974
0003e0 f5 02 16 3d 3c 15 8d 3b 84 42 4e 3c dd 41 f3 3b
       0.036623914 0.00430551 0.012589101 0.007423623
0003f0 38 b1 fc bc 38 9e 52 3d 65 88 14 3d 42 67 dd bc
       -0.030846223 0.05142042 0.03626289 -0.027026776

fc2.bias f4 [120]
000000 f5 69 0b 3d be d0 77 3b 8e 35 6c 3c 33 c3 0e 3e
       0.034036595 0.003781363 0.014417065 0.1394165
000010 0a ae 97 3d c1 b4 ec bc 1b 2f 86 3c d2 46 70 bd
       0.07406242 -0.028894784 0.016379884 -0.05866129
000020 53 d4 97 3d 12 d1 a6 3d c0 c0 e6 3c 3c a1 9b 3d
       0.074135445 0.08145346 0.028168082 0.075991124
000030 ba 52 04 3d c7 04 60 bd 09 b5 bd 3c e6 f6 f2 3c
       0.032305457 -0.054692056 0.023157613 0.029658746
000040 a8 26 08 3e e7 6a 13 bc b8 26 71 bd 7d 62 cc bb
       0.13295996 -0.0089976555 -0.058874816 -0.0062373267
000050 65 a0 86 bd 8e b4 5d bd c2 2c a2 3d d2 a0 b4 3d
       -0.065735616 -0.05412727 0.07918693 0.088197365
000060 5c 04 3c 3d c3 4a 9f 3c f4 f0 29 bc 0d a6 a8 3d
       0.045902595 0.019444829 -0.010372389 0.08234797
000070 e1 58 a6 ba 4a 5c 1c 3b a2 22 dc 3c bb 24 db 3c
       -0.0012691283 0.002385872 0.026871983 0.026750913
000080 6e 26 a0 3d aa 8f b5 3d 25 54 99 3b 46 6d 05 bd
       0.0781983 0.08865292 0.0046792203 -0.032574914
000090 0b 97 a5 3d 2d fb 3d bc 49 13 13 3d 4b 4d db 3d
       0.0808545 -0.0115955295 0.035907064 0.10708102
0000a0 b1 ea 16 bc 8d ad c7 bd 88 ea 56 3d f2 17 96 3d
       -0.009211228 -0.09749899 0.05246976 0.07328786
0000b0 a4 32 00 3c 71 aa d0 3d f2 81 a5 3d d0 03 27 3c
       0.007824574 0.10188759 0.08081426 0.01019378
0000c0 a1 c5 a6 bd 96 82 1a 3e 42 7b 93 3d d0 be 87 3d
       -0.081431635 0.15088877 0.07201244 0.066281915
0000d0 a2 5c 17 bd 61 df 22 bd a5 3e f8 3c 18 4e 91 bc
       -0.036953576 -0.039763812 0.030303309 -0.017737433
0000e0 6a 55 02 3d 67 fa 38 bd 1a 4a a9 3d 8f 44 9d 3c
       0.03181974 -0.045160677 0.08266087 0.01919773
0000f0 72 73 56 3a a6 db 00 bd e3 90 28 3d 16 56 d4 3d
       0.0008180655 -0.031459473 0.0411538 0.10367982
000100 51 c7 89 3d d6 7f 50 bd c0 43 a1 3c f8 49 63 bb
       0.0672747 -0.050903164 0.019685626 -0.003468154
000110 ca 85 56 3d fb 01 35 3c 1f 02 a9 3c b9 f0 c1 bd
       0.052373685 0.011047835 0.020630894 -0.09469742
000120 44 df 35 3d 27 3c b5 3c da ce 17 bb 0e 8c 8d bc
       0.044402376 0.02212341 -0.0023164065 -0.017278697
000130 07 1b 40 bd 79 a6 22 bd e8 8c 0f 3d 5d 13 74 3d
       -0.046900775 -0.039709542 0.035046488 0.05958878
000140 82 47 ab 3d 26 00 47 bd cf ec 35 3d 55 0a 60 3c
       0.083632484 -0.048584126 0.04441529 0.013674338
000150 34 25 5c 3d cb 79 33 3d 8a de c9 3c e9 db f9 3c
       0.053746417 0.043817323 0.024642248 0.03050037
000160 cf fc 14 3d 1a de 31 3e 68 45 24 3d 19 bf 1f 3c
       0.03637391 0.17369881 0.040105253 0.009750151
000170 d0 96 75 3c 97 fc a6 3d e1 fd 7d 3c 87 e8 c1 3c
       0.01498957 0.081536464 0.015502424 0.023670448
000180 b2 86 2f bd 1b 40 4b bd 5f 98 13 3d 3b 45 64 bd
       -0.042853065 -0.049621683 0.036033984 -0.055730086
000190 89 99 f5 3d c9 4b fd 3c 47 53 e6 3d cb a4 76 bd
       0.11992175 0.030919926 0.11246353 -0.060215753
0001a0 20 1e 6a 3c a8 6b 19 3d ff 0f c9 bc 48 09 dd bb
       0.014289409 0.037456185 -0.02454376 -0.006745491
0001b0 ed ae 7a 3d aa a1 9d 3c 21 ba 8e 3c ee 17 f8 3d
       0.06120198 0.019242126 0.017422738 0.12113939
0001c0 83 8c 7a bd 76 f8 86 bd 0a d6 55 bc 0b 27 0d bd
       -0.06116916 -0.06590359 -0.013051519 -0.034461062
0001d0 ae 1c 01 3e c8 fa ce 3c 2f 79 81 bc 8b 36 40 bb
       0.12608597 0.025266066 -0.015804855 -0.0029329385
