Exercise-1-RL/imitation_learning/models/agent_history3_cnn_ndata.pt (torch, 854709 bytes, 16 tensors)

conv1.weight f4 [6, 4, 3, 3]
00000000: 20f9 9d3b c816 21be ded7 0bbe 0e22 c9bd
00000010: 1745 113d a995 4b3d 0b73 babd 66f8 213e
00000020: 4727 263d 2a74 1d3e 9083 66bc 19d3 33bd
00000030: 8032 07be c5a7 26be bd88 e2bc cba6 103e
00000040: d278 b13c 416d 2dbe 3ff9 1abe 5c80 7b3d
00000050: 59e2 03bd 9a21 ae3c 2780 833a 740b 20be
00000060: fcb5 22bd 0fc5 213e e765 953d ab9d 1fbd
00000070: 28dd 6a3e 4271 0dbd 6c10 1c3e 8578 1d3e
00000080: 50b7 d3bd 7c04 19bd a9d2 ecbc bce2 cc3d
00000090: 652a 58bd bb72 a53d ed0f 41bc c3d8 753d
000000a0: 3d56 eb3b dde8 dc3d 1706 533d 7e38 83bc
000000b0: 5c53 dabc eac7 ccbd e29f 52be 5b5e 9f3d
000000c0: 08dc fcbd a8ec 653c ea14 35be 0dec 51be
000000d0: 6d06 3ebd a166 083d f71a 803c 313e f23d
000000e0: ccc8 1c3e 2180 e53d 7c3a 373d 68a3 083e
000000f0: 3d94 d2bd b7a6 493d 6fb8 51bd fa27 883d
00000100: 6d5c 223e ca40 c63d 4fb4 29be 715f 323e
00000110: 8e05 463e 6108 c0bd 243a 85bc 9c6f 8c3e
00000120: 29d9 093e 77d9 343e cf5d 4a3e 707c 13be
00000130: 6ea4 303e abd0 483c d7a3 e93a 17a7 1bbd
00000140: 0b5d 32bc 9ccf 3e3d f2c8 a2bd 516f d3bc
00000150: 46a6 cbbd 8b06 23be a971 1c3e babd 0dbe
00000160: 239f 813d afae fe3c 8eb8 8abd 4db1 ca3c
00000170: 9cfa 18be 934e 6cbd ddc1 d7bd 7305 d13d
00000180: ec4f d0bd c5e4 0cbe 1787 b93d 5a86 1fbd
00000190: c568 bb3c d695 e3bc 5270 5b3d 85d4 ce3d
000001a0: 5765 d4bd bb21 e93d 4cfd ff3d 15ce acbd
000001b0: 85ed 2bbc ec13 2dbd ebf6 eebd 76fd 953d
000001c0: 0d2c c93d e077 e33d 7814 f5bd 7e45 2e3b
000001d0: 2060 c6bd 968e fa3c 4d06 fb3d 097c 9d3d
000001e0: bafd 323e c7ae 1a3d 063b b9bc 7b55 2b3e
000001f0: b1cc 053e a1dd 0cbd bd36 083e 17a3 92bc
00000200: a1ef 00be 41dd 2e3e d8fd cf3d 5470 27be
00000210: 8ac1 483d ee22 b53c 29b4 86bd 6edf 00be
00000220: 12b0 87bd c1cc 28be 403a b4bc 1767 243b
00000230: e57f 22be d722 2d3c 220f 25be 4e21 863d
00000240: 0643 00be 94fc 40bc 4408 ae3d 8a4a 37be
00000250: 137d dd3a 23f9 2e3e 3b85 253e 48ac 453e
00000260: fb9c 883d 82c1 873d 81c9 e5bc 1061 2ebc
00000270: 90ba ecbd 78fb 123d ca0c f0bd 6015 01be
00000280: 87b0 c53d 298c 593d 9983 3f3e 637e 1a3e
00000290: b208 d8bd 4d07 01bd 0ad6 26bd a1f4 13be
000002a0: 515b 333d aff2 d83c 0a2a fb3c 8517 14be
000002b0: 7d70 c43d fdc4 90bd 7718 2ebe 1902 d5bd
000002c0: be31 0b3d 881a cb3d 1232 43bd eb9e c73c
000002d0: 6c7f 393e b827 73bd 678c 283e ec33 cdbd
000002e0: 7262 f43d 17d3 433e 1155 5bbd cf7c 3a3e
000002f0: 9659 86bc 9bbf dabd bca4 01bc a1ae 8ebd
00000300: 384f 103e 7d3b e43d 534d eb3d 8789 e73d
00000310: be90 dcbd 1cee 4e3e f359 8cbd 712f 24bd
00000320: 270a 053e ccb1 78bd b070 19be 5ff4 50bd
00000330: daf2 bcbd c655 df3d 0ef9 cdbd 1bf5 25be
00000340: f483 35be c711 f1bd fe54 973d 1506 60bc
00000350: ff65 cc3d 8423 22be 7db7 b33c 7d7b 1cbe
0.004820958 -0.15731347 -0.13656566 -0.098209485 0.03546628 0.049703274 -0.09103974 0.15817413
0.0405648 0.15376344 -0.014069453 -0.04390249 -0.13202858 -0.16274936 -0.027653093 0.14126126
0.021664057 -0.16936208 -0.15134142 0.06140171 -0.032198284 0.021256257 0.0010032699 -0.15629369
-0.039724335 0.15797828 0.07294827 -0.038968723 0.22935927 -0.03453184 0.1524064 0.15378006
-0.103376985 -0.037357792 -0.028909044 0.10004184 -0.052774806 0.08078524 -0.011783582 0.060021173
0.0071819113 0.10786603 0.05151948 -0.016018149 -0.026651077 -0.09999068 -0.20568803 0.07781669
-0.12346655 0.014033474 -0.1768376 -0.20500202 -0.046392847 0.033301 0.015637858 0.11828268
0.15310973 0.11206079 0.04473351 0.13343585 -0.102821805 0.049231257 -0.05120128 0.0664825
0.1585557 0.09680326 -0.16572689 0.1741922 0.19338056 -0.09376598 -0.016263075 0.274289
0.13461746 0.17661081 0.19762348 -0.14402938 0.17250225 0.012256782 0.0017825317 -0.038001146
-0.010886441 0.04658471 -0.079484835 -0.025809916 -0.099438235 -0.15920465 0.15277733 -0.13841906
0.06329181 0.031089155 -0.06773482 0.024742747 -0.1493935 -0.05769212 -0.10535023 0.102061175
-0.10171494 -0.13759144 0.090589695 -0.038946487 0.022877106 -0.027781408 0.053573914 0.10099129
-0.103708915 0.11383387 0.124994844 -0.084377445 -0.010493641 -0.042255327 -0.116681896 0.073237345
0.09822855 0.11106849 -0.11966795 0.0026591714 -0.09686303 0.030585568 0.12257061 0.076896735
0.17479602 0.037764337 -0.022611152 0.16731827 0.13066365 -0.03439105 0.13302131 -0.017900033
-0.12591411 0.17076589 0.10155839 -0.16351444 0.0490127 0.022111382 -0.065773316 -0.12585232
-0.066253796 -0.16484357 -0.022000432 0.002508586 -0.158691 0.0105673885 -0.16119054 0.06549321
-0.12525567 -0.011778969 0.0849767 -0.17899528 0.0016898237 0.17087226 0.16164105 0.19304001
0.06670567 0.066287056 -0.028050186 -0.010643259 -0.115590215 0.03588435 -0.11721189 -0.1260581
0.096528105 0.053112183 0.18702544 0.15087275 -0.105485335 -0.031501103 -0.040731467 -0.14448787
0.043788258 0.026482908 0.030659694 -0.14462097 0.09591768 -0.070688225 -0.1700152 -0.10400791
0.033982985 0.0991717 -0.047655173 0.02436777 0.18115014 -0.05936405 0.16459809 -0.10019669
0.119328395 0.19123493 -0.053547923 0.18211673 -0.01640014 -0.10681077 -0.007912811 -0.069669016
0.1409272 0.11144159 0.11489358 0.11305528 -0.10769795 0.20208019 -0.06853094 -0.040084306
0.12992154 -0.060716435 -0.14984393 -0.0510143 -0.09226008 0.10905032 -0.10057269 -0.16206782
-0.17726117 -0.11770969 0.07389258 -0.013673325 0.09980392 -0.1583386 0.02193808 -0.15281482

conv1.bias f4 [6]
00000000: de01 2f3d 58e5 86be 21a7 edbb 2cd7 fd3d
00000010: 2975 12be a362 263e
0.04272639 -0.2634685 -0.0072525893 0.123945564 -0.14302506 0.16248564

conv2.weight f4 [12, 6, 3, 3]
00000000: d1c2 c73d 43d6 6bbe 63f5 203e 0c7e c73d
00000010: ee15 cfbd adb4 b23d 0c75 dfbc 62aa 27bd
00000020: 097a c53d 01ea e7bd 346f ce3d 8808 c63d
00000030: 394c c73d ad35 b53d 6913 d23d ea1e 81bc
00000040: a0a8 733c fd7b 0b3e 3cd5 43bd 8823 84bd
00000050: d713 583e cd6f 4e3d e63a 7dbc 3bc9 353e
00000060: 9962 3cbd fe99 ab3d b3de f33c 832b 0ebe
00000070: 3735 b8bd 36f6 ec3d 609a a13d 58fc f33d
00000080: de5d 6abd 9711 45be 183c e53b 788a 893d
00000090: e301 003e 772d db3d c831 6e3d 9096 ee3d
000000a0: 495f dabc 9c67 253e e1eb 223e 3369 47bd
000000b0: 9b53 a43d f615 9b3d 6969 d1bd 8ea7 d83d
000000c0: 3c07 dcbc c8f4 a9bc a262 0a3e 50dc 84bd
000000d0: 6aee 7b3c 5220 b9bc 12f4 933d 6ebd d93d
000000e0: 4460 1ebe 5dfa 6abd a396 cdbd cc61 01be
000000f0: d8e5 273d 5d6d 783d 09d4 48bc 2dd9 b5bc
00000100: e07f 893d 76cf 073d 7f0a fd3c 2c4b 4abd
00000110: 4d4a e93d 9673 febd a1b8 2ebd 0f9d a2bd
00000120: 7009 593e ed5b bcbd aa08 943d 7709 89bd
00000130: b571 dcbd d8b3 9a3d 1ef2 e1bc ce5e 213e
00000140: a40f 133e 3930 473d b99a c03d ac35 343e
00000150: 2d7e c23d f027 b03d 2bda bc3b a25e dbbd
00000160: d5e0 ba3d 3d3c e7bd d5e2 a9bd 40fa 2f3d
00000170: 5e82 eb3d 23f6 c8bd 89e9 2f3e b3ac 89bc
00000180: cfda 043e 2d4d 8a3c a5b9 abbd 3f2d 5d3d
00000190: e9ba 393e 8ffc 94bd cc25 b13a 6cf4 3e3e
000001a0: d270 6e3d 016b 2c3d 7e68 94bb 64a8 f23c
000001b0: 3b43 f53c 6ac8 7d3d ad2a 9fbd a5cb d73c
000001c0: 696b b03d d2ff 84bd 79ee b13d c5e3 15be
000001d0: d735 bf3c ddb0 76bd e57e ebbd 116a c73d
000001e0: 3449 6a3d 93d5 21be 29a3 673d 41a3 fc3c
000001f0: 3b9a f13d ad52 0cbd 859a 96bc 36e2 0d3d
00000200: ebd7 883d 2ad3 103d 0499 9ebc ba6b 233e
00000210: 87fb a33d c30a 163e d2cf 8f3d 7873 80bd
00000220: bcf6 803d 4da5 cf3c 2334 163d 7711 2d3e
00000230: 601a a23c 60f0 b73d 891a 153e 03df 333e
00000240: e008 093c 270f 00be b22d c23d 81dd 88bc
00000250: 9650 253d ed7e 543e c58d dbbd c221 373e
00000260: 35d8 753d 7791 2ebd ec3c be3d b2b4 ac3d
00000270: 0667 da3c 97fe 07bd a99b 3e3e 1f46 b23d
00000280: 89ce 363e 9f6a 123e 34d3 0cbe 13ef 8b3d
00000290: af7e c2bc dfc0 52be 861e 8d3d c543 d4bd
000002a0: 0cad e03d f771 f83d aeb2 40bd 3d17 153e
000002b0: 31e8 643d 41e2 8e3d 0d7c b03d 9ec0 e8bd
000002c0: ff45 afbc a657 f4bd 5242 d63d 1379 30bc
000002d0: a634 aebd 4031 213e 31a5 173e 389b b93d
000002e0: 05ac 1f3e 43bc a6bc 0e42 d0bd c31e 72bd
000002f0: 4e3a eebc cc86 9a3d 8fdb 87bd c6ed f6bd
00000300: 9668 3abe 48e5 b13d 32b9 073e c5ab 1ebe
00000310: 626f 8cbc 8070 e53d e54b 10be 6d81 80bd
00000320: e594 1b3e 8438 b1bd dd9b 04be 46b6 96bd
00000330: afb0 563d 50c0 ed3b d9d8 b1bc 3b29 e6bd
00000340: 23a8 af3d 905e 9cbd 0d2c 34bd 53ed e2bd
00000350: 9a6c ad3d 0845 8d3c 02a9 1cbd 722a 09be
00000360: 95e8 513e bd64 99bd d0e6 373e 11f6 313d
00000370: 1b78 643e 5f10 49bd 8909 703d 5b32 393d
00000380: d8fa bd3d b68f 6b3d ed35 0ebe d066 9a3d
00000390: e5e6 223e 9984 883d c90d 7abd ef50 cebc
000003a0: 737e 25be 8622 18be c76e 3c3e 461b 40bd
000003b0: 5e57 8cbd fa3f 093e bb4a d13d e987 833d
000003c0: a849 c53d 94ec 4cbd bb77 24be ae31 d1bd
000003d0: 73d6 c33d 380d eebd d252 52bd f1f4 0cbe
000003e0: e678 12be 002c 053e de12 813d af4a 0bbe
000003f0: a6ca e03d cdff 67bd 7bc4 823d 2a86 09be
0.09753955 -0.23030953 0.15718608 0.097408384 -0.10111605 0.087258674 -0.027277492 -0.040933974
0.09642417 -0.113239296 0.10079804 0.09669596 0.09731335 0.088481285 0.102576084 -0.015761811
0.014871746 0.13621517 -0.047810778 -0.064520895 0.21101318 0.05039959 -0.015455937 0.17752545
-0.045992468 0.08378981 0.029769277 -0.13883786 -0.08994525 0.115703985 0.07890773 0.11913365
-0.057218425 -0.19244991 0.006995689 0.06715864 0.1250072 0.10702031 0.058152944 0.11649811
-0.026656764 0.16152805 0.15910293 -0.04868431 0.08023759 0.07572548 -0.102251835 0.105788335
-0.026858918 -0.020746604 0.13514188 -0.06487334 0.015376667 -0.02259842 0.07224287 0.10631834
-0.1546641 -0.05736767 -0.10038497 -0.12634963 0.04099068 0.060651172 -0.012257584 -0.022198284
0.06713843 0.033156835 0.030888794 -0.049388096 0.11391125 -0.1242439 -0.042656545 -0.07940113
0.21195006 -0.09197221 0.07228215 -0.066912584 -0.107638754 0.07553834 -0.02758127 0.15758821
0.14361435 0.048629973 0.09404511 0.17598599 0.09496722 0.086013675 0.0057633123 -0.10711409
0.091249146 -0.112907864 -0.08295218 0.042963266 0.11499475 -0.09812572 0.1717893 -0.016805982
0.12974094 0.016882503 -0.08385018 0.05399823 0.18137707 -0.07274734 0.0013515293 0.18647927
0.058213063 0.042094234 -0.004529058 0.02962131 0.029939285 0.061958708 -0.07771812 0.026342222
0.08614237 -0.06494106 0.08688063 -0.14637668 0.023341103 -0.060227264 -0.114988126 0.097370274
0.05719872 -0.15804128 0.056552086 0.030839564 0.11796995 -0.034258533 -0.018384228 0.03463956
0.06681808 0.03535763 -0.019360073 0.15959063 0.080069594 0.14652543 0.070220605 -0.06272024
0.06297061 0.025347376 0.036670815 0.16901194 0.019787967 0.08981395 0.14560904 0.17565541
0.008363932 -0.1250578 0.09481372 -0.016707184 0.040360056 0.20751543 -0.107204 0.17883971
0.060020644 -0.042619195 0.09288964 0.084329024 0.026660454 -0.03320178 0.18614067 0.08704781
0.17852224 0.14298485 -0.13752443 0.06832709 -0.023742048 -0.20581387 0.068905875 -0.103644885
0.10970506 0.12131112 -0.047045402 0.14559646 0.055885497 0.06976748 0.08617411 -0.11364864
-0.021395681 -0.1193078 0.10461868 -0.010771054 -0.08506136 0.15741444 0.1480911 0.09062809
0.15592964 -0.020353442 -0.10168849 -0.059111368 -0.029080536 0.07545242 -0.06633674 -0.120570704
-0.18203959 0.0868631 0.1325424 -0.15495212 -0.017142955 0.11203098 -0.14091451 -0.06274686
0.15193518 -0.086533576 -0.12950082 -0.07358985 0.052414592 0.0072555915 -0.021709846 -0.11238333
0.085769914 -0.07635224 -0.043987323 -0.11080422 0.0846798 0.01724483 -0.038247116 -0.13395098
0.20498879 -0.074899174 0.17959142 0.043447558 0.22311442 -0.04908788 0.058602843 0.04521404
0.0927636 0.0575101 -0.13887759 0.07539141 0.15908392 0.06665916 -0.061048303 -0.025185077
-0.16161518 -0.1485692 0.18401633 -0.04690101 -0.068526015 0.13403311 0.10219332 0.06422407
0.096331894 -0.050030306 -0.16061299 -0.10214554 0.09562387 -0.11623615 -0.051348515 -0.13765313
-0.14303932 0.13005066 0.06302427 -0.13602708 0.10976152 -0.056640435 0.06385132 -0.13430086

conv2.bias f4 [12]
00000000: ef67 95bd ef3f 2fbd 1e2a 053d 4694 513d
00000010: 3fc4 433d 9cee 5fbd a16e c13d 241d c93d
00000020: 7d61 04be 458b 373d 8690 843d 021c f33c
-0.072952144 -0.04278558 0.03251087 0.051166795 0.047794577 -0.054670915 0.09444929 0.09820011
-0.12927814 0.044810552 0.06472878 0.029676441

conv3.weight f4 [16, 12, 3, 3]
00000000: 66c7 cfbd 7d80 b43d 936a bd3d a829 65bd
00000010: d4c2 65bd c15f 0fbc 67a3 8d3d 9cd0 353d
00000020: c050 c4bd b558 82bd 0bca aa3d 3b50 393d
00000030: 078a 81bd 4aa0 50bd 31c2 d43d 4e16 b63d
00000040: 226f b0bd dff7 843d 37b7 a5bd d960 183e
00000050: 4c42 273d c89e 793d 007e cb3d 4d03 a6bd
00000060: 550e cabc 3ba7 adbd 0901 cc3c 84d7 ed3d
00000070: 0ca8 b0bd 4f08 2dbc 82b6 2dbd 9955 0e3d
00000080: 094c debc a3fd d2bc 484a d6ba f5b7 f6bd
00000090: 9acc cebc 9bbb 243b 7e97 a9bc 6115 603d
000000a0: 2348 d33d 1827 073e 2b5c b43c 28e9 553d
000000b0: 9a47 1b3e 2351 5cbd 6c3d a1bc fe1b 0e3e
000000c0: 3cc6 babd 99a8 3a3d 5a24 3b3c bc44 b33c
000000d0: 808c 983d dfcf 783b 903b d4bc b647 033d
000000e0: b661 8a3c d20e d63c b9dc 04bd 870e 923c
000000f0: 8e46 f4bc 2348 b3ba 4629 ebbc 2bd7 253d
00000100: aad3 063e 1759 073d 968a 87bd df1e f93d
00000110: 6b6d 553d 7a89 be3d a232 c4bd 6a0c 813d
00000120: 1ab4 edbd 5573 993d 76b4 96bd 1b54 4cbd
00000130: 8c1b c73d 3035 03bc ec52 cdbb 23d2 a33d
00000140: 9c52 193c f53d a5bd 14f6 f43c b9d9 86bd
00000150: 39ae 32ba ec17 c4bc 350d b03d c390 32bd
00000160: eb91 1dbd 5ec3 c33d c8de a5bb 2701 05bc
00000170: 9ba8 903d f977 773d 7183 59bc 2c4e 6cbd
00000180: 70dd c23d 1061 533d 9098 b8bd 2562 cebd
00000190: 8548 cc3b 2290 adbd 77d5 adbc ce46 a53c
000001a0: a2a2 2cbd 22f9 30bd 49e3 19bd b7d7 93bd
000001b0: cbd6 0fbc 7780 b83d 15b0 55bd 0feb 22bc
000001c0: b867 adbc 080f 8ebd a4f9 cd3c abb9 c7bd
000001d0: 1264 c43d a045 05bd c86f b43d 7cda c1bc
000001e0: 98dd e4bc ff80 f0bc fb8d 8dbd 387c 90bd
000001f0: e169 6cbc 7c4b 90bd c543 27bd ee66 f93d
00000200: 45a6 833b 213f 15bd 2aca 0e3d 91cf dbbd
00000210: 4601 a8bd 1b0a c8bd 655a e4bd 0c81 a6bc
00000220: d4cc 03bc bc13 0fbd 567f 93bd 8728 b03d
00000230: 4e1f a93d 780d 9cbd 05a8 9cbd 4136 b2bd
00000240: 9fee 65bc 02bb 093d f9ce 0b3d 8b6f aa3d
00000250: 17cf 0abd 6625 203e e44c b03d 5507 093e
00000260: eeab 91bd a456 4bbd c5c7 46bd 68d4 683d
00000270: ce64 003d 9485 9a3d af84 a03c d070 09bc
00000280: a7d5 933d bc2d 6abd d305 e3bc f350 72bc
00000290: 688a 963d 68a2 84bd c8d5 6a3d f289 84bb
000002a0: 49b3 993d 8280 b8bb 5cbc cdbc 3634 59bd
000002b0: 8868 1c3d d0c5 c2bc c6af ddbc 086a 6c3d
000002c0: ef74 d1bd 6e5b 88bc 78f7 123d 3766 dfbd
000002d0: 0edd 7fbc 257b b83b 8306 f43c 231d 8cbc
000002e0: 2852 dabb 7452 1ebd f722 55bc dc06 6abc
000002f0: dc6d 663d 5f0a 8b3b cc5c 323c cbd2 e13d
00000300: 193c 82bd 20ce 99bd 18b2 2abe 0ad5 623a
00000310: fdb1 59bd 5924 fbbb 2df4 c2bd 47a2 c03d
00000320: 0505 1e3c d80f c53c c995 353c 5a5c fdbc
00000330: 1c2d be3d e325 c3bd f418 bdbd 80f4 e8bd
00000340: 7f19 d93c 75e6 7ebd 7c99 943d de92 2d3d
00000350: 1937 efbd cf3c 51bd 9a88 763d 8386 223d
00000360: a517 98bd ea3e 963d 68d3 5fbb 05f2 703d
00000370: 0f3f e43d a32e 17bc 838d 22bd 224a 97bd
00000380: 303b 6ebc d2ce c73d 9c09 acbd dd20 cebc
00000390: 4dfa e1bd 0b12 c33b 28fb debd 9e21 273d
000003a0: df29 b03d 9ce0 f13c 1a29 98bc bd53 73bc
000003b0: 1950 573c f4d0 46bd 3212 143d 06e2 a2bd
000003c0: c441 6ebd eb74 a43b 1594 4fbd 0cd0 223d
000003d0: a0fc 61bd 4730 5abd 675e ebbd 5037 7a3d
000003e0: 68c0 fa3d 9ff3 103d dc5d ab3d 9613 dbbd
000003f0: 7cbe 8cbb 2e00 c0bc a1de b7ba 6fa8 b63c
-0.10145454 0.0881357 0.09248843 -0.05594793 -0.056094006 -0.008750857 0.06915932 0.0443884
-0.09585714 -0.06364576 0.08339318 0.04524253 -0.06325155 -0.050934114 0.103886016 0.08890973
-0.08614947 0.0649259 -0.08091586 0.14880694 0.04083471 0.06094244 0.09936142 -0.08106098
-0.024665037 -0.08479162 0.024902837 0.11613372 -0.086258024 -0.010561063 -0.04241038 0.0347496
-0.027135866 -0.025755709 -0.0016349042 -0.12046806 -0.025244046 0.0025136236 -0.02070212 0.05470789
0.10316493 0.13198507 0.022016605 0.05222431 0.15164033 -0.053788316 -0.019682609 0.13877866
-0.091198415 0.045570944 0.011422241 0.021883361 0.07448673 0.0037965698 -0.025907308 0.03205081
0.016892295 0.026130114 -0.03243706 0.017829193 -0.0298188 -0.0013678115 -0.028706204 0.040488403
0.13166681 0.033043947 -0.0661823 0.12164091 0.052106302 0.09303565 -0.0957997 0.06301196
-0.11606617 0.07492701 -0.07358639 -0.049884897 0.09722051 -0.008008286 -0.0062659886 0.07999065
0.0093580745 -0.08068458 0.029902495 -0.06584496 -0.00068161223 -0.023937188 0.08596269 -0.043595087
-0.038469236 0.09558748 -0.005061958 -0.0081179505 0.07063409 0.06041715 -0.013275967 -0.057691738
0.09514892 0.051606238 -0.09013474 -0.10077313 0.006234231 -0.08474757 -0.021219952 0.020175364
-0.042147286 -0.04320634 -0.03757027 -0.07218879 -0.008779238 0.09008878 -0.052169878 -0.009943738
-0.021167621 -0.06936461 0.025143452 -0.0975221 0.095893994 -0.032537103 0.08810383 -0.023663752
-0.027937695 -0.029358385 -0.06911846 -0.07054943 -0.01442954 -0.070456475 -0.040836114 0.121778354
0.0040176236 -0.036437158 0.034860767 -0.107329495 -0.08203368 -0.097675525 -0.11150054 -0.020325206
-0.00804444 -0.03493093 -0.07202022 0.0860148 0.08257924 -0.076197565 -0.07649235 -0.08701754
-0.0140339425 0.03362561 0.03413293 0.083220564 -0.033888903 0.15639266 0.08608416 0.13381703
-0.07112871 -0.049643174 -0.04853036 0.05684319 0.031346135 0.07545009 0.019594518 -0.008388713
0.07218485 -0.057172522 -0.027712738 -0.014789808 0.07350618 -0.06476289 0.057332784 -0.0040447647
0.07504899 -0.0056305537 -0.02511423 -0.053028308 0.038185626 -0.023775965 -0.027061354 0.057718307
-0.102273814 -0.01664516 0.035880536 -0.10908168 -0.015616668 0.0056299143 0.029788261 -0.017103737
-0.006662626 -0.038652852 -0.013008825 -0.014283862 0.056257114 0.0042431797 0.010886382 0.11026534
-0.06359119 -0.07510018 -0.166695 0.0008652961 -0.05314826 -0.007664245 -0.09519229 0.09405952
0.009644751 0.024055406 0.011083075 -0.030927826 0.09285948 -0.09528711 -0.09233275 -0.1137476
0.026501415 -0.0622315 0.07255837 0.04237639 -0.11680431 -0.051083382 0.060188867 0.03967906
-0.07426385 0.07336219 -0.0034153108 0.058824558 0.1114484 -0.009227428 -0.039685737 -0.073871866
-0.014540479 0.09756245 -0.0840027 -0.025162155 -0.11034069 0.0059530786 -0.10887748 0.040803544
0.08601736 0.029526047 -0.018574286 -0.014851508 0.013141655 -0.048539117 0.036150165 -0.07953267
-0.058168188 0.0050188205 -0.05067833 0.03974919 -0.055172563 -0.053268697 -0.11492615 0.061087906
0.1224373 0.035388585 0.08367512 -0.10697095 -0.0042951684 -0.023437586 -0.001402814 0.022297112

conv3.bias f4 [16]
00000000: b04c c13c 65c1 9b3d 0d7f 29bd 7c67 073c
00000010: bc0b 2cbd a909 09be 2339 1cbd 8a5a 8e3c
00000020: 4863 6c3d 73e1 133d 148f 413b c1b6 943c
00000030: 4fa3 d73b 0400 d3bc 6bf9 8b3d ee90 083d
0.023596138 0.076052465 -0.04138093 0.008264419 -0.04200338 -0.13382591 -0.038140427 0.017377157
0.05771187 0.036103677 0.0029534744 0.01815355 0.006580747 -0.025756843 0.06834682 0.03334134

conv4.weight f4 [20, 16, 3, 3]
00000000: 9e3c f9bc d1d9 e0bd 649c ba3d b8a1 ecbc
00000010: b3de 0abd 092f 64bd 1a75 f43d bfc1 bf3d
00000020: fdea 633d 1ca4 813d 15f7 9a3c 4977 2e3e
00000030: 23a2 d73d 3dc1 98bd a44a 19be 4cd0 e3bd
00000040: 4d5e ad3d 283b 8abc 25ef 1f3d 12f2 89bd
00000050: 6f16 c6bb 2c02 44bd e2bc e43d 5a74 95bd
00000060: f478 353d cb63 373d 2429 373c 3757 e1bd
00000070: b0f3 b0bd d3ad 373d d7c7 68bd 1acf 913d
00000080: 955d 013e 1bdc 6b3b 5d87 7ebb f1b4 31bc
00000090: f6c7 3f3d 8650 b63c 7b5e ed3b bb93 abbc
000000a0: 8d69 62bd ee37 b33c 898c 5cbd f60b 96bd
000000b0: 31bc 6cbc 6ff1 8f3c a07f 54bd a89f 773d
000000c0: a23f f63b 3858 893d 405d ecbd 97e6 3dbd
000000d0: c92e f5bc ca78 d23a 166a d7bb b71c abbd
000000e0: 4024 0fbd dbfd b53d 1c33 493d 39fa aabd
000000f0: 5ddb e3bc 2bfd 7dbd 4d9f 843c 1e63 843d
00000100: 07d5 3b3d e0b1 e8bb 611e 913d e9cf 98bd
00000110: e66a c03d 6614 25bd 0fee afbc f03c 66bb
00000120: b886 9bbd fb65 ef3c d71a acbc a633 1f3d
00000130: 34dd b43d 44e4 d2bc ff0e 713d aa94 6c3c
00000140: 5ec3 4bbc aef9 fa3d 1c5d 04bd 195b 9e3d
00000150: eb23 aa3c 61c0 94bc 7279 a2bd 7b63 9abc
00000160: 42f3 37bd 0bf5 693c d2f1 743d 0bf8 993d
00000170: 26d7 ccbd 5841 6abd 4904 793d e863 90bd
00000180: 65a7 b23d d4c5 713c 35dc cabd 0155 77bd
00000190: 0f14 e43d 38a2 d6bc 2e1f acbd 45c4 99bb
000001a0: 09b8 a83d 89e1 573d 9cd5 3abd c3a6 d53b
000001b0: edcd 253c 36a6 8d3d eb17 a2bd 7a7c aebd
000001c0: 303c 3a3c f14d 9a3d 1ee9 babd 4265 6e3c
000001d0: 6dc5 63bd a7b5 aebc 8049 073d d2d2 cc3c
000001e0: 88ba d3bc a4db 9e3b 446c 653d ffea c4bc
000001f0: b047 eabd a22a 9d3d f52a 8fbd 7286 e7bd
00000200: 95a0 7ebc 78d2 82bc c602 7a3b 340f 89bd
00000210: 651d 27bd 3ed2 dcbd 95c4 90bd 5495 ae3c
00000220: f5a7 e5bc e8fb bdbd 72f3 debd 6ab5 d63c
00000230: d762 e0bc 0d93 b23c 2579 d1bd dfe5 f8bd
00000240: 3d0c f03c aa84 1abc 7f7e b6bd 6cab 97bd
00000250: bcca 17bd d684 aa3c 71d2 2fbc 18ae 813c
00000260: 8062 e4bd 3115 d83a 3292 94bd dd5a ecbd
00000270: b702 f0bb 765b b4bd 5f01 df3d bdec 0f3d
00000280: 5e0c 493d 5ce1 583d e1d4 d4bd 940c 873d
00000290: a8d8 b13c cb22 fabc 5b2a 3b3c 9678 973b
000002a0: f5e1 ddbc cb5f c93c 12fc abbd 09c5 d53d
000002b0: 130b 6f3b 7ff6 99bc f4a6 b03d 2622 443d
000002c0: 7325 94bd 77cb 103d 17b2 dcbc 3f73 00be
000002d0: 8d5c c5bd 84b9 493d a15f 02bd e4fb 88bd
000002e0: d4cc 8a3d e6e2 ed3d 9f80 59bd 8ffa a6bd
000002f0: dea6 59bd 285e 5cbc 3d11 333d 66dd e2bb
00000300: 2d86 083c a0dd 87bd 6dd7 c73d e54a 313d
00000310: 3b02 0ebd df1a bf3c 4689 c93c 0de1 7c3c
00000320: 2c74 883d 8651 823d ed79 1abd 0672 7cbd
00000330: acc1 57bc 8c14 0b3d eb52 61bc 83ad a83d
00000340: 8936 5fbd 998c 11bd 23dc 413d aba9 83bd
00000350: cdc9 823d 9539 96bd 2524 4e3d 03f1 5bbd
00000360: 0a27 4b3d 5d16 923c 7c06 423d 5bee 09bc
00000370: 3df4 87bd 990e 67bc 52b5 53bd afcd 0bbb
00000380: 39cc 8abd bfe6 5e3a f687 c73c fddb 603d
00000390: 4e3a 5d3d 6321 e1bc c735 04bd a8e8 843d
000003a0: 8405 0fba ef55 16bd 40b2 ddbd c4e8 6c3d
000003b0: fd78 943d 478a c8bd 28b2 8cbd 4117 debb
000003c0: 34d9 843d 1de7 6ebd c5b1 943c 7266 3ebc
000003d0: 1ae7 b0bc 483f 43bd 97f8 1839 6281 9e3d
000003e0: 68bb 243d ff37 403d ec92 2c3e 505e aabd
000003f0: d18f 443d e9ec 513d 4e64 f8bc d334 e53c
-0.030424412 -0.10979045 0.091118604 -0.028885707 -0.03390379 -0.05570892 0.11936398 0.09363126
0.055644024 0.063301295 0.018916646 0.17037691 0.10528972 -0.07458732 -0.1496988 -0.11123714
0.08465252 -0.016873911 0.039046425 -0.067356244 -0.0060451548 -0.047853634 0.11168839 -0.07297583
0.044304803 0.044772904 0.011179242 -0.11002963 -0.0864023 0.044843506 -0.056831207 0.071195796
0.12633355 0.0035989347 -0.0038838007 -0.010846362 0.046821557 0.022255193 0.007243929 -0.020944467
-0.055276442 0.021877255 -0.053844962 -0.073265 -0.014449165 0.01757118 -0.051879525 0.060454994
0.00751491 0.067062795 -0.115412235 -0.046362486 -0.029929535 0.0016057726 -0.0065739257 -0.08355086
-0.03494668 0.0888631 0.049121007 -0.083485074 -0.027814562 -0.062009018 0.016189242 0.064642176
0.045857456 -0.0071012825 0.070858724 -0.07461531 0.09395389 -0.040302657 -0.02147582 -0.0035131536
-0.07594055 0.029223433 -0.021008892 0.038867615 0.08831254 -0.025743611 0.058852192 0.014439741
-0.012436716 0.12254654 -0.03231536 0.07732219 0.02076908 -0.01815814 -0.0793332 -0.018846264
-0.044909723 0.014279614 0.05980093 0.075180136 -0.10001974 -0.057191223 0.060795102 -0.070503056
0.08723334 0.014756639 -0.099052824 -0.0603838 0.111366384 -0.026200399 -0.084043846 -0.0046925866
0.08238227 0.05270532 -0.04561387 0.0065201237 0.010119897 0.06916468 -0.07914718 -0.08519836
0.011366889 0.075343974 -0.09126495 0.014550509 -0.0556082 -0.021326853 0.03302908 0.02500287
-0.025845781 0.0048479605 0.056011453 -0.024037836 -0.114394546 0.07674147 -0.06990615 -0.1130494
-0.015541215 -0.0159695 0.0038148626 -0.06692353 -0.040799517 -0.10782288 -0.07068745 0.02131144
-0.02803419 -0.09276563 -0.10886277 0.026209552 -0.02739088 0.021798635 -0.102281846 -0.121532194
0.02930271 -0.009431044 -0.08910846 -0.07405743 -0.037058577 0.020815294 -0.0107313255 0.015830085
-0.111516 0.0016485808 -0.07254447 -0.11540768 -0.0073245424 -0.08806507 0.108889334 0.03513788
0.04908406 0.052949294 -0.10392166 0.06594196 0.021709755 -0.030534169 0.011423673 0.0046225293
-0.027085284 0.02458181 -0.08397688 0.10437972 0.0036475107 -0.018794296 0.08625594 0.04788413
-0.07233705 0.03535029 -0.026940389 -0.12543963 -0.09636793 0.049249187 -0.03182948 -0.06688669
0.06777349 0.11615543 -0.05310118 -0.08153259 -0.053137653 -0.013450183 0.04371761 -0.0069233654
0.008332771 -0.066340685 0.09757886 0.043284316 -0.034670096 0.023328243 0.02460159 0.015434516
0.06662783 0.063632056 -0.037713934 -0.06163218 -0.013168734 0.033955142 -0.013752679 0.0823622
-0.05449537 -0.035534475 0.04732908 -0.06428846 0.06386147 -0.07335202 0.05032744 -0.053696644
0.049597777 0.01783293 0.047369465 -0.008418645 -0.06638382 -0.014102601 -0.051686592 -0.0021332314
-0.06777234 0.0008503012 0.024356823 0.054897297 0.05401068 -0.02748174 -0.03227785 0.06489688
-0.0005455839 -0.036703046 -0.10825014 0.05783917 0.07249639 -0.09791999 -0.06869918 -0.0067776744
0.06486741 -0.058325876 0.018151173 -0.011621105 -0.021594573 -0.04766777 0.00014588457 0.077395216
0.040217787 0.046928402 0.16852921 -0.0831877 0.047988717 0.051251326 -0.030321267 0.02797929

conv4.bias f4 [20]
00000000: 8947 36bd 76b0 a1bc fa75 c8bd 46de 5a3d
00000010: be96 68bd c701 363d 8ec7 a0bd 6737 e43c
00000020: 29af 1ebb 2bb1 73bd 2778 16bd 255d f0bc
00000030: 3ead 0f3c ce9f 23bd 5ae7 84bd fd81 88bc
00000040: 4ea7 81bd a6c9 36bd a930 73bc 796c 85bd
-0.044501815 -0.019737463 -0.09788127 0.053434633 -0.056784384 0.04443529 -0.07850562 0.02785845
-0.002421329 -0.059495132 -0.03673568 -0.02934129 0.0087693315 -0.039947324 -0.06489439 -0.016663546
-0.06330739 -0.0446259 -0.014843144 -0.0651483

fc1.weight f4 [240, 720]
00000000: ed58 48bb 241b 98bb 87e3 86bc dc35 4fbd
00000010: e4fa 683d bca0 513c 103f cfbb d459 c53c
00000020: 88d5 043d a22f 933b 4f94 c33c f2a9 87bd
00000030: 6566 30bd 14b3 b3bc 391e 14bc 9e41 34bb
00000040: 3fce 743c 42a0 cabc 5cc8 143d b8e4 02bd
00000050: ab63 5e3b 081b c93b 10c8 363c 9704 5cbc
00000060: ef21 233d d5c2 443c 56a6 d03b 75cd ccbc
00000070: 3044 1bbd 7b47 fabb c065 1abd 2574 a73d
00000080: 1fda f439 2594 acbc d80e 853d 15ff c13c
00000090: 8496 a83c ac72 f2bb 0b94 2ebc 155c 1d3d
000000a0: 05cd 4abd 8969 5bbd c24a 373c 5e2c a33c
000000b0: fb01 433d 0221 c73b 330f 2ebc 389a a6bc
000000c0: e457 e5bc 6c79 dcbc 9646 a93b 35ef 2d3d
000000d0: 05e4 323c 19b3 ef3c 584f ebbb 3c78 35bc
000000e0: fe00 3fba bf3a ebbc fc8d 583c 68b4 e13b
000000f0: bf24 d03c 752a 09bd 830e 31bd 4fbe 45bd
00000100: fbc1 2f3c fd52 df3c d95b a5bd 8814 763b
00000110: febb a73b c224 463c 7c2e 133d b0a4 bfbc
00000120: 1cda aabb 8ea8 3cbd ddbf 8f3b 19b6 863b
00000130: 10ef 4d3d f23b d7bc 1253 24bd 0838 42bc
00000140: c360 3b3c 7fc5 883c 9618 45bd 05dc 7d3c
00000150: 4d3b 0bbc c110 2b3d e38d 7c3c cde3 03bd
00000160: 0434 21bd 75c7 153d 0182 dcbb 50f2 e23c
00000170: 12c0 46bc 6e21 1abd e707 46bd 664c 5b3d
00000180: 2bbb 883d 2296 403d 2232 84bc 6fd4 d9bc
00000190: 29a4 8bbd f797 42bd 1218 43bc 075c 223d
000001a0: c6d3 ce3c 1bce 233d f38c da3c 1e76 06bd
000001b0: cfb9 babd 81f2 85bd 56ba 493c 537e 9c3c
000001c0: 1301 34bd 46c3 f5bc 8b5c f1bc 3b6d 813c
000001d0: 1c03 de3a 06ec 183d 4000 8c3d 8aea 963c
000001e0: 4e15 79bc 02e3 9f3c c7b0 49ba 56b1 a7bb
000001f0: b1ec 33bc 6448 423d d734 ed3c fbda b6bb
00000200: e8f5 2d3c 5a93 88bc 59de c33c f9dc cd3c
00000210: 8ca1 9cbb fdfb 9d3c 2431 d3bb 1a69 773d
00000220: 8768 083d e7d8 893d f864 30ba d3a0 5c3c
00000230: 089d cebc 02af 293d 9504 b93c d92f cb3c
00000240: 7703 5e3d 315b 24bc 94fa b93c 36c6 e2bc
00000250: f0d2 0c3d 409d 503d a99f 8a3d 2c13 6a3d
00000260: 373b f53c 7ea8 6fbd 213a 3dbc c4a3 b13d
00000270: 9567 d03b 72b1 2e3c 8ad2 5a3c eb7d 59bc
00000280: 0092 4c3c 7ec5 f03c 2607 03bb 4b47 46bb
00000290: 5ec7 b03c 7cd1 8abd f1ca ba3c 3513 193d
000002a0: ddba 23bd 102e 5aba 535b 8d3d fe86 4f3b
000002b0: 8a19 f1bc 9e9c 20bc d524 233c 1856 d13b
000002c0: a22b cd3c b730 a13c 4343 133c 0940 5cbc
000002d0: 8e24 0ebd 69ac 893c 8717 06bd 15b9 6dbc
000002e0: 199b b8bc 087c 00bd 0d1c 3abc 1ab8 ecbc
000002f0: dd7a 8f3b 104d 853c 0911 0abd 04b5 873d
00000300: 70d5 89bd 989a 9a3b d465 ef3b 5e5c e6bb
00000310: 26e2 073d d326 c23b 1833 94bb eec2 0f3d
00000320: 658e ca3c 588f c2bc aa84 13bd d3c2 55bd
00000330: 2f9d 32bd c7ea 19bc c30c 18bd 742b 063d
00000340: 6529 f739 6e17 39bd 912f ff3b ae2b 843c
00000350: bafd 1e38 63f3 bb3b a9b7 303c 44ab 0f3c
00000360: fb9b 633c 84d7 103d 4f85 033d 3dd6 713c
00000370: ae92 46bc 996d 7fbd c15e b0bc c811 dfbc
00000380: 0614 b33c 7b7d 87bc 49dd 8d3b e479 cdbc
00000390: e082 063d 99a6 973b 6392 153c a256 16bd
000003a0: 9af6 d23c dcdf 2b3c 5cfb 493b 8e27 45bd
000003b0: f070 19bd 8ebb 123d d715 edbc d3ff edba
000003c0: dc98 9038 e1d2 c8bc 1325 9e3a 689b 8a3d
000003d0: 77e9 8abd 1ab9 b8bc b346 94bd ba0f 14bc
000003e0: f449 85bc 6b7b e5b9 b017 613d 736d 93bd
000003f0: 6024 f23c fd0c 4c3c e20a e83c fe68 29bc
-0.0030570582 -0.0046419073 -0.016465915 -0.050588474 0.056879893 0.01279467 -0.0063246563 0.024090685
0.0324302 0.0044917623 0.02387443 -0.06624211 -0.0430664 -0.021935977 -0.009040409 -0.0027504931
0.014941751 -0.02473462 0.03632389 -0.031956404 0.0033933918 0.0061372556 0.011156097 -0.013428829
0.039827283 0.012009342 0.006367485 -0.025000313 -0.037906826 -0.0076379157 -0.037694693 0.0817645
0.0004670182 -0.021066735 0.06496972 0.023681203 0.020579584 -0.007398924 -0.010655413 0.038417894
-0.049511928 -0.053567443 0.011187257 0.019918617 0.04760931 0.006076933 -0.010623741 -0.02033721
-0.027996011 -0.026913367 0.005165885 0.042464454 0.010918622 0.029260205 -0.0071810894 -0.011076029
-0.00072862196 -0.028714536 0.013217445 0.006887961 0.025408147 -0.033487756 -0.04322673 -0.048277196
0.010727401 0.027261252 -0.08074159 0.0037548859 0.005118846 0.012093725 0.035933003 -0.023393959
-0.005213989 -0.046059184 0.0043868856 0.004111063 0.050276816 -0.026273701 -0.040118285 -0.011854179
0.011436644 0.016695736 -0.04811915 0.015494351 -0.008498025 0.041764025 0.015414688 -0.03219967
-0.039356247 0.03656717 -0.006729365 0.027703434 -0.012130754 -0.037629537 -0.04834738 0.053539656
0.066763245 0.047018178 -0.016137186 -0.026590554 -0.068184204 -0.047508206 -0.011907594 0.039638545
0.025247466 0.03999148 0.026678538 -0.03282749 -0.091174714 -0.065403946 0.012312492 0.019103205
-0.043946337 -0.03000034 -0.029463073 0.015799155 0.0016938183 0.037334464 0.06835985 0.018422384
-0.015202833 0.019517425 -0.00076938834 -0.0051175756 -0.010981725 0.04743232 0.02895586 -0.0055803037
0.010617711 -0.016671825 0.023909735 0.025129782 -0.00478 0.019285196 -0.006445067 0.060402967
0.03330281 0.06730824 -0.00067289127 0.013466078 -0.025221363 0.041426666 0.022585193 0.024803089
0.054202523 -0.010031507 0.022702493 -0.027682405 0.034380853 0.050931215 0.06768734 0.05714719
0.029935462 -0.058510296 -0.011549504 0.08673814 0.006360004 0.010662423 0.0133558605 -0.01327465
0.012485981 0.029391047 -0.0019993274 -0.0030254896 0.02157944 -0.06778237 0.022801848 0.037371833
-0.03997313 -0.0008322904 0.06902184 0.0031666155 -0.029431123 -0.009802965 0.009957512 0.006388437
0.02504522 0.01967655 0.008988204 -0.013443002 -0.03470283 0.016805844 -0.03273728 -0.014509459
-0.022534894 -0.031368285 -0.011359227 -0.02889638 0.00437866 0.016272098 -0.033707652 0.06626323
-0.06730163 0.004718136 0.00730584 -0.007030054 0.033174656 0.0059250384 -0.0045226924 0.03509801
0.024726102 -0.023749992 -0.03601519 -0.052187752 -0.043606933 -0.009394354 -0.037121546 0.032756284
0.00047142353 -0.04518836 0.007787653 0.01613411 3.7906437e-05 0.005735801 0.0107859755 0.00876886
0.013892169 0.03536178 0.032109555 0.014760551 -0.012119932 -0.06236038 -0.021529557 -0.027230158
0.021860134 -0.016539326 0.0043293578 -0.025082536 0.032839656 0.0046280143 0.00912914 -0.036703713
0.025752354 0.010490384 0.0030819988 -0.048133425 -0.03746122 0.035823397 -0.028941078 -0.0018157907
6.894927e-05 -0.024514617 0.0012065492 0.06767923 -0.06782811 -0.0225492 -0.07240047 -0.009036953
-0.016270615 -0.00043770237 0.05495423 -0.0719861 0.02955836 0.0124542685 0.028325502 -0.0103399735

fc1.bias f4 [240]
00000000: 0b86 673b 8e74 5abc 44ef 53bc 7fb6 ffbb
00000010: 08c2 8c3c d41e c83c ee2c 533c 2589 13bd
00000020: 6094 203c 1263 f93c f5ae f13c d330 943c
00000030: e79a 8e3c 0308 2e3d 74f9 f4bb ae3e 9f3c
00000040: fe8e bcbc 3a40 a03c dd4e 05bd 19f1 89bb
00000050: d3d8 eb3c ab47 41bb 364b a03c 9431 d4bc
00000060: 4216 853c 47dd 1f3c a63a 17bd 9e0f 433c
00000070: 015b a9bc 716b 303c 2dd4 823b 3efb 5e3b
00000080: ffd0 04bc 2699 103d ef20 a83c 531a f33b
00000090: 68ed b2bc 5064 49bb 6784 093d 8734 923c
000000a0: c954 243d a0c9 fdbc a101 7ebc 1a5b 5a3b
000000b0: eb90 48bc 8129 35bc b989 1fbd 3620 113d
000000c0: 9923 7b3b 97db b6bc ae5f d1bc 41c6 463c
000000d0: 02bc bbba 0d5b 38bd e83f bdbc d42c 10bd
000000e0: e249 3e3b a56d 733b 8427 d1ba ca2a 57bb
000000f0: 08f3 923c bf03 23bd d34a be3c 0797 cb3b
00000100: 0391 99bc 824a f8bc 2a16 00bc dd46 f2bc
00000110: d921 d5bc 9fb6 933b b01b ffbc 508b ee3c
00000120: 13c9 a4ba 8f2a 083c 627f 48bc 3095 273c
00000130: 977d 27bd 1c26 a93c cfc4 1d3c c8d4 9e3c
00000140: 962d e1bc b989 1fbd eb7d 813c 14b7 25bb
00000150: fd92 a4bc 872d 8dbc b94a 8a3c a8a3 8d3c
00000160: 35e6 2abd 71a5 9dbb 3f20 df3c 49f5 cc3c
00000170: cfd2 fc3c f807 6ebb ba57 0a3b eb18 d03c
00000180: 58a5 f9bc e4b5 813c bbc9 1ebd 6708 ea3c
00000190: 673f b2bc 2b56 00bd 64bd b23c 2c1a cbbb
000001a0: b07d 8e3c e7a3 dbbc cb02 14bd 028f 673c
000001b0: 6305 79bb f41e b6bc d672 96bc d849 5cbc
000001c0: a555 e6bb d894 6f3c 51e9 c0bc d5f2 b63c
000001d0: 9cef b03b 5ff4 a4bc 9402 b4bc c843 e1bc
000001e0: f3af 0ebd 636b 083d 71f7 29bd 2b89 80bc
000001f0: 692d 9f3b 460c 07bd 70a6 d9bc d08f d03b
00000200: 132f f4bc fb66 a7bc 4a6b 123d 2178 333c
00000210: 1ac1 bc3c 2fdd b43b 0d7c 33bd 1eea ea3c
00000220: ff70 1f3a 5fce 37bc 4a8f 153c 8cb5 d7bc
00000230: 9947 d5ba 5bd5 07bc 7393 dbb9 d3ea f63c
00000240: d6ae e0bc 8ffd 13bc 25c1 20bd 9751 0cbd
00000250: d198 a03b 94ee 66bc a8b4 b0bc 9ca6 09bc
00000260: d488 29bb d1ca 10bd 4ad3 55bb 1479 01bd
00000270: 3a00 353d fd5b 26bc a189 bb3c c4fb f13c
00000280: 2ea9 53bc a925 4bbd c681 043d 8d8c efbc
00000290: 06a1 133d 3472 5c3b 7d71 e43c 3b97 12bc
000002a0: 7435 443b 928d 12bd 048b acbc 28a1 b63c
000002b0: 0cf7 3b3c c313 33bd 11fc ecbc 5c28 2fbd
000002c0: 8823 123d 7c4e 003d 5c53 1abc d76e 22bd
000002d0: 3914 00bd 7927 3cbd adee ccbc 1df7 1ebd
000002e0: 665b 65bc cfc8 9abc 6b29 3cbd a4c5 833c
000002f0: 6195 82bb 126d 34bc 40ca 81bc eeaa bbba
00000300: 26a7 2dbb 2796 88bc 2cfd 92bb 0f92 2fbd
00000310: 1dcc 203c 0a11 143d 3b23 dfbc 3160 40bc
00000320: 490d 1b3c 7647 91bc 347d e0bb 1f29 1bbd
00000330: a810 11bd 673d 55bc d781 2cbd ee52 cdbc
00000340: fe52 ef3b 414c 60bb b3d3 1cbd 75fb 153d
00000350: 82bf 8ebc 4748 d5bc 5a5a e83b 4781 5b3c
00000360: a3f8 aabb 2f6a 173c 8ef4 b13c 18f2 b8bb
00000370: c498 07bc 4c49 9c3b 14a5 dfbc 4187 f9bb
00000380: 1730 d8bc b56a 9fbc 0979 863b 65a8 033d
00000390: d011 79bc ffdc 523b c4ab a03c 9dac a1bc
000003a0: bc39 b53a 5c03 a13c 0e53 f7bc 0677 e0bc
000003b0: 5372 92bc 2113 32bd 6613 04bd 290f 1a3c
0.0035327699 -0.013333453 -0.012935463 -0.0078037377 0.017182365 0.024428762 0.01288913 -0.036019463
0.009801 0.030442748 0.029502371 0.018089687 0.017407848 0.04248811 -0.007476026 0.019439068
-0.023017403 0.019561876 -0.032545913 -0.0042096493 0.028789913 -0.002949218 0.019567113 -0.025902547
0.016245965 0.0097573465 -0.036921166 0.011905579 -0.020673277 0.0107678035 0.0039925785 0.0034024264
-0.008106469 0.035302304 0.020523516 0.0074189096 -0.02184172 -0.0030729957 0.033573534 0.017847313
0.04011992 -0.030979931 -0.015503318 0.003331846 -0.012241582 -0.011057259 -0.038949702 0.03543111
0.0038320778 -0.022321505 -0.025558319 0.012132228 -0.0014322998 -0.045008708 -0.023101762 -0.035199
0.0029035737 0.003714421 -0.0015957211 -0.00328319 0.017938152 -0.039798494 0.023229038 0.006213072
-0.018745905 -0.030308966 -0.007817784 -0.029574806 -0.026017116 0.004507854 -0.031141132 0.029119164
-0.0012572132 0.008310928 -0.012237402 0.01022844 -0.040891256 0.020648055 0.009629442 0.019388571
-0.027487557 -0.038949702 0.015807113 -0.0025286125 -0.02008962 -0.017233623 0.016881334 0.017289951
-0.04172345 -0.004810982 0.027237056 0.025019305 0.03086224 -0.0036320668 0.0021109418 0.025402507
-0.03047435 0.015833803 -0.038766604 0.02856846 -0.021758748 -0.031332176 0.021818824 -0.0061981883
0.017393917 -0.026811553 -0.036135476 0.014133217 -0.0037997596 -0.022231556 -0.018365305 -0.01344534
-0.0070292526 0.014622889 -0.023548754 0.022332588 0.0053996574 -0.020136056 -0.021973886 -0.02749814
-0.034835767 0.033305537 -0.041495744 -0.015690407 0.0048577082 -0.03297069 -0.026568621 0.0063648
-0.029807603 -0.020434847 0.03574685 0.010953934 0.023041297 0.005519531 -0.043819476 0.028676089
0.00060822064 -0.011218636 0.009128401 -0.026331685 -0.0016271948 -0.008290614 -0.00041880793 0.03014127
-0.027427118 -0.009032621 -0.039246697 -0.034257498 0.0049010296 -0.014094967 -0.021570519 -0.008401539
-0.002586891 -0.03534967 -0.0032627159 -0.03160961 0.04418967 -0.010153768 0.022892775 0.029538997
-0.012918754 -0.049596462 0.032350324 -0.029241825 0.036042236 0.0033637406 0.027886147 -0.008947189
0.0029939087 -0.035779543 -0.021062382 0.022293642 0.011472475 -0.043720018 -0.028928788 -0.0427631
0.035678416 0.03132485 -0.0094192885 -0.039656486 -0.031269286 -0.04593608 -0.025016153 -0.038809884
-0.013998842 -0.018894581 -0.045937937 0.016085453 -0.0039850925 -0.0110123325 -0.01584351 -0.0014317909
-0.0026497333 -0.01667316 -0.004485747 -0.0428639 0.009814289 0.036149062 -0.027238479 -0.011741684
0.009463617 -0.01773427 -0.006850863 -0.037881013 -0.035416275 -0.013015128 -0.042116012 -0.025063958
0.0073035946 -0.0034225138 -0.03828783 0.03661676 -0.017425302 -0.026035441 0.007090849 0.013397521
-0.005217628 0.009241625 0.021723058 -0.005644094 -0.008276168 0.00476948 -0.027300395 -0.0076150005
-0.026390119 -0.019460062 0.004103784 0.032143015 -0.015202001 0.003217518 0.019613154 -0.019735629
0.001382641 0.019654922 -0.03019097 -0.027400505 -0.01787678 -0.043475274 -0.032245062 0.0094030285

fc2.weight f4 [120, 240]
00000000: a8a9 94bd 7321 05bd 55a3 9a3d 90aa ac3d
00000010: 839c 59bd 477e cb3d ff1b 26bd e3d8 f0bd
00000020: 33c6 1c3c 2fc9 5bbd aa93 023e 1c05 f63c
00000030: 241a 8c3b b9e9 803c 14b6 2c3d 88a4 d23c
00000040: 5b03 eb3c 9316 053e d005 4bbd 10e8 fb3c
00000050: d214 633d b8ff 16bc 6d67 ee3c fc82 633d
00000060: e064 f83d 101b 85bc 5f87 fb3d dd48 933d
00000070: 968e ae3d ed88 71bc 05e5 fa3c c56b a33d
00000080: 43b8 1cbc 0668 1c3b 98fa a63d 2e9b e63c
00000090: a86a 9d3d 0eb8 21bd 7932 043e c9cb 5dbd
000000a0: 3dbe 3ebd f2f6 c63c 152a 413d 2986 10bd
000000b0: 38e2 e33c 0a2b 99bc 0b22 94bd 355a 84bc
000000c0: 7d98 4bbd fe91 243b 8920 d3bc 13f9 a53c
000000d0: 8150 0b3c 3570 b83d ecc6 42bd 6058 69bb
000000e0: f927 2d3e 432e f13c c99a 423d 2fca 94bd
000000f0: eec6 d5bd 2541 05bd 38ea ee3c 8b13 9a3c
00000100: 0bcb 533d fc95 63bd 1c14 ecbc 78f4 51bd
00000110: 969d f33c 0a85 61bd fb6e 133d 1c92 abbc
00000120: 77de c83d 6c0c 363d 2f8f 63bc ef18 fa3b
00000130: 4f75 933c 982a 5abd f24c 19bd d66d 1a3e
00000140: 562e 06bc d388 263d 517f a9bd c19a c63d
00000150: 3e1e bc3d c0ce 433c adf8 2cbd 84ec 8dbc
00000160: 6187 f8bc 37af 783d 15b0 813d 41cf c1bc
00000170: 20c6 853d e72e 033d 9adf 163a 72c4 ae3c
00000180: f735 913c 4272 1eba 9c60 4cbd 6abd 78bb
00000190: e143 d3bd b802 533d 25c6 ea3d 81d2 bbbc
000001a0: 3307 0c3d 66ee 033d 87d7 383d 8a1b 3e3d
000001b0: bc25 893d 06cd 403d 3dc6 753c 1ff5 a0bc
000001c0: 2675 3f3d 8edd 803d 5cc6 fb3a a41d b83c
000001d0: 2289 63bd b63a d9bb 1586 613d f855 28bd
000001e0: 52e4 8aba 67e9 f73c 26aa 0f3d aa42 fcbc
000001f0: 66b8 1d3d a2c0 9c3d 528e 893c e475 373d
00000200: 8e94 523d d03c 4a3d 199e 14bd 82fc 37bc
00000210: b199 45bd d671 caba 8d26 9d3d 02dc 4b3d
00000220: d122 853b a50b b93d f1f5 b6b9 78ed d33d
00000230: 9a8c 073c 18c1 ed3d 852c d03d 0e37 df3c
00000240: e54f bb3c 511b 293d 96d7 66bd d08f 3b3d
00000250: de05 3a3d 712e 99bc 5afb 743d abd4 093d
00000260: 40f5 a93c d3d4 f23b 4384 f4bb 01ed a43d
00000270: 4b1b 1d3c 6522 283d 2ddf 8a3d df91 cebc
00000280: fe09 80bd 99e0 82bc 896e 43bd 2a3a edbc
00000290: e25b dabd 1828 973c 9886 ce3b 8c26 5cbd
000002a0: 3356 463d 4dbc 503c 28e9 cb3c fc8a c9bd
000002b0: 7bcd 23bc c511 20bc 5c18 413d a430 bcbc
000002c0: 5dd1 9abc fdae a1bc 2600 d83c 1345 e9ba
000002d0: 8ed4 47bd 9099 033e cfac ca3b 3486 473d
000002e0: 5d11 a2bb 5e16 c3bd 94ed 02bc 2f11 433d
000002f0: 5803 693c dfc2 763d b977 c9bc 1810 ab3d
00000300: 2320 433d f3f7 1abd 6857 a63d a184 2f3d
00000310: 83f8 c83d c7f9 b7bb 8b01 b53d 9ccc 8f3d
00000320: c6b7 2c3e 5637 a03d cfa3 ad3d a56c 59bc
00000330: 213b 773d 926c 883c 557c 4d3d 629b ed3c
00000340: 35e1 1f3d 8077 c03a 8ac1 103e b8ca 61bc
00000350: 732f 7b3d fa36 6dbd e19f 67bd 5eb1 c1bc
00000360: e979 6bbc 1ea8 ec3c 85c0 293d 580f 6abc
00000370: 4c08 35bc c15a db3c 1efa 60bd b9c1 dc3b
00000380: 0499 99bc eab4 0d3d 4424 43bd 854e 0cbd
00000390: c862 8dbd ee7d 023d 9c51 37bc b27a 8ebd
000003a0: c00e 03bd ece5 553b d262 723d f95d 6fbd
000003b0: 341e 823c 32e7 513d 3410 293d 6e3a 093c
000003c0: 874e 863b acee 8a3b bbfc a33d c9ab 003c
000003d0: 2d88 1a3d 79a1 af3b 70a4 babc 86ff 353d
000003e0: e7ee 643c 5177 d7bc 5ce1 b6bc e678 07bd
000003f0: a5b7 1d3d 206b b7bc 646a 833d 5003 9c3d
-0.07258922 -0.032502603 0.07550684 0.0843097 -0.053127777 0.09936195 -0.040554043 -0.11760118
0.009568739 -0.05365866 0.12751642 0.030031733 0.004275577 0.015736448 0.04216583 0.02571322
0.028688123 0.12996893 -0.04956609 0.030750304 0.055439778 -0.009216242 0.029102052 0.05554484
0.121286154 -0.016248256 0.12281679 0.07191632 0.0852329 -0.014742118 0.030626783 0.0797954
-0.009565416 0.0023865714 0.08153266 0.028150167 0.07686359 -0.03948217 0.12909879 -0.054149423
-0.046568144 0.024287675 0.047159273 -0.035284195 0.02781783 -0.01869728 -0.07233056 -0.016156295
-0.04970597 0.0025111432 -0.02577235 0.02026037 0.00850308 0.09005777 -0.047552988 -0.0035605654
0.1690978 0.029441005 0.047510896 -0.07265126 -0.104383335 -0.03253283 0.029164419 0.018808147
0.05170731 -0.055562958 -0.028818183 -0.051258534 0.029738229 -0.055058517 0.03599451 -0.020943694
0.09808057 0.04444544 -0.013889118 0.007632367 0.018000273 -0.053263277 -0.037426896 0.15080962
-0.008189758 0.04065783 -0.08276237 0.09697486 0.09185456 0.0119511485 -0.042229343 -0.017324694
-0.030337991 0.060713973 0.06332413 -0.023658397 0.0653193 0.03202715 0.0005755365 0.021333907
0.017725928 -0.00060442474 -0.04989682 -0.0037954696 -0.10315681 0.051516265 0.11463574 -0.022927525
0.034186553 0.032209776 0.045127418 0.046412982 0.066966504 0.047070526 0.015000877 -0.019648133
0.04674258 0.06292258 0.0019208896 0.022475071 -0.055550702 -0.0066293133 0.05505951 -0.04109761
-0.0010596609 0.030262662 0.035074376 -0.030793507 0.038505934 0.07653929 0.016791496 0.044790164
0.051411204 0.0493744 -0.036283586 -0.011229636 -0.048242275 -0.0015445303 0.076733686 0.049770363
0.0040629883 0.09035424 -0.00034896986 0.10348028 0.008273268 0.11609095 0.101647414 0.027247932
0.022865245 0.041285817 -0.056357943 0.045791447 0.04541575 -0.018698903 0.05981002 0.03365008
0.020746827 0.0074106245 -0.007462056 0.080530174 0.009589027 0.041048426 0.06780849 -0.025216041
-0.06251906 -0.015976237 -0.047712836 -0.028958399 -0.106620565 0.018451735 0.006302666 -0.0537477
0.04842205 0.012740207 0.024891451 -0.09840962 -0.009997721 -0.009769862 0.04714237 -0.022972412
-0.01889866 -0.019736761 0.026367258 -0.0017797075 -0.048786692 0.12851548 0.006185151 0.04871197
-0.0049459175 -0.095257506 -0.007991213 0.04762381 0.014221989 0.060244437 -0.024593221 0.08352679
0.04763807 -0.03783412 0.0812214 0.042851094 0.09813025 -0.0056144926 0.08838185 0.07021448
0.16866979 0.078230545 0.0847851 -0.013270532 0.060359124 0.016653333 0.0501674 0.029004756
0.039033134 0.0014684051 0.1413633 -0.013781242 0.061324548 -0.057913758 -0.056548957 -0.023644146
-0.014372327 0.028888758 0.041443367 -0.014285885 -0.011049341 0.026776673 -0.05492603 0.0067369607
-0.018749721 0.03459636 -0.047642007 -0.03425457 -0.06903607 0.031858377 -0.011188891 -0.06956996
-0.03199649 0.0032638265 0.059176274 -0.05843923 0.015883543 0.051245876 0.041275218 0.008375747
0.0040987167 0.0042398777 0.08007189 0.007853457 0.037727524 0.005359825 -0.022783488 0.04443314
0.013972974 -0.026302012 -0.022324257 -0.033074282 0.038505215 -0.022389948 0.06416777 0.07617819

fc2.bias f4 [120]
00000000: 621a 41bc e2ba 583d 6c7d ef3c 0504 323d
00000010: 9834 18bd f7f3 4c3d 90ea 8dbd 3430 8dbd
00000020: ffa9 6ebc 172c 843d 1c0a d93d e902 03bd
00000030: 0ee9 2c3d 3586 0dbd 4f58 b73d 1264 923c
00000040: 0c8a a7bc d8fc cfba 95e2 b43c 40ec 80bd
00000050: a119 75bd 2d39 833d c0bb 653c bb8b 683c
00000060: 8ed9 da3b b3a1 12bb 590b 073d a5a8 ea3d
00000070: a863 49bc c9c7 17bd afb0 f13d d13e 873c
00000080: 346e 1fbd 39de 143d 77e1 c6bc 58fc 933d
00000090: 4436 10bd f7c5 af3c 181a 9e3d 610e 02bc
000000a0: f6f3 87bd 85af c53d cfd7 963c 667a 7f3d
000000b0: 6b52 16bd 8733 c53d 6528 413d a2a8 10bd
000000c0: a52e 9d3d 56ce 4dbd 6c95 173b abc2 823d
000000d0: e72a efbc 59df 5cbc 846d 75bc 8184 5dbd
000000e0: 7635 a0bd 386b d93d 3e2a 82bc 37e0 fcbb
000000f0: 6c77 f33d 6e95 01bd c15b a43c 3b3c c03d
00000100: 7e10 4b3e 4fa1 47bd b152 953c 2844 ab3d
00000110: 3d72 0f3e b840 8dbd 9d55 6a3d 63cc dfbc
00000120: 670a 34bd e5af 8abd 9708 f3bb d796 943d
00000130: bb92 82bd ad2f a3bd dab0 a53d f0e5 a23d
00000140: aaa9 2bbd ac13 303d f4d8 933c 5ee1 afbc
00000150: 6070 02bd 580f 183d 2e59 d63d a32e 50bd
00000160: e37f 8c3c 42ed e23c fdf3 153d cec2 493c
00000170: 589a c53c 4eef 4a3c 8281 a6bd da41 643c
00000180: b2a0 b3bb c202 a33d e085 f13c 40eb a73c
00000190: 5f4a 26bd 367c 443d 63b3 533d 2196 f53d
000001a0: 2a2c a8bc a982 873d 58bb 0fbd 0bdc 50bd
000001b0: 49c2 073d d7bc b2bc d22e 793d cfe4 f5bc
000001c0: a691 8bbb 724b 8ebd 9e40 4e3d 3d08 14bd
000001d0: 1fa2 e63d ef47 1f3d 705f 61bd 6b35 3ebd
-0.011786075 0.0529126 0.02923461 0.043460865 -0.037159532 0.05003735 -0.06929505 -0.0689396
-0.014566897 0.06453722 0.10597631 -0.031985197 0.042214446 -0.034551818 0.089523904 0.017869983
-0.020451568 -0.00158682 0.022080699 -0.06295061 -0.059838895 0.0640739 0.014021814 0.014193471
0.0066787666 -0.0022374212 0.032969806 0.11457948 -0.012291826 -0.037055764 0.11801278 0.016509445
-0.038923457 0.03634474 -0.024277432 0.07225865 -0.035208 0.021456702 0.07719821 -0.0079379985
-0.06638329 0.09652618 0.018413452 0.062372588 -0.036699694 0.09628969 0.047157664 -0.03531707
0.07674912 -0.050245605 0.0023129834 0.06384786 -0.029195262 -0.013480985 -0.014979724 -0.054081444
-0.07822697 0.106161535 -0.015889283 -0.007717158 0.11888012 -0.031636648 0.020063283 0.09386488
0.1983051 -0.04873782 0.018227907 0.08362609 0.14008422 -0.0689711 0.057210553 -0.027319139
-0.043955233 -0.067718305 -0.0074167955 0.07255333 -0.06375643 -0.07968078 0.080903724 0.07954013
-0.04190985 0.04298751 0.018047787 -0.021469768 -0.03184545 0.037124008 0.104662284 -0.050825726
0.017150825 0.027701024 0.03660964 0.012314511 0.024121448 0.012386156 -0.081301704 0.013931716
-0.005481803 0.079595104 0.029482782 0.020497918 -0.04059827 0.04797002 0.05168475 0.119915254
-0.020528872 0.06616718 -0.035090774 -0.0509911 0.03314427 -0.021818561 0.060835667 -0.030016331
-0.004259306 -0.06947984 0.050354593 -0.03614067 0.11261391 0.03888696 -0.055022657 -0.046437662
