Exercise-1-RL/imitation_learning/models/agent_history2_cnn_ndata.pt (torch, 854517 bytes, 16 tensors)

conv1.weight f4 [6, 3, 3, 3]
0.07481964 0.06634599 -0.10697541 -0.085072845 -0.0009224562 -0.0042241584 0.22229448 -0.11168642
0.22294594 0.17353855 0.03171627 0.07167626 0.17037827 -0.0363614 -0.15492068 -0.04805929
-0.08169446 -0.07830921 -0.019542892 -0.037600808 0.1232027 0.017924719 -0.108659446 0.06671059
-0.09476301 -0.108558856 -0.12524343 0.15632229 0.13526693 -0.07149957 0.17425047 0.02413937
-0.161117 0.098320484 0.15020731 -0.003506348 -0.0969802 -0.079051204 -0.025400443 0.040551435
-0.002710448 -0.10997104 -0.18695042 -0.066376 0.13549566 0.042976826 -0.1581811 0.035998486
0.14623307 -0.13367178 -0.10413265 -0.17469493 0.12962943 0.1483981 -0.117433555 0.16306807
-0.03206378 0.055000868 -0.1569096 -0.063199975 -0.053411618 -0.13237979 0.080779605 -0.20425984
0.09723635 0.04921166 -0.045093443 0.037589036 -0.010382582 -0.1745964 -0.14356674 -0.05059519
-0.25787705 -0.004377157 0.2665809 0.075374186 0.09400626 0.03257952 0.063415505 -0.0047489568
0.2790585 -0.051065225 0.06987054 0.090161316 0.04890472 -0.11536577 -0.06642895 0.22554392
-0.03673145 -0.034877665 0.11302702 0.18979374 0.16068906 -0.05813436 0.08574251 -0.1280195
-0.034149166 -0.16097458 0.21383566 0.041025516 -0.12781455 0.01931633 -0.16685577 0.0062652584
-0.05179313 0.041421242 -0.08760298 -0.15805446 -0.19107842 0.04092309 0.14964414 -0.1486892
0.087695606 0.14528938 0.069676675 0.19084328 -0.008960675 0.112116136 0.19879995 -0.06934659
-0.09731377 0.184334 0.14630626 0.06364569 0.21114808 0.22500126 0.10595463 -0.17576158
0.14463817 -0.10083337 -0.12997633 -0.04592842 0.0032888858 0.13889328 0.06259755 0.21088965
0.20153151 -0.0467028 0.010820961 -0.12425426 0.19697915 -0.16730615 0.1794212 0.14105824
0.07378181 0.025146004 0.052888192 -0.1654954 -0.18799683 0.20395905 0.15677017 -0.052462235
0.052363325 -0.14240927 -0.014873925 0.14919575 0.15018167 0.08822426 -0.06537914 -0.20594908
-0.19433464 -0.21539785
00000000: 0a3b 993d 68e0 873d ec15 dbbd ac3a aebd
00000010: fdd0 71ba cf6a 8abb 2aa1 633e dabb e4bd
00000020: f14b 643e 17b4 313e ebe8 013d 01cb 923d
00000030: a477 2e3e b1ef 14bd 87a3 1ebe d1d9 44bd
00000040: 6d4f a7bd 9460 a0bd 6a18 a0bc 4e03 1abd
00000050: b251 fc3d dcd6 923c d888 debd 909f 883d
00000060: 1c13 c2bd 1b54 debd d03f 00be f312 203e
00000070: 6a83 0a3e 5e6e 92bd b76e 323e eebf c53c
00000080: dbfb 24be 405c c93d f2cf 193e c2ca 65bb
00000090: 8e9d c6bd 99e5 a1bd 9714 d0bc 4319 263d
000000a0: c6a1 31bb 7f38 e1bd ee6f 3fbe 24f0 87bd
000000b0: 60bf 0a3e 7808 303d 3afa 21be 2673 133d
000000c0: 1fbe 153e 41e1 08be 8043 d5bd 3ae3 32be
000000d0: 94bd 043e acf5 173e 0181 f0bd 51fb 263e
000000e0: 4f55 03bd 9748 613d e9ac 20be fd6e 81bd
000000f0: 24c6 5abd 918e 07be c76f a53d 7e29 51be
00000100: da23 c73d 2a92 493d e7b3 38bd f6f6 193d
00000110: b51b 2abc 66c9 32be 2903 13be e73c 4fbd
00000120: 7608 84be 416e 8fbb 4b7d 883e c85d 9a3d
00000130: 5b86 c03d 1a72 053d fddf 813d 239d 9bbb
00000140: c1e0 8e3e c529 51bd 4918 8f3d 7fa6 b83d
00000150: 5150 483d e444 ecbd e70b 88bd fcf4 663e
00000160: b873 16bd e2db 0ebd b67a e73d 4a59 423e
00000170: ac8b 243e 4b1e 6ebd c599 af3d 8b17 03be
00000180: ffdf 0bbd 85d6 24be bcf7 5a3e 5f0a 283d
00000190: d1e1 02be 483d 9e3c 3ddc 2abe cc4c cd3b
000001a0: 0825 54bd 52a9 293d 3169 b3bd 07d9 21be
000001b0: 10aa 43be f89e 273d 503c 193e fb41 18be
000001c0: c199 b33d bdc6 143e a5b2 8e3d 6c6c 433e
000001d0: cccf 12bc 259d e53d 3792 4b3e 9605 8ebd
000001e0: 714c c7bd 0dc2 3c3e 4fd1 153e ac58 823d
000001f0: 3437 583e bb66 663e befe d83d d8fa 33be
00000200: 071c 143e ba81 cebd 8418 05be 701f 3cbd
00000210: 598a 573b 0a3a 0e3e 2533 803d 75f3 573e
00000220: 475e 4e3e 6f4b 3fbd 664a 313c 0479 febd
00000230: e7b4 493e 4e52 2bbe 31ba 373e 9271 103e
00000240: eb1a 973d fefe cd3c 4aa1 583d a077 29be
00000250: 3e82 40be a4da 503e 5c88 203e a4e2 56bd
00000260: ed7a 563d bcd3 11be c3b1 73bc c5c6 183e
00000270: 39c9 193e ecae b43d 80e5 85bd 51e4 52be
00000280: a9ff 46be 4191 5cbe

conv1.bias f4 [6]
-0.12107272 0.0090663675 0.12028731 0.0007737571 -0.28440383 -0.17177723
00000000: f9f4 f7bd 1a8b 143c 3159 f63d f6d5 4a3a
00000010: 619d 91be 5fe6 2fbe

conv2.weight f4 [12, 6, 3, 3]
0.02319477 0.16946334 -0.07072039 0.17381625 0.09585275 -0.0231982 0.06300896 -0.08682619
-0.03556974 0.169794 0.22065116 -0.14884591 0.07173955 -0.02863247 0.06961586 0.16652396
-0.07494196 -0.12955791 -0.03957999 0.113192685 -0.060432855 -0.07962689 -0.124026716 0.06919386
0.0030198623 0.031534974 0.005602606 0.081676364 0.17881112 -0.0775757 0.12483958 0.10122433
0.07725378 0.0053090174 -0.065662146 -0.054344304 -0.04978379 -0.034737464 0.07505855 0.0688826
-0.05248863 -0.14444454 0.14529572 0.06041364 -0.006382709 0.15265422 -0.07802361 0.09010175
-0.02243818 0.09313827 -0.14136586 0.041014116 0.01606457 -0.15085001 0.109728925 -0.13645765
0.06629302 0.01605788 -0.1493755 0.21918397 -0.03452284 -0.023371495 0.028816108 0.14021115
-0.1165723 -0.04513195 -0.00840778 -0.069068246 0.0013114155 -0.15916882 0.085469216 0.07125106
0.08939403 -0.08877537 -0.03534012 0.009224569 -0.121367164 -0.0342811 -0.112638295 -0.1866233
0.035839584 -0.055247508 0.03429694 0.042611834 -0.18304038 -0.04155999 0.10203399 0.119550526
-0.11415857 0.123284005 -0.040313162 -0.08307186 -0.022556106 0.06919857 -0.11125871 0.09984284
0.11692581 0.044924088 0.10981555 -0.048599184 -0.031387854 0.1128161 -0.009031993 0.09178635
-0.07728755 -0.11789546 0.0067839287 0.08269819 0.13823523 -0.020348119 0.106504954 -0.003929903
0.14396131 0.04834951 0.09207916 -0.024671672 -0.052217346 -0.07714686 -0.06414035 0.1515321
-0.14287229 -0.0035904713 0.089203164 0.11747209 0.08448807 -0.16245635 0.089650705 0.048361614
-0.17946489 -0.15292403 -0.17190057 -0.043004554 -0.080183156 0.02679551 0.015159197 -0.12165412
-0.004673461 -0.023397457 0.16560246 -0.044605106 0.0491 0.09298202 0.1318982 -0.022351602
-0.13441513 -0.13202308 0.09447887 0.070145 0.006008607 -0.07952617 0.10524534 0.09598932
-0.033716504 0.12823999 0.005275148 0.010986361 -0.005618696 -0.058549155 0.026564872 0.0026995824
0.07519438 -0.04347741 0.10022487 -0.039554298 0.057229012 0.17481634 -0.16223738 -0.05325935
-0.064877115 -0.14185144 -0.02355638 0.08931019 0.12398371 0.056615192 -0.08220971 -0.10182973
0.017504636 0.039173875 0.09905176 -0.14083764 0.24224614 0.011851701 0.1570566 0.24682826
0.1320505 -0.0819513 -0.04940626 0.14097577 -0.046003137 0.05816425 0.00096175645 -0.079652034
-0.06532539 0.044288713 -0.053730886 0.02613917 -0.11613634 -0.071634166 -0.08676032 -0.014403343
0.079045765 0.11012097 0.12706925 0.094758496 -0.1332185 0.011592952 -0.024557048 -0.08104682
-0.077443816 -0.04593513 0.009949558 0.034396883 -0.004516754 0.014795906 0.06625085 -0.092883065
0.08362013 -0.034119308 0.09674165 -0.2065022 0.06796268 -0.07900958 -0.14976732 0.06232561
0.015037138 -0.11860359 -0.121492766 -0.02880209 -0.06607048 0.08953691 -0.089675635 -0.0432388
0.022635162 0.05570563 0.08217614 0.09823564 -0.06051004 0.001356342 0.12464993 -0.02583101
0.049619894 0.21053356 -0.06736023 0.0009703114 0.111340664 0.092712946 -0.081126325 0.022683969
-0.086823955 0.07505931 -0.116262324 0.07555936 0.055732388 0.08817532 0.041467804 -0.020771744
00000000: f502 be3c cc87 2d3e dad5 90bd e3fc 313e
00000010: 724e c43d 270a bebc d70a 813d eed1 b1bd
00000020: 93b1 11bd 7ade 2d3e 61f2 613e 106b 18be
00000030: 2fec 923d a48e eabc c392 8e3d 4285 2a3e
00000040: 2c7b 99bd d4aa 04be a11e 22bd 91d1 e73d
00000050: 7188 77bd 6c13 a3bd b801 febd 83b5 8d3d
00000060: e2e8 453b d12a 013d 1196 b73b f045 a73d
00000070: 431a 373e 02e0 9ebd e5ab ff3d b44e cf3d
00000080: 3b37 9e3d 44f7 ad3b e079 86bd 2298 5ebd
00000090: 16ea 4bbd df48 0ebd 4cb8 993d 5212 8d3d
000000a0: 51fe 56bd 45e9 13be 67c8 143e 4b74 773d
000000b0: 0b26 d1bb 6351 1c3e d8ca 9fbd 4487 b83d
000000c0: 46d0 b7bc 47bf be3d 36c2 10be 6bfe 273d
000000d0: d899 833c 6d78 1abe 8fb9 e03d 8ebb 0bbe
000000e0: a3c4 873d d18b 833c e4f5 18be c371 603e
000000f0: d267 0dbd 9475 bfbc c20f ec3c 8393 0f3e
00000100: 75bd eebd 48dc 38bd c9c0 09bc a773 8dbd
00000110: cde3 ab3a 27fd 22be 7c0a af3d 13ec 913d
00000120: 3814 b73d dccf b5bd cdc0 10bd a622 173c
00000130: 598f f8bd 576a 0cbd e8ae e6bd 2e1a 3fbe
00000140: 87cc 123d 364b 62bd f37a 0c3d bf89 2e3d
00000150: f06e 3bbe cf3a 2abd 32f7 d03d e8d6 f43d
00000160: f8cb e9bd 537c fc3d 6a1f 25bd 9421 aabd
00000170: 95c7 b8bc fbb7 8d3d 9bdb e3bd 677a cc3d
00000180: cd76 ef3d 5202 383d fae6 e03d f00f 47bd
00000190: 8d90 00bd 210c e73d edfa 13bc 7bfa bb3d
000001a0: ef48 9ebd 2d73 f1bd b84b de3b ab5d a93d
000001b0: 898d 0d3e 19b1 a6bc 451f da3d 6ac6 80bb
000001c0: 986a 133e 230a 463d 0094 bc3d 3f1c cabc
000001d0: dbe1 55bd 2cff 9dbd 045c 83bd 3b2b 1b3e
000001e0: 1d4d 12be 1d4e 6bbb 26b0 b63d 3595 f03d
000001f0: 1508 ad3d f55a 26be ca9a b73d d416 463d
00000200: a5c5 37be 1e98 1cbe b406 30be 8b25 30bd
00000210: 1137 a4bd 4282 db3c 485e 783c cc25 f9bd
00000220: d523 99bb 06ac bfbc b193 293e d8b3 36bd
00000230: 151d 493d 5b6d be3d 5210 073e b51a b7bc
00000240: 1fa4 09be 0f31 07be 237e c13d 2fa8 8f3d
00000250: d9e3 c43b 9ede a2bd de8a d73d 0c96 c43d
00000260: 511a 0abd 5851 033e 26db ac3b 2300 343c
00000270: 0a1d b8bb 3dd1 6fbd 939e d93c 7aeb 303b
00000280: 83ff 993d 5e15 32bd b242 cd3d b003 22bd
00000290: f868 6a3d 0e03 333e 8e21 26be 7a26 5abd
000002a0: 4bde 84bd 8141 11be 4ff9 c0bc 43e8 b63d
000002b0: 2ceb fd3d 55e5 673d 905d a8bd 1b8c d0bd
000002c0: e265 8f3c c974 203d a6db ca3d be37 10be
000002d0: 5f0f 783e a32d 423c 72d3 203e 8cc0 7c3e
000002e0: 3f38 073e 15d6 a7bd 385e 4abd f45b 103e
000002f0: c96d 3cbd a33d 6e3d 621e 7c3a 9b20 a3bd
00000300: 51c9 85bd 1568 353d eb14 5cbd d021 d63c
00000310: e4d8 edbd efb4 92bd 65af b1bd 00fc 6bbc
00000320: bfe2 a13d 1a87 e13d 711e 023e be10 c23d
00000330: 6e6a 08be 5df0 3d3c dd2b c9bc e0fb a5bd
00000340: dd9a 9ebd 7a26 3cbd 7903 233c bfe3 0c3d
00000350: 4701 94bb 876a 723c 87ae 873d 7a39 bebd
00000360: 0841 ab3d b0c0 0bbd 7c20 c63d 5075 53be
00000370: 0430 8b3d c6cf a1bd 9b5c 19be 2449 7f3d
00000380: 545e 763c 70e6 f2bd 33d1 f8bd 5cf2 ebbc
00000390: f64f 87bd 215f b73d dca7 b7bd 2b1b 31bd
000003a0: 606d b93c 962b 643d f74b a83d c42f c93d
000003b0: 60d9 77bd 49c7 b13a 7648 ff3d 8e9b d3bc
000003c0: 3b3e 4b3d 1c96 573e 29f4 89bd 7f5c 7e3a
000003d0: 9306 e43d 49e0 bd3d 8f25 a6bd bbd3 b93c
000003e0: c2d0 b1bd b2b8 993d f11a eebd debe 9a3d
000003f0: a547 643d 4395 b43d 25da 293d 8129 aabc

conv2.bias f4 [12]
-0.08845309 0.082971305 -0.0058160303 -0.14330323 0.045431115 -0.09893194 -0.015796259 -0.00862222
-0.05008292 -0.023300653 0.026235608 -0.09083374
00000000: e526 b5bd dcec a93d 6694 bebb 15be 12be
00000010: fa15 3a3d d49c cabd 2867 81bc 3644 0dbc
00000020: bf23 4dbd 03e1 bebc 0fec d63c 0a07 babd

conv3.weight f4 [16, 12, 3, 3]
-0.01934358 -0.049964443 0.0065083583 -0.097866684 -0.011031359 0.12446162 -0.0771514 -0.0438202
0.08277285 0.028263686 0.09600759 0.10573413 -0.04913674 0.080114946 -0.052221317 -0.052792203
0.08922707 0.07617041 0.02340439 0.002887399 0.03910652 -0.08551442 0.058049206 -0.0049777837
-0.10219127 0.012106219 0.0997484 -0.0088047935 -0.105824925 -0.022823727 0.05777433 -0.042028174
-0.018730672 0.06456455 -0.057894897 0.1004068 0.13664114 0.034621242 -0.17523642 -0.069972575
-0.024417015 -0.029613413 -0.0068793306 0.029561728 -0.14746131 -0.034069587 -0.028565343 0.10545731
-0.088439725 -0.033481877 0.06889888 -0.09106043 -0.029396834 0.14993222 0.1102675 0.124979205
-0.06668011 -0.084600836 0.03478505 0.06924777 -0.0016058902 -0.050424073 0.016192429 0.031393956
-0.139494 0.059201777 -0.08537789 0.081847556 -0.028434101 -0.06748929 -0.0716867 -0.19177431
0.005261807 -0.033769447 0.004408102 0.06619485 0.023469476 -0.033878688 -0.08547356 -0.09068869
0.0003874139 -0.027484763 -0.05726569 -0.06396893 -0.019258691 -0.1250477 0.07896246 -0.0026516528
-0.052528776 -0.018656595 -0.09245628 0.011028032 0.12936038 -0.029851088 0.013060035 0.0032837854
-0.08306004 -0.03172987 0.08005777 0.014272886 0.098956846 0.021998232 -0.055457335 -0.051741768
-0.034753542 -0.0027390227 -0.090660326 0.09915071 -0.044731658 -0.09833294 0.059284467 -0.08705546
-0.025112445 0.1122857 0.083889805 0.021747576 -0.03381917 0.089407705 0.032492846 0.039981935
-0.0405814 -0.044779535 -0.09072141 0.11585292 -0.06736986 0.00050590676 -0.024892397 -0.003739658
0.06528444 -0.04151642 0.12008381 0.099578574 0.028103007 0.060908318 -0.072463475 -0.0061652646
-0.029778682 0.091642365 -0.0072976965 -0.0043104473 -0.057473898 -0.023400694 0.038151186 -0.09136255
0.02821773 -0.01792609 0.0047151158 0.07933849 -0.040679984 -0.07474054 -0.07984769 -0.018457076
-0.08197466 -0.09447019 0.024155913 -0.015156598 -0.025107656 0.12009838 0.06221544 0.020078596
0.039866444 -0.07064095 -0.08085458 0.026807293 0.08059827 -0.07061276 0.016827142 -0.06942093
-0.19261204 -0.05254317 0.07261862 0.045776878 -0.023358304 0.025275689 -0.07183806 -0.0061219567
-0.012559484 -0.086501725 -0.10647426 -0.043124307 0.09666242 0.056475054 0.060244452 -0.069735415
-0.024538198 -0.07307308 -0.0031451024 -0.14117233 0.013957502 -0.09883749 -0.070619054 -0.056642603
0.037766643 0.002235433 -0.026956894 0.038016807 -0.019002909 0.0672131 -0.054437913 -0.03832938
0.016204255 0.09876799 0.071927465 0.094141036 0.0006715714 0.071340635 0.08944062 -0.005683722
-0.04023781 0.08057135 0.070243694 0.13990423 -0.01492387 -0.053133853 0.05568194 -0.08847853
-0.036010653 0.039689787 0.09937413 0.08133013 0.06696085 -0.011797592 -0.008578048 -0.06622532
-0.07120067 -0.011216107 0.076817706 0.039798554 -0.014156828 0.012022158 0.0064353333 -0.07948198
0.0032310642 -0.033938423 -0.04747551 0.077098206 -0.017969519 0.062410258 -0.055260967 0.009169599
0.07659219 -0.13288233 0.05325158 0.039812107 0.0066369185 -0.012674712 0.059520315 -0.03928538
-0.030199604 -0.046468124 -0.07209675 0.05155203 0.026571788 -0.1500567 -0.08222327 -0.0028072002
00000000: 6d76 9ebc 84a7 4cbd 1144 d53b 546e c8bd
00000010: e0bc 34bc bce5 fe3d 8e01 9ebd cf7c 33bd
00000020: d084 a93d 3f89 e73c a19f c43d 238b d83d
00000030: 9b43 49bd 4e13 a43d 05e6 55bd a33c 58bd
00000040: afbc b63d 3bff 9b3d 90ba bf3c 843a 3d3b
00000050: 292e 203d 2f22 afbd 01c5 6d3d ad1c a3bb
00000060: a849 d1bd 2a59 463c e448 cc3d fb41 10bc
00000070: bdba d8bd d3f8 babc c7a4 6c3d bc25 2cbd
00000080: 1171 99bc 6b3a 843d 3323 6dbd 15a2 cd3d
00000090: a8eb 0b3e 01cf 0d3d 2d71 33be c84d 8fbd
000000a0: 3106 c8bc d497 f2bc 026c e1bb 702b f23c
000000b0: 1900 17be 8d8c 0bbd de01 eabc 01fa d73d
000000c0: e31f b5bd 4b24 09bd db1a 8d3d e47d babd
000000d0: a1d1 f0bc d587 193e edd3 e13d 19f5 ff3d
000000e0: 958f 88bd 3443 adbd c57a 0e3d c6d1 8d3d
000000f0: bc7c d2ba 7989 4ebd fca5 843c f396 003d
00000100: 84d7 0ebe 907d 723d 9ada aebd b19f a73d
00000110: a2ee e8bc d337 8abd 7ad0 92bd 7c60 44be
00000120: 3c6b ac3b d551 0abd d771 903b 2a91 873d
00000130: 0f43 c03c 61c4 0abd c30c afbd feba b9bd
00000140: d01d cb39 ba27 e1bc 6e8f 6abd 2402 83bd
00000150: 67c4 9dbc 810c 00be 12b7 a13d 5ac7 2dbb
00000160: 6a28 57bd b7d5 98bc b859 bdbd ebae 343c
00000170: 0c77 043e 458a f4bc c2f9 553c c734 573b
00000180: 621b aabd 2ef7 01bd 54f5 a33d d3d8 693c
00000190: e3a9 ca3d a335 b43c 3b27 63bd 2def 53bd
000001a0: bb59 0ebd 2d81 33bb 1fac b9bd 870f cb3d
000001b0: 8b38 37bd c862 c9bd 45d4 723d 224a b2bd
000001c0: 9db8 cdbc 0cf6 e53d 6bce ab3d f927 b23c
000001d0: f885 0abd 631b b73d 3817 053d 19c4 233d
000001e0: af38 26bd bf6a 37bd 26cc b9bd 4c44 ed3d
000001f0: 36f9 89bd d49e 043a 24eb cbbc 0d15 75bb
00000200: d9b3 853d 1f0d 2abd 80ee f53d daef cb3d
00000210: 4738 e63c 007b 793d bb67 94bd fd05 cabb
00000220: 6cf2 f3bc feae bb3d 8421 efbb a73e 8dbb
00000230: c069 6bbd d0b2 bfbc 6b44 1c3d 4a1c bbbd
00000240: de28 e73c bcd9 92bc 4281 9a3b 387c a23d
00000250: 0ea0 26bd 9111 99bd 3087 a3bd 4b33 97bc
00000260: 55e2 a7bd 9679 c1bd 9fe2 c53c 6153 78bc
00000270: 92ae cdbc 24f6 f53d 9ed5 7e3d de7b a43c
00000280: ff4a 233d 34ac 90bd 1697 a5bd f89a db3c
00000290: b510 a53d 6c9d 90bd 13d9 893c 902c 8ebd
000002a0: 173c 45be 8237 57bd 12b9 943d 8980 3b3d
000002b0: ea59 bfbc f60e cf3c d51f 93bd b29a c8bb
000002c0: 4bc6 4dbc d127 b1bd 2d0f dabd 1da3 30bd
000002d0: f2f6 c53d 6352 673d e3c2 763d 71d1 8ebd
000002e0: 5504 c9bc 57a7 95bd 101e 4ebb 7b8f 10be
000002f0: 02ae 643c 4f6b cabd b9a0 90bd 1302 68bd
00000300: 32b1 1a3d 5880 123b b4d4 dcbc 83b7 1b3d
00000310: fdab 9bbc 06a7 893d 4afa 5ebd 45ff 1cbd
00000320: c9be 843c df46 ca3d b54e 933d 04cd c03d
00000330: 650c 303a 0a1b 923d a52c b73d 843e babb
00000340: 67d0 24bd 9802 a53d eddb 8f3d 0e43 0f3e
00000350: 3f83 74bc e2a2 59bd bf12 643d 3b34 b5bd
00000360: e87f 13bd c291 223d aa84 cb3d 6990 a63d
00000370: c522 893d b04a 41bc f18a 0cbc 24a1 87bd
00000380: a8d1 91bd c3c3 37bc 9a52 9d3d cf03 233d
00000390: 0af2 67bc 96f8 443c 7ddf d23b 73c7 a2bd
000003a0: 43c0 533b 0403 0bbd ae75 42bd aae5 9d3d
000003b0: d034 93bc e6a1 7f3d 5359 62bd 163c 163c
000003c0: 5edc 9c3d 4e12 08be 541e 5a3d 0512 233d
000003d0: 827a d93b 98a9 4fbc 93cb 733d b5e9 20bd
000003e0: 2965 f7bc 5c55 3ebd 76a7 93bd 3928 533d
000003f0: 14ad d93c 77a8 19be ac64 a8bd 01f9 37bb

conv3.bias f4 [16]
-0.026681608 -0.065386325 -0.11266859 0.08447532 0.07932028 -0.031111846 -0.06818385 0.012648512
-0.098623976 -0.030656705 0.056368634 -0.00237542 0.00089622714 -0.052578714 0.0724628 -0.0403327
00000000: 6393 dabc 44e9 85bd cabe e6bd 6601 ad3d
00000010: ac72 a23d 45de febc f9a3 8bbd b43b 4f3c
00000020: 5efb c9bd c523 fbbc cce2 663d efac 1bbb
00000030: c9f0 6a3a c75c 57bd 6067 943d e733 25bd

conv4.weight f4 [20, 16, 3, 3]
0.043483496 -0.016336745 0.032547757 0.05371022 -0.020786121 0.08442762 -0.0863871 0.033590768
0.08987007 -0.061510082 -0.13504983 0.027035793 -0.044923197 -0.016264506 0.048704714 -0.0023882084
0.018923746 -0.01175255 -0.07043871 0.047867104 0.033748407 0.03985004 -0.066283196 -0.017272761
0.003817061 -0.07657368 0.03144932 -0.06630946 -0.019354574 0.043618493 0.04500386 0.045460496
-0.051367447 0.04727923 -0.02111547 -0.030039234 -0.06721935 -0.07137625 0.049506046 0.0071931393
0.055779744 0.094406806 -0.048897732 -0.025934337 0.06509264 -0.108149305 -0.057924386 -0.031997915
-0.002282431 0.00412143 0.099996336 -0.08740406 0.057486992 -0.08954025 0.014511563 0.029449364
0.072600126 0.013050067 0.050411012 -0.024939558 -0.043044716 -0.026102835 0.0028660975 0.11914361
-0.11280779 -0.07036445 0.14154932 -0.13147904 0.047438584 0.060103342 0.03617066 -0.019216975
0.05980031 0.04950074 -0.04732033 -0.0072003515 -0.09882373 0.04333235 -0.046211895 -0.08249042
0.012360982 -0.02790996 0.084534004 -0.057841137 -0.09559602 0.01148949 0.038692776 -0.110449575
0.034835745 -0.027396178 0.09883867 -0.11117656 -0.023001427 0.08149879 0.014700725 -0.042398456
0.07599638 -0.034746785 0.060916863 -0.06502376 0.07573691 0.063752085 -0.06457234 -0.018320264
-0.013325094 -0.10795194 0.07236792 0.06292332 -0.194818 -0.06953302 -0.05710963 0.00010237813
0.0012797153 -0.015994262 0.060595598 0.043669865 -0.033034537 0.06099574 -0.08596482 0.06904485
-0.054473553 -0.051345404 -0.025067663 0.06834762 -0.06921991 0.059385914 -0.13795158 -0.10476496
0.03355849 0.019438585 0.013986894 -0.0036066389 -0.09498499 -0.036721583 0.09423768 0.01880971
-0.0067272545 0.060229335 -0.063708305 -0.11662401 -0.1076276 0.07273151 0.018571805 0.0808706
-0.04019121 0.023982232 -0.11655642 0.12021332 -0.037294995 -0.073092744 -0.043891564 0.03968418
-0.050885756 -0.01692903 -0.033090718 0.047772266 0.0028094428 0.124721445 -0.03643621 -0.06640289
-0.03551364 0.03315875 -0.05750425 -0.038333584 -0.105229534 -0.040411394 0.045992445 0.03426235
0.0012651336 0.0068020853 -0.008343241 0.15016901 -0.065952815 0.031520538 -0.014764259 -0.054842122
-0.07166341 0.088322714 0.0039783097 -0.04061917 -0.00833852 0.086428665 -0.05778024 -0.01785558
0.063707285 -0.03820268 0.023396056 0.0025687374 -0.047925856 0.06899635 0.010207753 -0.060013924
0.098772086 -0.013718145 0.07258782 -0.09024378 -0.10523271 -0.016440714 -0.004577905 0.0019041487
-0.038316783 0.03622323 -0.0848886 -0.04479403 0.00047796508 0.089009985 0.07053315 -0.03798129
-0.0240534 -0.008575675 -0.04973702 -0.01179658 0.06735907 -0.03439888 0.07013404 0.076904766
-0.085147865 -0.02890505 0.034740273 0.034169864 0.07568438 -0.05533171 -0.021473743 0.0149725145
-0.0726208 -0.06624478 0.06860789 0.03450315 0.030471181 -0.034051903 -0.06428473 0.061147712
0.0039739134 -0.046251807 -0.03586293 -0.0424495 0.025293883 0.0070035923 0.05732204 0.12924777
-0.05302094 -0.034016006 -0.044017695 -0.057789836 0.08785317 -0.06695307 0.03802682 -0.061287664
-0.06112678 0.010466139 0.0041445456 -0.034550305 -0.12402246 0.08768336 -0.06582429 -0.06132459
00000000: c01b 323d a3d4 85bc cc50 053d 3fff 5b3d
00000010: a847 aabc 63e8 ac3d b8eb b0bd 7996 093d
00000020: cd0d b83d fff1 7bbd 814a 0abe 2b7a dd3c
00000030: 6301 38bd 243d 85bc 987e 473d 7d83 1cbb
00000040: f905 9b3c c48d 40bc 2c42 90bd 4c10 443d
00000050: c53b 0a3d cc39 233d 7cbf 87bd 9b7f 8dbc
00000060: a827 7a3b a9d2 9cbd 01d1 003d 41cd 87bd
00000070: 7c8d 9ebc 4ea9 323d f855 383d c934 3a3d
00000080: ac66 52bd dea7 413d 5afa acbc d714 f6bc
00000090: 4caa 89bd b62d 92bd dac6 4a3d 6db4 eb3b
000000a0: 4d79 643d 5b58 c13d fd48 48bd 3f74 d4bc
000000b0: 4a4f 853d 627d ddbd 1f42 6dbd 3f10 03bd
000000c0: d794 15bb 100d 873b e1ca cc3d e600 b3bd
000000d0: 7b77 6b3d e160 b7bd e8c1 6d3c cb3f f13c
000000e0: 60af 943d f3cf 553c c77b 4e3d 0b4e ccbc
000000f0: a84f 30bd 9dd5 d5bc 23d5 3b3b 9101 f43d
00000100: c507 e7bd 3d1b 90bd 4ef2 103e 71a2 06be
00000110: f64e 423d ec2e 763d b027 143d eb6c 9dbc
00000120: 2bf1 743d 4ac1 4a3d f6d2 41bd edf0 ebbb
00000130: 1964 cabd 437d 313d af48 3dbd bdf0 a8bd
00000140: b785 4a3c 6ea3 e4bc 2a20 ad3d d4ea 6cbd
00000150: d9c7 c3bd 6a3e 3c3c 517c 1e3d 6333 e2bd
00000160: edaf 0e3d f36d e0bc ee6b ca3d 89b0 e3bd
00000170: 7d6d bcbc d6e8 a63d 4fdb 703c 01aa 2dbd
00000180: fda3 9b3d a552 0ebd f683 793d 2d2b 85bd
00000190: f41b 9b3d 7490 823d 813e 84bd 6114 96bc
000001a0: 7f51 5abc e815 ddbd a235 943d f1dd 803d
000001b0: 5f7e 47be 5467 8ebd caeb 69bd d7b3 d638
000001c0: 1fbc a73a 6606 83bc 1733 783d 2cdf 323d
000001d0: 394f 07bd abd6 793d 530e b0bd 6367 8d3d
000001e0: a91f 5fbd 8f4f 52bd b35a cdbc d6f9 8b3d
000001f0: 2bc3 8dbd a53e 733d 2e43 0dbe 038f d6bd
00000200: a174 093d ab3d 9f3c 4929 653c 5c5d 6cbb
00000210: 7e87 c2bd 5f69 16bd afff c03d d216 9a3c
00000220: 4d70 dcbb 09b3 763d 8079 82bd 92d8 eebd
00000230: dc6b dcbd 42f4 943d e623 983c 7c9f a53d
00000240: 8a9f 24bd 6376 c43c 22b5 eebd 6732 f63d
00000250: a3c2 18bd a6b1 95bd a4c7 33bd e18b 223d
00000260: 956d 50bd c0ae 8abc 228a 07bd daac 433d
00000270: a11e 383b f56d ff3d 233e 15bd 3dfe 87bd
00000280: c076 11bd 78d1 073d 9489 6bbd ad03 1dbd
00000290: 9582 d7bd 6b86 25bd 9362 3c3d ae56 0c3d
000002a0: d7d2 a53a 07e4 de3b 17b2 08bc e8c5 193e
000002b0: 4512 87bd ae1b 013d cae5 71bc 22a2 60bd
000002c0: 44c4 92bd 8ae2 b43d 7b5c 823b 4960 26bd
000002d0: 4a9e 08bc 8301 b13d f9aa 6cbd de45 92bc
000002e0: f778 823d 6a7a 1cbd 16a9 bf3c 4358 283b
000002f0: e74d 44bd f54d 8d3d 6b3e 273c 29d1 75bd
00000300: 0549 ca3d 12c2 60bc eca8 943d bbd1 b8bd
00000310: 3f84 d7bd adae 86bc 4002 96bb a194 f93a
00000320: 0ff2 1cbd cf5e 143d 13da adbd f279 37bd
00000330: 6397 fa39 de4a b63d af73 903d 4592 1bbd
00000340: a30b c5bc fd80 0cbc 0cb9 4bbd 7146 41bc
00000350: 8df3 893d d7e5 0cbd 70a2 8f3d 3f80 9d3d
00000360: 0162 aebd 49ca ecbc d14b 0e3d b3f5 0b3d
00000370: 6a00 9b3d 81a3 62bd b4e9 afbc 474f 753c
00000380: 37ba 94bd 58ab 87bd 4b82 8c3d 2d53 0d3d
00000390: b39e f93c 027a 0bbd b6a7 83bd 0676 7a3d
000003a0: 9a37 823b 8972 3dbd 02e5 12bd 87df 2dbd
000003b0: 1e35 cf3c 647e e53b 84ca 6a3d 8759 043e
000003c0: 7c2c 59bd 5e54 0bbd e64b 34bd 09b5 6cbd
000003d0: 5dec b33d b11e 89bd 03c2 1b3d c608 7bbd
000003e0: 1360 7abd 2b7a 2b3c f8ce 873b 9f84 0dbd
000003f0: 7dff fdbd 5593 b33d e3ce 86bd 7e2f 7bbd

conv4.bias f4 [20]
-0.03991076 0.017350456 -0.06897795 -0.07227559 0.02046909 0.045128454 0.03913144 -0.07998902
-0.0142567055 -0.07558178 -0.0970553 -0.034027413 -0.0578926 0.004166873 -0.06385989 0.019404164
0.0020194107 -0.030537823 0.030431228 -0.039672535
00000000: 7779 23bd 8b22 8e3c 5044 8dbd 3905 94bd
00000010: cbae a73c 9dd8 383d 4a48 203d 49d1 a3bd
00000020: f594 69bc 9fca 9abd eec4 c6bd 5460 0bbd
00000030: ca20 6dbd 448a 883b f9c8 82bd 7bf5 9e3c
00000040: 1758 043b 752a fabc e94a f93c ab7f 22bd

fc1.weight f4 [240, 720]
0.005483395 -0.016362585 -0.01891974 -0.014414707 -0.01799908 -0.02130174 0.020674113 0.0118956
0.030235259 -0.019868907 -0.02630887 0.023504877 -0.060936622 -0.00795127 -0.00879156 -0.0072628562
0.07055261 0.039272122 -0.07227529 -0.02139469 0.08303244 0.04711432 -0.018223291 0.0067682876
-0.014160006 -0.00022412538 0.03685602 0.036955558 0.0012985552 0.012567277 0.07466703 -0.01437896
-0.015325569 0.037527304 -0.010296304 0.001521666 0.02198801 -0.004511345 -0.05746604 -0.0041822
0.02969338 -0.025320934 -0.031163841 0.00068125234 -0.055183493 -0.013999215 0.051778052 -0.05778005
-0.008979912 0.018116271 -0.0048697316 0.015714848 -0.12493045 -0.0589648 0.020692943 0.021320041
-0.05818119 -0.052193448 0.011426872 -0.07653635 -0.054732855 -0.03018803 0.030510554 -0.016117655
0.016693838 -0.017914748 0.03712645 -0.041645125 -0.06343769 0.019247217 0.055665452 -0.057997547
-0.012092429 -0.037174217 0.03373923 -0.039557405 0.027085569 0.017882206 0.011103284 -0.03301702
-0.002911567 0.03744651 0.013280109 0.00011172687 0.004374038 0.029361788 0.068708375 0.010672382
-0.009165096 0.080246106 -0.050092604 0.033725057 -0.021873197 0.007831428 0.028534923 0.04483969
-0.056064166 -0.032645524 -0.022729477 -0.033804882 -0.038790997 -0.017610857 -0.0023907218 0.0047545535
0.018527914 -0.030060723 0.06550852 -0.011230069 0.013523674 0.029285407 0.00737049 -0.07646039
0.0067009507 -0.046720967 -0.015740177 0.04567365 0.0026588708 -0.01862678 0.0073014167 -0.009810223
-0.008994492 -0.040641066 -0.07128785 -0.047887817 0.018850025 0.045252256 0.057052948 0.007293159
-0.032662492 0.0133586405 -0.002171039 -0.005033425 0.06591007 -0.0007499389 -0.0022283932 0.026541714
-0.022974567 0.0113881705 -0.0058167037 -0.04921271 -0.0024077846 -0.00803351 -0.010981005 0.0394431
-0.0025054312 -0.017713943 -0.014580384 -0.01587374 0.003679674 0.035942122 -0.0015628167 0.037388135
0.0105244415 0.019172858 -0.012439992 0.03691858 0.02820584 0.05916026 0.032966703 0.023059001
-0.011509838 -0.028897448 0.0014986235 -0.02533667 -0.024883425 -0.029813178 -0.05071146 -0.015806088
-0.014237558 -0.0005278762 0.03123354 -0.021306641 -0.0023664152 0.06610618 0.022615133 0.017396297
0.0042080604 0.014266018 0.030118804 -0.004657993 -0.011682561 0.03736297 0.0010426237 0.040821623
-0.015964031 -0.019733705 0.010656734 0.06652587 0.015354059 0.01456984 -0.04245677 -0.0122828195
0.0067578214 0.024366623 0.03140506 0.009577466 -0.023968952 0.053957663 0.011325339 -0.041546054
0.0009838066 0.01198896 -0.05155152 -0.0017076578 0.003429146 0.030997023 -0.0054311566 0.023375867
0.010471244 0.013035914 -0.018507853 -0.005467548 0.035450257 -0.0017963885 0.013723979 -0.00022518214
0.0026002731 -0.00096039864 -0.009448754 -0.007075653 0.008387676 0.0045344187 0.020241352 -0.0056749713
-0.024619168 0.01380412 -0.02693793 0.022205917 0.01661212 0.0018122735 0.029275678 0.017408824
0.0065454436 0.053902116 0.0035859772 0.00555056 -0.05094508 -0.056076262 0.055848237 -0.035803907
-0.03961797 -0.067738265 -0.023383457 0.02907442 -0.004188535 -0.004533752 0.054278888 -0.010132086
0.032140464 -0.02048193 0.019416329 -0.017329838 -0.03661408 0.016221441 -0.052892435 -0.007350307
00000000: 0dae b33b d40a 86bc 92fd 9abc aa2b 6cbc
00000010: ce72 93bc fd80 aebc c25c a93c c3e5 423c
00000020: efaf f73c 1ec4 a2bc b385 d7bc 4d8d c03c
00000030: ae98 79bd 0b46 02bc 7a0a 10bc 41fd edbb
00000040: e37d 903d cedb 203d 1105 94bd eb43 afbc
00000050: e90c aa3d f2fa 403d 0349 95bc 83c8 dd3b
00000060: 5fff 67bc 3303 6bb9 57f6 163d b65e 173d
00000070: 4834 aa3a fbe6 4d3c 07eb 983d bb95 6bbc
00000080: 1818 7bbc 3bb6 193d d4b1 28bc a372 c73a
00000090: 3320 b43c e8d3 93bb 8361 6bbd d60a 89bb
000000a0: 883f f33c d96d cfbc 504b ffbc 1296 323a
000000b0: 1608 62bd f75c 65bc 3915 543d c6aa 6cbd
000000c0: 7b20 13bc 9368 943c 4592 9fbb 6dbc 803c
000000d0: 89db ffbd 1385 71bd 3f84 a93c 5ea7 ae3c
000000e0: 664f 6ebd ccc8 55bd c637 3b3c 17bf 9cbd
000000f0: 8f2f 60bd e34c f7bc 45f1 f93c 2c09 84bc
00000100: 84c1 883c f3c1 92bc e811 183d 1494 2abd
00000110: 9feb 81bd 57ac 9d3c 7501 643d d68e 6dbd
00000120: 531f 46bc fe43 18bd 2632 0a3d f206 22bd
00000130: 8ee2 dd3c b47d 923c 8cea 353c db3c 07bd
00000140: fdcf 3ebb 8361 193d d094 593c e84e ea38
00000150: 1754 8f3b 2288 f03c fab6 8c3d 37db 2e3c
00000160: 3329 16bc 1258 a43d e72d 4dbd 4923 0a3d
00000170: 6b2f b3bc 644f 003c 12c2 e93c d3a9 373d
00000180: 8aa3 65bd 50b7 05bd 2b33 babc fd76 0abd
00000190: 4fe3 1ebd a544 90bc a8ad 1cbb 16cc 9b3b
000001a0: dac7 973c e841 f6bc 5529 863d 53fe 37bc
000001b0: 6692 5d3c f3e7 ef3c 2784 f13b 4497 9cbd
000001c0: a693 db3b 7c5e 3fbd 8bf1 80bc 4b14 3b3d
000001d0: 7340 2e3b 3097 98bc b940 ef3b 0fbb 20bc
000001e0: a25d 13bc 3f77 26bd 5dff 91bd 0426 44bd
000001f0: 5e6b 9a3c 6e5a 393d 5ab0 693d 74fb ee3b
00000200: 1bc9 05bd 33de 5a3c fe47 0ebb 6eef a4bb
00000210: dcfb 863d 8c97 44ba 3c0a 12bb 026e d93c
00000220: 2935 bcbc 7395 3a3c 0c9a bebb 4493 49bd
00000230: eccb 1dbb fc9e 03bc ace9 33bc 178f 213d
00000240: 2932 24bb d51c 91bc 90e2 6ebc a509 82bc
00000250: af26 713b 0c38 133d 6dd7 ccba 4d24 193d
00000260: b56e 2c3c 6610 9d3c 1cd1 4bbc f037 173d
00000270: ef0f e73c 0752 723d 1808 073d 3be6 bc3c
00000280: c293 3cbc 57ba ecbc 766d c43a d98e cfbc
00000290: 53d8 cbbc c43a f4bc d2b6 4fbd c57b 81bc
000002a0: a544 69bc 2c61 0aba 7bdd ff3c 448b aebc
000002b0: dc15 1bbb ad62 873d 5f43 b93c ae82 8e3c
000002c0: c5e3 893b 04bc 693c b6bb f63c 14a2 98bb
000002d0: 3668 3fbc ea09 193d a5a8 883a 9334 273d
000002e0: 00c7 82bc 94a8 a1bc 9599 2e3c b73e 883d
000002f0: 978f 7b3c 57b6 6e3c 26e7 2dbd e13d 49bc
00000300: b770 dd3b 839c c73c 98a2 003d ceea 1c3c
00000310: 895a c4bc b602 5d3d ea8d 393c 322c 2abd
00000320: 12f3 803a 586d 443c b027 53bd 7dd3 dfba
00000330: 86bb 603b 78ed fd3c d8f7 b1bb bf7e bf3c
00000340: 958f 2b3c 9694 553c c89d 97bc 1e29 b3bb
00000350: 4a34 113d cc74 ebba 8ada 603c df1e 6cb9
00000360: 5869 2a3b 43c3 7bba f2ce 1abc e1da e7bb
00000370: 776c 093c 7695 943b 31d1 a53c 1cf5 b9bb
00000380: 23ae c9bc ad2a 623c efac dcbc 2fe9 b53c
00000390: 2416 883c cf89 ed3a 8cd3 ef3c f39c 8e3c
000003a0: 297b d63b 77c8 5c3d b702 6b3b 79e1 b53b
000003b0: caab 50bd 39b0 65bd 1fc1 643d 1ea7 12bd
000003c0: 7446 22bd 5cba 8abd aa8e bfbc 7a2d ee3c
000003d0: fa3f 89bb de8f 94bb 8a53 5e3d 0d01 26bc
000003e0: b8a5 033d b8c9 a7bc fe0e 9f3c 4ef7 8dbc
000003f0: a5f8 15bd d4e2 843c bda5 58bd d8da f0bb

fc1.bias f4 [240]
-0.03309393 0.025261749 0.018501205 -0.016173417 0.014339821 -0.018162329 -0.02064316 -0.03540675
-0.014758526 0.019730894 -0.041674122 -0.028839512 -0.005537797 0.022472806 0.021690223 -0.0062831966
-0.022462862 -0.009372391 -0.012002266 0.009949656 -0.032078158 -0.008367052 0.010803217 -0.003127708
0.018432872 -0.006279454 0.008625199 -0.008109489 -0.03440227 0.03158749 -0.0012770738 0.018633919
-0.0022467067 -0.039975494 -0.0018544566 0.0058322274 -0.028902264 -0.018317979 -0.008930993 -0.008814101
-0.016962465 -0.03235237 -0.003755908 -0.030582204 0.018732082 -0.021612009 -0.03945761 0.021538246
-0.018072128 0.022328522 0.012063329 -0.028157625 -0.010342861 0.005498775 -0.046838265 0.0032682747
0.004546045 -0.010787212 0.026958566 -0.00058514357 -0.015330692 0.0041262903 -0.01932659 -0.030190872
-0.007341805 -0.03356889 -0.039500773 -0.011189006 0.009943999 -0.021287512 0.0028811079 0.011634896
0.012780721 0.01485146 0.0123543795 0.02456526 -0.0046692826 0.012940851 0.002476529 -0.033788573
0.008959197 -0.025162106 0.030157186 0.035922874 -0.017971039 0.013739429 -0.0024821549 0.011002563
0.032217454 -0.004399652 -0.027333919 -0.0048989276 0.019861767 0.038968865 0.032139845 0.0024589053
0.03188978 0.032112114 0.0038611998 -0.04297636 -0.011019692 0.00971771 -0.03489223 -0.00038258705
0.02122858 -0.023812216 -0.010999501 -0.027720312 -0.0334563 0.0014812036 0.017842002 -0.015464472
-0.02147846 -0.020495577 -0.022345956 -0.0056154313 0.029334366 -0.042964797 0.0056527928 -0.017299626
-0.040587638 0.008725556 0.014429486 -0.029935224 0.022544108 0.008675761 -0.0058637853 -0.0055599594
2.7340682e-05 -0.012736303 0.025515834 -0.012695473 0.0055554914 -0.015468959 -0.04223077 0.011213926
0.04007191 -0.028273178 0.014772567 0.006775379 0.01866207 -0.043163057 0.00885497 0.00477771
-0.024986431 -0.02650783 0.013469716 0.019531973 -0.02356534 -0.041560672 -0.028285796 -0.031825624
-0.031854834 0.027588952 0.010359442 -0.029172154 0.0023363219 -0.032189418 0.00967154 0.007483953
-0.023615722 -0.01296293 0.0005564981 0.019424235 0.015286435 -0.022279855 -0.028818553 -0.028628524
-0.0041829664 -0.020075748 -0.02624622 -0.04127726 -0.03913868 0.018156052 -0.025101934 -0.012305509
0.0038460002 0.01705896 0.009248624 0.02561651 0.0059259073 -0.012062989 -0.0046782135 0.015239172
-0.02903526 -0.012617969 -0.019011969 0.0075598154 0.0008728059 -0.01467225 -0.039946634 0.018007409
-0.029034236 -0.017664932 -0.0004151909 -0.030869653 0.034262016 0.026644709 0.027261652 0.0005257698
-0.022160295 0.0066654775 0.0073980396 0.01479964 0.02869063 0.0046979217 -0.029449007 0.021862924
0.023675494 -0.042635903 0.006481908 0.00020873292 -0.017717985 -0.023970181 0.016268075 -0.038954496
-0.032230996 -0.010316668 -0.012926901 -0.03890582 -0.025477957 -0.0096311355 0.0061594415 -0.015057067
-0.025931975 0.029070383 0.021688115 -0.029297598 0.029405108 0.03533616 0.026919216 -0.00882666
-0.018214822 -0.026224434 0.0015168346 0.0071962434 0.024518196 0.019509956 -0.001981154 -0.024960984
00000000: 808d 07bd baf1 ce3c d78f 973c 1d7e 84bc
00000010: 92f1 6a3c 2ac9 94bc d81b a9bc ab06 11bd
00000020: bfcd 71bc afa2 a13c 7cb2 2abd d740 ecbc
00000030: 6976 b5bb e418 b83c b2af b13c 46e3 cdbb
00000040: 0904 b8bc a88e 19bc 27a5 44bc e203 233c
00000050: 6364 03bd f615 09bc faff 303c 3cfa 4cbb
00000060: 8900 973c e1c3 cdbb b550 0d3c aadd 04bc
00000070: 65e9 0cbd e261 013d 7c63 a7ba 29a6 983c
00000080: 7c3d 13bb 58bd 23bd 3d11 f3ba 451c bf3b
00000090: 71c4 ecbc 960f 96bc 4d53 12bc 0569 10bc
000000a0: def4 8abc eb83 04bd ae25 76bb 8887 fabc
000000b0: 0674 993c ab0b b1bc 4e9e 21bd fa70 b03c
000000c0: 000c 94bc 4eea b63c 45a5 453c d2aa e6bc
000000d0: 1a75 29bc 112f b43b 7bd9 3fbd 8d30 563b
000000e0: fdf6 943b d9bc 30bc 36d8 dc3c 5264 19ba
000000f0: 952d 7bbc d535 873b cc52 9ebc d952 f7bc
00000100: 8693 f0bb 887f 09bd 90cb 21bd 1852 37bc
00000110: 28ec 223c 2663 aebc f8d0 3c3b 4aa0 3e3c
00000120: 3b66 513c 8a53 733c 066a 4a3c 163d c93c
00000130: c800 99bb dd05 543c 434d 223b e365 0abd
00000140: 99c9 123c c320 cebc 340c f73c dd23 133d
00000150: 0038 93bc 581b 613c a6ab 22bb 1844 343c
00000160: 73f6 033d f52a 90bb 62eb dfbc 2f87 a0bb
00000170: 25b5 a23c d19d 1f3d 12a5 033d 9625 213b
00000180: dc9e 023d fe87 033d 2f0c 7d3b fb07 30bd
00000190: f08b 34bc 0837 1f3c 28eb 0ebd f795 c8b9
000001a0: 8fe7 ad3c d611 c3bc 4037 34bc b515 e3bc
000001b0: 7909 09bd f224 c23a 6429 923c b25e 7dbc
000001c0: 98f3 afbc 57e6 a7bc de0e b7bc a701 b8bb
000001d0: a04e f03c dbfb 2fbd 103b b93b f2b7 8dbc
000001e0: 393f 26bd a2f5 0e3c a769 6c3c b73a f5bc
000001f0: 6cae b83c c724 0e3c ff24 c0bb 5230 b6bb
00000200: ab59 e537 edab 50bc 9506 d13c ac00 50bc
00000210: d70a b63b 8471 7dbc 2cfa 2cbd 9dba 373c
00000220: 7122 243d 279d e7bc a308 723c 0004 de3b
00000230: 33e1 983c bfcb 30bd 7014 113c 568e 9c3b
00000240: 58b0 ccbc f326 d9bc 15b0 5c3c 8401 a03c
00000250: 1a0c c1bc 863b 2abd 9db7 e7bc 965b 02bd
00000260: 377a 02bd 3a02 e23c a6ba 293c 71fa eebc
00000270: fa1c 193b 0dd9 03bd 6175 1e3c f33b f53b
00000280: c275 c1bc 7862 54bc f5e1 113a 931f 9f3c
00000290: f573 7a3c 3e84 b6bc e314 ecbc 5e86 eabc
000002a0: 4411 89bb e575 a4bc 5002 d7bc 5812 29bd
000002b0: e14f 20bd 00bc 943c 92a2 cdbc 0c9d 49bc
000002c0: 2d0d 7c3b 3bbf 8b3c 8a87 173c b7d9 d13c
000002d0: 1d2e c23b d8a3 45bc b34b 99bb b8ad 793c
000002e0: 5bdb edbc 99bb 4ebc fdbe 9bbc 54b8 f73b
000002f0: 03cd 643a e063 70bc 159f 23bd 4684 933c
00000300: 35d9 edbc 0cb6 90bc fbad d9b9 5be2 fcbc
00000310: 5456 0c3d 0146 da3c d453 df3c d0d3 093a
00000320: 8289 b5bc 146a da3b 416b f23b 307a 723c
00000330: 9d08 eb3c 06f1 993b 0b3f f1bc e019 b33c
00000340: 1cf3 c13c fca2 2ebd 2f66 d43b 51df 5a39
00000350: 4f25 91bc 1d5d c4bc a044 853c c08e 1fbd
00000360: a604 04bd 3e07 29bc 5acb 53bc b65b 1fbd
00000370: 26b7 d0bc e9cb 1dbc 24d5 c93b ebb1 76bc
00000380: 4b6f d4bc 0325 ee3c 46ab b13c 8401 f0bc
00000390: fbe2 f03c a6bc 103d b085 dc3c b29d 10bc
000003a0: 4037 95bc a0d4 d6bc 86d0 c63a 77ce eb3b
000003b0: 62da c83c 58d3 9f3c 40d6 01bb fa7a ccbc

fc2.weight f4 [120, 240]
0.041361365 0.057938073 -0.041510858 -0.05525139 0.04207453 0.016852645 0.0027177678 0.0270994
-0.048847612 -0.010958013 -0.047478646 -0.050252564 0.009606444 -0.087182716 0.10766963 -0.010294599
-0.0050179106 -0.00028647893 0.068756245 0.03249588 -0.009437804 0.0960111 -0.085153505 -0.02350247
-0.030432014 -0.08011235 0.017303236 0.02669538 0.065092064 0.020019103 -0.037948743 0.019620683
-0.10803835 0.04375671 0.02230223 0.054098368 0.11548489 0.0006997989 -0.04641829 0.013322107
0.029876672 -0.048385244 -0.075052425 -0.12939715 0.089190066 -0.06738675 0.035710216 -0.07692707
0.030367225 -0.08435621 0.060733583 0.09928032 -0.03524923 -0.021077447 -0.0022678783 0.03577313
-0.03576818 0.06592867 -0.04742247 -0.003487988 -0.039177965 -0.017318998 -0.05551426 -0.03971602
0.04485809 0.014059221 -0.0052497764 -0.04557033 -0.059896063 -0.09703152 0.042222425 -0.036023732
-0.12667558 0.009389788 -0.046821434 -0.049350012 -0.036009476 0.022316283 0.097699374 0.017451208
-0.032991678 0.038831122 0.08731952 0.08140415 0.05960827 0.02654022 0.00372546 0.00310737
-0.044072393 0.04354883 -0.02333264 -0.016394205 0.043511357 0.006535956 -0.087363005 0.038790364
-0.021274654 -0.009932909 0.055277806 0.08749268 -0.025351763 -0.054082587 -0.040238876 0.038092453
-0.0123071605 -0.046051707 -0.043171596 -0.07442152 -0.04189001 0.023750568 -0.0042792903 -0.0021774394
-0.026796905 6.296364e-05 -0.01538209 0.06649728 -0.06269262 0.032544773 0.011369519 -0.06523403
0.016314266 -0.017229527 -0.008209237 -0.045700997 0.05259102 0.06640665 0.03645895 -0.008033832
0.059391804 -0.030321205 0.058554765 -0.0050054104 0.01359825 -0.084753715 -0.01979213 0.022147212
-0.12541187 0.07413997 -0.090784684 -0.027069477 0.028872253 -0.03928902 0.023282977 0.013998084
0.043990947 -0.01183096 -0.0312667 -0.04778033 -0.022565957 0.08374885 0.013368146 -0.013912088
-0.00501781 -0.029243754 0.04324113 0.06770784 -0.08751325 0.037424896 -0.030349458 -0.0022508367
-0.0496655 0.0406323 0.12576906 0.022224022 -0.009105455 0.016720828 -0.039185785 0.08861001
0.02814832 0.061080627 0.08971165 0.0387502 0.016444514 0.11062605 -0.0074086394 -0.06250045
0.011149525 0.041187756 0.06945849 -0.0073753563 0.06602044 0.025858192 0.02632533 0.049295668
0.06463627 0.07750251 0.03422203 -0.027841248 -0.068269074 0.06619605 0.096098445 -0.015802097
0.022025913 -0.051244497 -0.016307615 0.093020804 -0.00096230477 0.10041322 -0.033196133 0.075181045
0.055084314 0.048447404 -0.052976318 -0.006537625 0.058937624 0.017280407 0.06785332 -0.05323914
0.07120886 0.01441673 -0.05026918 -0.0137674585 0.03169907 0.02361185 -0.00031129087 -0.04959366
-0.1088825 -0.021303931 0.032251686 -0.010858447 -0.026628315 0.06579241 0.0061119176 -0.02517275
0.052490596 -0.017392825 0.029371938 0.038058277 -0.052601356 0.02202338 0.0022428667 0.043090247
0.10544376 0.09262881 0.10159345 -0.08823157 0.05313696 -0.053310998 -0.03327383 0.06990041
0.009346004 -0.0143247945 0.037964936 0.00033395056 -0.055212546 0.097867854 0.057377562 -0.011939361
0.050183393 0.049034853 0.06140226 0.029395306 0.10521656 -0.022161044 -0.036958344 -0.046380702
00000000: 896a 293d 7950 6d3d 4a07 2abd 484f 62bd
00000010: 5856 2c3d 8f0e 8a3c 941c 323b 90ff dd3c
00000020: 6f14 48bd 3d89 33bc f878 42bd a2d5 4dbd
00000030: 5964 1d3c da8c b2bd e581 dc3d aeaa 28bc
00000040: 496d a4bb 8d32 96b9 13d0 8c3d 661a 053d
00000050: 05a1 1abc 78a1 c43d f664 aebd 4188 c0bc
00000060: 8f4c f9bc f211 a4bd 84bf 8d3c 45b0 da3c
00000070: fd4e 853d 1aff a33c 2470 1bbd 8ebb a03c
00000080: 3643 ddbd 3c3a 333d 2bb3 b63c 4096 5d3d
00000090: 5883 ec3d b672 373a 1b21 3ebd f744 5a3c
000000a0: ecbf f43c 9b2f 46bd 16b5 99bd b080 04be
000000b0: 48a9 b63d 1002 8abd e044 123d f18b 9dbd
000000c0: b0c4 f83c f3c2 acbd c7c3 783d 7b53 cb3d
000000d0: 7f61 10bd 9caa acbc afa0 14bb d886 123d
000000e0: a881 12bd 9c05 873d 103e 42bd ba96 64bb
000000f0: 1379 20bd 92e0 8dbc ec62 63bd 44ad 22bd
00000100: 1ebd 373d a658 663c 5106 acbb f4a7 3abd
00000110: 9355 75bd 76b8 c6bd 6cf1 2c3d 9f8d 13bd
00000120: 3eb7 01be a0d7 193c d5c7 3fbd 3d23 4abd
00000130: ac7e 13bd a3d0 b63c 9c16 c83d d6f5 8e3c
00000140: 4822 07bd 620d 1f3d 94d4 b23d 38b7 a63d
00000150: cd27 743d e06a d93c d926 743b 05a5 4b3b
00000160: 4185 34bd 4260 323d 1824 bfbc 244d 86bc
00000170: f738 323d 932b d63b 60eb b2bd a5e2 1e3d
00000180: 2f48 aebc a4bd 22bc fb6a 623d 5d2f b33d
00000190: 80ae cfbc b485 5dbd 85d1 24bd d506 1c3d
000001a0: f9a3 49bc b7a0 3cbd b3d4 30bd 4f6a 98bd
000001b0: dc94 2bbd 8d90 c23c 4a39 8cbb 5fb3 0ebb
000001c0: 2f85 dbbc 590b 8438 2905 7cbc ba2f 883d
000001d0: fd64 80bd ab4d 053d 3847 3a3c 6b99 85bd
000001e0: 7fa5 853c f024 8dbc 0980 06bc f830 3bbd
000001f0: ae69 573d 3600 883d fb55 153d 55a0 03bc
00000200: d244 733d 2d64 f8bc 1fd7 6f3d 6d04 a4bb
00000210: 32cb 5e3c 5b93 adbd 1b23 a2bc 126e b53c
00000220: f86b 00be b2d6 973d 52ed b9bd cfc0 ddbc
00000230: 8185 ec3c 86ed 20bd f1bb be3c 3858 653c
00000240: da2f 343d a5d6 41bc 8311 00bd 4fb5 43bd
00000250: 3edc b8bc 8484 ab3d 1106 5b3c 87ef 63bc
00000260: 716c a4bb 9990 efbc 9c1d 313d 68aa 8a3d
00000270: 263a b3bd d94a 193d 6d9f f8bc c682 13bb
00000280: 0d6e 4bbd 0e6e 263d 9bc9 003e 270f b63c
00000290: 0c2f 15bc 1efa 883c 4681 20bd 2a79 b53d
000002a0: 4e97 e63c ae2f 7a3d beba b73d 88b8 1e3d
000002b0: a5b6 863c e98f e23d 2cc4 f2bb 3c00 80bd
000002c0: 7fac 363c 7eb4 283d 4140 8e3d f9ac f1bb
000002d0: b935 873d 8fd4 d33c 38a8 d73c 41ea 493d
000002e0: 0560 843d a3b9 9e3d 662c 0c3d 5413 e4bc
000002f0: a8d0 8bbd cb91 873d 43cf c43d 6673 81bc
00000300: b06f b43c c0e5 51bd 8c97 85bc b181 be3d
00000310: 2e43 7cba 72a5 cd3d abf8 07bd 85f8 993d
00000320: 17a0 613d c970 463d b2fd 58bd 9339 d6bb
00000330: 9468 713d a48f 8d3c aef6 8a3d 4911 5abd
00000340: f3d5 913d 2634 6c3c 0ee7 4dbd e890 61bc
00000350: e2d6 013d a36d c13c c134 a3b9 b922 4bbd
00000360: cafd debd 9585 aebc 581a 043d a1e7 31bc
00000370: a023 dabc 2cbe 863d 7b46 c83b 1537 cebc
00000380: 6100 573d 667b 8ebc 6b9d f03c ffe2 1b3d
00000390: 8574 57bd 606a b43c 0ffd 123b 667f 303d
000003a0: e6f2 d73d 2cb4 bd3d 3a10 d03d c1b2 b4bd
000003b0: 24a6 593d a25c 5abd 244a 08bd f227 8f3d
000003c0: fb1f 193c 8bb2 6abc 1f81 1b3d 1616 af39
000003d0: 8d26 62bd f16e c83d bc04 6b3d 4f9d 43bc
000003e0: 1a8d 4d3d c5d8 483d f080 7b3d 6dce f03c
000003f0: c87b d73d 148b b5bc a261 17bd b1f9 3dbd

fc2.bias f4 [120]
0.017256383 -0.035130713 -0.06092153 -0.00016182766 0.057710506 0.09482261 -0.05889638 0.06860282
-0.05930022 -0.036304522 0.041127756 0.024246706 0.041468985 -0.040112115 0.036000855 -0.0018321961
0.033030055 0.059322096 0.054723095 -0.017006123 0.08638191 -0.0054854034 0.112338744 -0.07075032
-0.008839886 0.06876922 -0.025337273 -0.038744774 0.03154479 -0.004583562 0.09382294 -0.029298764
0.04345861 0.06815118 -0.056523032 -0.012078601 0.10553374 -0.02775721 0.06857561 -0.052374657
0.0651983 -0.014695205 0.09525585 0.0075096167 -0.031271625 -0.059709847 -0.0021905792 -0.04891299
0.049405508 0.039501425 0.068300925 -0.0016419485 -0.048832376 0.03855959 0.042865306 -0.035016723
-0.0045870924 0.054497592 0.050826747 0.02577875 0.035093643 0.004680497 0.023562614 -0.049611486
0.02416792 0.06990488 0.0464624 -0.038196586 0.023664428 0.029495832 -0.06153494 0.046181887
0.028500259 0.025336357 0.07967302 -0.01910677 -0.023724156 0.038645476 -0.058213707 0.028666088
0.055372607 -0.06252723 0.011507391 0.049832374 0.013791185 0.018705577 0.022608241 0.00497141
0.07112485 0.09918552 -0.009322229 0.11292597 -0.070685826 -0.015946694 0.022408579 0.028778307
0.080486946 0.026189499 0.065392 0.031057315 0.012679678 0.0032250253 0.0062982645 0.084705785
0.07103364 0.026065202 0.047463063 0.0191992 0.032650057 -0.019330433 -0.009553749 0.080673344
0.02382265 0.033874974 -0.07542178 0.052301474 -0.05728116 -0.035819862 0.022534287 -0.0120691
00000000: 425d 8d3c 39e5 0fbd db88 79bd 48b0 29b9
00000010: da61 6c3d 5b32 c23d 553d 71bd a37f 8c3d
00000020: cae4 72bd 0db4 14bd 9475 283d 07a1 c63c
00000030: 62db 293d 9a4c 24bd a275 133d 4d26 f0ba
00000040: 864a 073d bafb 723d 5325 603d 6d50 8bbc
00000050: 00e9 b03d e6be b3bb db11 e63d 8be5 90bd
00000060: 2bd5 10bc e0d6 8c3d 1d90 cfbc d7b2 1ebd
00000070: 1c35 013d b431 96bb 3e26 c03d f603 f0bc
00000080: a801 323d d992 8b3d b284 67bd 53e5 45bc
00000090: 1322 d83d 1763 e3bc 5f71 8c3d cf86 56bd
000000a0: b086 853d 28c4 70bc 8015 c33d 3b13 f63b
000000b0: ad16 00bd 5092 74bd d28f 0fbb fd58 48bd
000000c0: 6e5d 4a3d 3fcc 213d 5be1 8b3d a636 d7ba
000000d0: 7504 48bd a9f0 1d3d 8893 2f3d b26d 0fbd
000000e0: 524f 96bb de38 5f3d b52f 503d f52d d33c
000000f0: 5abe 0f3d db5e 993b 6206 c13c 6a35 4bbd
00000100: cdfb c53c 4a2a 8f3d 5c4f 3e3d 0674 1cbd
00000110: e7db c13c 3ea1 f13c 100c 7cbd 3829 3d3d
00000120: 6079 e93c 318e cf3c 9c2b a33d cd85 9cbc
00000130: 2959 c2bc b84a 1e3d 7f71 6ebd 25d5 ea3c
00000140: 63ce 623d 470e 80bd 7f89 3c3c 081d 4c3d
00000150: 6cf4 613c 703c 993c eb34 b93c 36e7 a23b
00000160: e8a9 913d c721 cb3d 43bc 18bc bb45 e73d
00000170: bbc3 90bd a4a2 82bc 3292 b73c 7cc0 eb3c
00000180: 57d6 a43d 5c8b d63c 3eec 853d e96b fe3c
00000190: 6dbe 4f3c f25a 533b ac61 ce3b 3a7a ad3d
000001a0: 167a 913d b186 d53c a168 423d a447 9d3c
000001b0: 11bc 053d db5a 9ebc 5487 1cbc 1138 a53d
000001c0: b827 c33c 7cc0 0a3d bc76 9abd 123a 563d
000001d0: a69f 6abd d9b7 12bd d399 b83c 79bd 45bc
