Exercise-1-RL/reinforcement_learning/models_cartpole/dqn_agent.pt (torch, 654679 bytes, 6 tensors)

fc1.weight f4 [400, 4]
000000 f4 24 b0 be 51 44 bc 3e da f1 bc be 67 90 e2 3e
       -0.34403193 0.3677087 -0.36903268 0.44250795
000010 bd 3b e8 3e 26 6a c5 3e 01 0e 8d be 73 8c 36 be
       0.45358077 0.38557547 -0.27549747 -0.17827015
000020 26 35 ba 3e 07 1e fd 3e ae da c8 bd e8 64 fa 3d
       0.36368674 0.49436972 -0.09807335 0.122262776
000030 74 6c ac be 3e 7d d7 be d2 f2 94 3e 76 bd 6a be
       -0.33676493 -0.4208774 0.29091507 -0.22923836
000040 ec 6a c2 be c3 03 3d 3e 87 95 14 bf 05 c0 c3 bd
       -0.379722 0.18458466 -0.5804066 -0.09558109
000050 c1 cf 57 3e 88 5a ae be 89 4b bb be 86 3d 27 be
       0.21075346 -0.34053445 -0.36581066 -0.16332063
000060 97 b6 81 be f5 f0 e9 bd 73 3a a4 be b5 56 10 bc
       -0.25334617 -0.11422912 -0.32075843 -0.008809735
000070 b1 03 d7 be 4d bf db be d7 35 09 3d c2 32 80 be
       -0.41995004 -0.42919388 0.03349861 -0.25038725
000080 32 6d b1 be ff 00 1e bd 75 d0 1b 3f e1 66 2b 3e
       -0.34653622 -0.03857517 0.60864955 0.16738464
000090 0e 8c 48 3e 3d 6c 62 3e cb 56 d7 bd 56 7f 4b be
       0.19584677 0.22111602 -0.10514601 -0.19872794
0000a0 97 84 17 3e e7 22 ab 3e b9 f8 ca 3e 72 49 49 bc
       0.14796673 0.33425066 0.39642885 -0.012285577
0000b0 6c 80 b5 bd c8 33 33 be 92 18 62 3e 8a 64 92 3e
       -0.08862385 -0.17500222 0.22079685 0.2859233
0000c0 d7 8b ba be 65 3a 6c 3e 65 39 ba 3e b0 1c bc be
       -0.36434814 0.23069151 0.36371914 -0.36740637
0000d0 fc e0 db be a6 bc d3 3b 55 d1 0b bf e3 2e df be
       -0.42945087 0.0064616976 -0.5461629 -0.4359046
0000e0 70 6b e4 3e 33 97 80 3d e1 e4 fd bd 64 19 c1 3c
       0.44613218 0.06278839 -0.12397171 0.023571678
0000f0 71 d4 f9 be 8f b9 07 3f 83 e7 0d 3e 2e 7f 92 be
       -0.48794892 0.53017515 0.13857846 -0.28612655
000100 85 92 b5 bd c1 a2 83 be 4f aa 9c 3e 9f d1 b3 bd
       -0.08865837 -0.2571011 0.30598685 -0.087802164
000110 19 0c b9 3d 06 ce 48 bc 33 d3 04 bf ec ed b6 be
       0.090355106 -0.012256151 -0.51884764 -0.35728395
000120 7f 99 94 be c2 ab fb bd ff f4 fb 3e 31 80 96 3d
       -0.29023358 -0.122886196 0.49210355 0.07348669
000130 e7 96 0a be b0 b2 8a bc ac 2b c1 3d 5a fe 17 bb
       -0.13534127 -0.016930908 0.09432158 -0.0023192377
000140 36 e3 e2 be 71 f4 d0 3e e5 74 88 be b4 ce 9c 3d
       -0.44313973 0.40811494 -0.26651683 0.07656613
000150 46 6d d3 3d 96 07 29 be b8 6c 18 be 66 bd b5 be
       0.10323577 -0.165068 -0.14885223 -0.35496062
000160 ba 90 fc 3e 89 0b 35 be 69 1b c4 3d 62 9b 39 3e
       0.49329168 -0.17680182 0.095755406 0.1812568
000170 de 55 93 be e9 be 39 3e 9d 7e c1 3e e5 6a a2 be
       -0.2877645 0.18139233 0.3779191 -0.3172218
000180 68 9f bc be 11 a6 a2 be 7b 2d b8 be b9 fc d4 be
       -0.36840367 -0.31767324 -0.359722 -0.41599062
000190 88 78 ad be 12 52 57 be 43 ff e9 3d d4 3e 21 3d
       -0.3388102 -0.21027401 0.114256404 0.03936656
0001a0 af bc 38 be b7 93 9f be 22 30 bd 3e 67 41 c3 bd
       -0.18040727 -0.31167385 0.36950785 -0.09533959
0001b0 b6 a2 b3 be e3 ea f0 be 83 68 52 be 4e bd 03 bf
       -0.35085076 -0.47054204 -0.2054768 -0.5146073
0001c0 47 7f 99 be eb b1 32 3e 48 17 90 be c3 d1 e8 3d
       -0.29979917 0.17450683 -0.28142762 0.11368134
0001d0 cc e1 e9 be 8d f6 6d 3d 37 b5 f7 bd 94 47 13 be
       -0.45680082 0.058096457 -0.12095111 -0.14382774
0001e0 27 45 b7 3d 4d 10 c7 bd 90 29 20 3f 63 18 93 be
       0.08948737 -0.09719906 0.6256342 -0.28729543
0001f0 1c 9d 27 bd 27 72 66 3e 8d a0 53 3f 01 14 cd 3e
       -0.040921316 0.22504483 0.82666856 0.40054324
000200 5d 9f c4 3e c5 be a4 be 88 19 e8 3d dc cd 50 be
       0.38402835 -0.32176796 0.11332995 -0.20391029
000210 08 7f e8 be f3 e7 06 3e 9d e9 44 3d 1b 49 ac 3d
       -0.45409417 0.13174419 0.048074353 0.08412381
000220 26 6e 22 be 84 5a a0 be f7 40 5b 3e 28 41 8c 3e
       -0.15862331 -0.31319058 0.21411501 0.2739346
000230 08 ac aa 3d 2c 60 e1 3e b5 de 49 be 91 14 40 3e
       0.083335936 0.44018686 -0.19713862 0.18757845
000240 7a e3 44 bd 5b de bf be b8 1f bd be b2 78 cc be
       -0.0480685 -0.3747433 -0.36938262 -0.39935833
000250 41 42 c7 be d7 30 6a 3e 1f 33 8b 3e 0d 79 b6 bd
       -0.38917735 0.22870193 0.2718744 -0.08909807
000260 fc 6c 8a 3e fd c9 fd bc 37 f6 4b bc 13 fb 80 be
       0.27036273 -0.030980105 -0.012448839 -0.25191554
000270 8b 03 bd be da f3 b7 3e a1 2d 0c bf 8e 30 34 3e
       -0.36916766 0.3592823 -0.54757124 0.17596647
000280 5f 10 b6 3e 63 83 2b 3e 3d 1b 0e bf 5a 52 86 be
       0.35559365 0.16749339 -0.5551031 -0.26234704
000290 e6 33 92 be dd a6 0f 3e 4f 12 11 3d 58 ea fb 3d
       -0.2855522 0.14028497 0.03541785 0.12300557
0002a0 86 01 50 3e 41 8e af be da 98 b5 3e e0 74 c4 3e
       0.20313081 -0.3428822 0.3546818 0.3837042
0002b0 48 35 54 bc e3 bc 02 bf c5 27 b1 be 20 bf 37 3e
       -0.012952156 -0.5106947 -0.34600654 0.17944002
0002c0 df 34 5f 3e b1 76 bb 3e 65 b8 e2 be 6e a7 c1 bc
       0.21797512 0.36613992 -0.44281307 -0.023639407
0002d0 4d b4 86 be df 4b ea bd 89 0c 10 3e 55 73 94 be
       -0.26309434 -0.114402525 0.14067282 -0.2899424
0002e0 32 24 e5 3e 30 cd e1 3e 0b 03 eb 3e 9f ab ea be
       0.44754177 0.44101858 0.4590076 -0.45834062
0002f0 4c 98 82 3e 77 39 ee be 91 16 e8 bd a5 9c 0c 3f
       0.25506818 -0.46528217 -0.11332429 0.5492652
000300 6f 93 09 bf 9a 78 aa 3e db ca 1d 3f 38 94 bd 3e
       -0.5374059 0.33295137 0.6163766 0.37027144
000310 b9 05 8d bd 4a 51 b5 bd e6 ff 8d 3e e2 b1 bd be
       -0.06885857 -0.08853395 0.27734298 -0.37049776
000320 5f 2b 15 be e6 b0 15 be 7c c3 1a 3e 87 b9 f5 bd
       -0.14567326 -0.14618263 0.15113634 -0.11998277
000330 8b 35 bc 3e cb 8e a6 be bf 1f 80 3e fa 7c d4 3e
       0.367596 -0.32530817 0.2502422 0.415016
000340 92 c8 97 be cc 01 cf bd 7c f0 2a be 1b b4 cd 3e
       -0.2964521 -0.101077646 -0.166933 0.40176472
000350 20 03 20 3e 77 4e f5 3e a3 5d d9 3d e2 3d a5 3d
       0.15626192 0.47911426 0.10613563 0.08068444
000360 4f 67 b6 be 3d 02 6e 3e 55 7c 92 be 19 89 5b be
       -0.35625693 0.23243041 -0.28610483 -0.21439017
000370 e7 85 16 3e 13 b1 18 bf b0 c9 63 bf 4e 94 bc be
       0.14699517 -0.59645194 -0.88979626 -0.36831897
000380 66 3d b4 3e 20 7c ae 3e c0 6d 06 3f e5 bb e4 bb
       0.35203093 0.34079075 0.52511215 -0.0069804066
000390 40 b4 29 bc 00 83 35 3b c0 e2 33 3d 28 77 81 bd
       -0.010357916 0.002769649 0.043917418 -0.063215554
0003a0 9d d1 60 bd e6 eb ae 3e f9 48 e6 3e f2 c0 20 bd
       -0.054887403 0.3416435 0.4497755 -0.039246507
0003b0 5f c3 ad bd fe 20 2c 3d a9 69 78 3e 52 27 5b be
       -0.0848453 0.04202365 0.24259056 -0.21401718
0003c0 e4 8f 40 3e 0e 1c 67 be b1 56 17 3e d8 17 2c be
       0.1880489 -0.22569296 0.14779164 -0.1680597
0003d0 9f 8c 6a be 1c de 20 be 66 97 6e 3e e9 f0 b0 bd
       -0.22905205 -0.15709728 0.23299941 -0.086397
0003e0 ae 23 57 3e dd 15 a6 bc 79 17 2c 3f 5d 84 9e 3e
       0.21009704 -0.020274097 0.67223316 0.3096036
0003f0 a6 61 46 3c e6 43 aa b9 ce 2f ca be 30 50 ef bd
       0.012108242 -0.00032475515 -0.39489597 -0.116852164

fc1.bias f4 [400]
000000 fb a6 b4 be 69 93 04 be c7 c6 e1 3e 08 de 56 be
       -0.35283646 -0.12946858 0.44096968 -0.20983136
000010 88 a5 08 bf 89 70 de 3d a1 ed 8c bd 46 8d ed be
       -0.5337758 0.10861308 -0.068812616 -0.46396846
000020 cd 17 e5 bd 1b 0d c3 be e6 c3 92 be 3f 2d cd be
       -0.1118618 -0.38095936 -0.28665084 -0.40073583
000030 73 27 0b 3f 17 57 07 bf 1f ec 4f 3e d9 59 fe 3d
       0.5435707 -0.52867264 0.20304917 0.12419481
000040 bb 9f 46 3e 4c 77 86 3e 81 00 d1 bd 22 57 8e be
       0.1939687 0.2626289 -0.10205174 -0.27800852
000050 13 87 63 3c a0 26 fe 3e 4a c8 48 3e 76 f2 70 3e
       0.013887185 0.49638844 0.19607654 0.23529992
000060 ee 68 31 be 0d 43 e0 3e 5a a2 4d be f2 83 f8 bd
       -0.17325184 0.43801156 -0.20081463 -0.121345416
000070 d1 89 fd be 1d a7 87 be c7 ab 3d 3e 24 09 53 bc
       -0.49519208 -0.26494685 0.18522559 -0.012880597
000080 e2 92 25 3e 82 28 21 bf bc 14 6e be 7b 08 cb 3e
       0.16169313 -0.62952435 -0.23250097 0.39654908
000090 79 6d 59 3d b0 05 b1 be 1f d0 ad be 95 6b 0a bf
       0.053082917 -0.34574652 -0.33947846 -0.5407041
0000a0 4e ac c6 be 59 24 f1 be db 9c f9 be b6 3f f9 be
       -0.38803333 -0.47098044 -0.48752484 -0.4868142
0000b0 15 13 cb 3e c5 22 a3 3e f4 2f f6 be e3 6d be bb
       0.39662996 0.31862465 -0.4808346 -0.0058114394
0000c0 0a 67 08 bf 52 3a 10 3f ed 04 c9 be b5 12 8c be
       -0.53282225 0.5633899 -0.3926157 -0.27358022
0000d0 17 e8 c6 3e 3e 05 70 3e f0 0d 9d be 79 20 5b bd
       0.38848945 0.234395 -0.30674696 -0.053497765
0000e0 1d fd ec be 5c 71 78 be ff 65 57 3e 26 ea 56 3e
       -0.4628686 -0.24261993 0.21035002 0.20987758
0000f0 f9 0a da 3e 8c 95 f8 be 28 18 94 be 75 fd eb bd
       0.42586496 -0.48551595 -0.2892468 -0.115229525
000100 55 e6 9b be b8 a0 9e 3e bc c0 ca 3e 37 d3 b7 3e
       -0.30449167 0.30981994 0.3960017 0.35903332
000110 fa 38 6d 3e 7b 35 c5 be 60 68 c0 bc 29 b6 66 be
       0.23166266 -0.38517365 -0.02348727 -0.22530426
000120 66 49 05 3e 76 84 1d bf a4 0e 0d bf 31 3f a3 be
       0.1301628 -0.61530244 -0.55100465 -0.3188415
000130 61 fa f6 3e 7c f3 d6 bd e4 1b e8 3d 10 c2 18 bb
       0.482379 -0.1049566 0.11333445 -0.002330903
000140 14 46 17 3f 64 b2 e0 be dc f6 13 bf fb 12 07 3e
       0.59091306 -0.438861 -0.5779855 0.13190834
000150 8a b4 ce 3d 5c 61 d5 3e f3 bd da 3e 20 6a 0e 3f
       0.10093029 0.41675842 0.42723045 0.55630684
000160 0b 83 d6 3c 11 dc be be 12 20 08 3f db c1 10 3e
       0.026185533 -0.37277272 0.53173935 0.1413645
000170 47 b4 4c 3e eb fb d9 3e 97 bc ad be bd 2a ef 3e
       0.19990645 0.4257501 -0.33932945 0.46712294
000180 af bb ae 3e 21 01 91 be b9 9f 52 be 5b ec 21 3e
       0.34127566 -0.28321174 -0.20568742 0.15812819
000190 b6 08 aa be e5 17 9c 3e 0d bc 56 3d 83 40 71 be
       -0.3320977 0.3048698 0.052425433 -0.23559766
0001a0 ba df 5c be c3 b7 3f be 9e 27 03 bf ee 9d c8 be
       -0.2156972 -0.18722443 -0.51232326 -0.3918299
0001b0 0c b8 8b 3e 14 be 25 be 60 38 02 3f 45 b1 fd 3d
       0.27288854 -0.1618579 0.5086727 0.12387327
0001c0 93 8e 58 be 53 39 a1 3e 5a 9e f3 3e 64 65 0a bf
       -0.21148138 0.31489047 0.4758175 -0.5406096
0001d0 12 12 4d bd dd a4 80 3e c7 f9 fe 3e 20 fa 17 be
       -0.05006606 0.2512578 0.4979994 -0.14841509
0001e0 f5 05 9b 3e 74 f7 93 be b8 0b a4 3e f2 97 d2 be
       0.30277982 -0.2889973 0.3204019 -0.4113155
0001f0 4d 20 00 be af d1 9e be 47 51 13 3f c6 29 e3 be
       -0.12512322 -0.3101935 0.57545894 -0.44367808
000200 c6 29 df 3e a5 a9 49 be 33 89 0c 3f 8e a2 bb be
       0.43586558 -0.1969362 0.5489685 -0.36647457
000210 1d 19 c1 3e 86 4a 10 bd 5e 71 94 3e 6b c5 6a 3e
       0.37714472 -0.03522732 0.28992742 0.22926871
000220 07 c6 e5 bc b0 36 03 3f 9d ca ab 3e 27 98 ff be
       -0.028048528 0.5125532 0.3355302 -0.4992077
000230 bb 09 fc be 96 26 d3 3e 4c a8 c8 be 96 7a 3a 3e
       -0.49226174 0.41240376 -0.391909 0.18210825
000240 e1 5c 93 be 2d a1 a6 bd f9 ce 0c 3e b5 28 b0 be
       -0.28781798 -0.081362106 0.13750829 -0.34406057
000250 7e 03 ac 3e b1 a8 91 3e 50 72 dc 3d da 10 89 3b
       0.33596414 0.28449014 0.10763991 0.004182917
000260 a5 fe 95 3e d9 95 b2 be e0 3d 58 3e 67 72 f4 be
       0.2929584 -0.3487995 0.21117353 -0.47743532
000270 3f cd 73 be da d8 15 3f f1 69 07 3f 37 fa f2 be
       -0.23808764 0.58534014 0.5289603 -0.47456524
000280 1a 43 1c bf f6 7e 9a 3d 9c ae ad 3d 09 a2 73 be
       -0.6103989 0.07543747 0.0848057 -0.2379228
000290 6d 06 aa 3e 8a d1 5a 3d ea d1 d2 be 51 7e ec be
       0.33208027 0.05342249 -0.41175777 -0.46190122
0002a0 0b f3 0e bf 1a 1e 28 be 03 35 a0 3c 19 60 67 3d
       -0.55839604 -0.16417733 0.019556528 0.05648813
0002b0 ef 9a cf 3e e9 21 0c 3f e0 15 cf be 38 ad 95 be
       0.40547892 0.5473924 -0.40446377 -0.29233718
0002c0 fe e8 01 bf 20 26 b1 3e 4c 0c a9 be 57 80 71 3d
       -0.5074614 0.345994 -0.33017194 0.058960285
0002d0 0d 45 05 3e 4d 65 ae 3d 05 ba 07 bf 03 d5 f9 3e
       0.13014622 0.08515415 -0.5301822 0.48795328
0002e0 e5 ac 9a 3e 81 63 6f 3e 25 87 10 bf 9c c1 0f 3e
       0.30210033 0.23377801 -0.56456214 0.140387
0002f0 ee aa a7 be ff d1 1e 3e 23 2c 4f 3e 50 42 ee 3d
       -0.32747597 0.15509795 0.2023168 0.11633742
000300 a9 92 d4 3d b9 2d fe be ad 70 93 be 5e 54 3a 3e
       0.10379536 -0.4964426 -0.28796902 0.18196246
000310 96 28 c5 3e 3e b7 eb 3e 06 c0 30 be b5 9a 3e 3e
       0.38507527 0.4603824 -0.17260751 0.18613704
000320 b5 3e 9a be 23 2d a3 3e 35 b6 cf be 7d 81 2e 3e
       -0.30125967 0.31870374 -0.405687 0.17041583
000330 18 27 9e be c8 95 2c 3e cd 32 17 3f 94 b7 b6 3e
       -0.308892 0.16854012 0.5906189 0.35686934
000340 ff 10 73 3e 72 9a a2 3e 5a bb 27 3e 70 e5 ce be
       0.23736952 0.31758457 0.16380063 -0.40409422
000350 4a 04 82 3d 42 3e 40 be c5 55 37 be f6 ba fa be
       0.06348474 -0.1877375 -0.17903812 -0.48970765
000360 cb fc 42 3e ef 81 dd 3e cb e1 99 be f9 51 34 3d
       0.19041745 0.43263194 -0.3005508 0.044023488
000370 68 d7 c2 be 98 24 06 3f 61 ce 4c be 8b ed c8 be
       -0.38054967 0.5239959 -0.20000602 -0.3924373
000380 10 9a 9b 3d 8b 23 ef be c5 78 07 bf b6 c8 a6 be
       0.075977445 -0.46706805 -0.52918655 -0.32575005
000390 82 27 4a 3e c0 ba 09 3f aa 04 de 3c 52 c3 f9 be
       0.19741634 0.5380058 0.027101833 -0.4878183
0003a0 a4 f3 6c 3e 3b ac 81 be 72 42 ff 3e a6 54 9d be
       0.23139817 -0.25326714 0.4985538 -0.30728644
0003b0 09 f6 e6 be 21 0b 3c be 81 90 c7 3e 44 72 a2 3c
       -0.45109585 -0.1836362 0.38977435 0.019829877
0003c0 54 72 3c 3e 5e e3 05 3d 50 b8 07 be 2d ef 92 be
       0.18402988 0.032687537 -0.13253903 -0.28698102
0003d0 4f a1 a0 3e 88 37 66 3e 36 9f c9 bd 93 4b 0d 3f
       0.3137307 0.22482121 -0.0984482 0.5519344
0003e0 40 22 ce 3c cb 66 a1 3e 3f ec f1 be f9 b1 56 be
       0.025162816 0.31523737 -0.47250554 -0.20966329
0003f0 4e aa 33 bd 5d 86 1d 3e 2d 45 72 3e b5 1e d0 be
       -0.043863587 0.15383287 0.23659201 -0.40648428

fc2.weight f4 [400, 400]
000000 45 97 a8 3d 96 cd 94 3d c9 cf 2e 3d 99 c2 1c 3d
       0.082319774 0.07265775 0.042678628 0.03827152
000010 e4 4d 87 3e da c7 7c bd b1 1c b2 3d 54 60 3c 3d
       0.26426613 -0.06171403 0.08696879 0.045990303
000020 6c 26 3f bd 97 31 5f 3d c3 73 20 3d 38 91 24 3e
       -0.0466675 0.054490652 0.0391729 0.16071022
000030 32 6d d8 bc df b6 26 3e 3b e3 79 3d 03 66 dc bc
       -0.026419256 0.16280697 0.06100772 -0.026904112
000040 23 f5 55 3b 09 00 80 bd da fa f7 bc 71 a6 de 3e
       0.0032647334 -0.06250007 -0.030270983 0.4348636
000050 1a de 5e bd 26 97 7e bd 15 de c8 bc 5c 54 19 bd
       -0.05441103 -0.062155865 -0.02451996 -0.037433967
000060 15 f1 33 3e 91 68 41 bd 36 5e b2 3d 75 2d 19 3e
       0.17572434 -0.047218863 0.087093756 0.14958747
000070 9d 05 8a 3e 79 2b f5 3d 52 da 53 be 0f ac 1b 3e
       0.26957408 0.119711824 -0.20688751 0.15202354
000080 59 fc 43 3c 00 4c 0b 3e 2e 2d 6b 3c c1 88 d9 bc
       0.01196202 0.1360321 0.014354033 -0.026554467
000090 a9 c3 aa 3d 46 e5 83 3d ba 1e fb 3d 5e a1 ca 3e
       0.083381005 0.06440215 0.1226172 0.39576238
0000a0 dc 2b 59 3d 5b d1 a3 3e 10 c7 5d 3d 08 35 c1 3d
       0.053020343 0.31995663 0.05414492 0.09433943
0000b0 43 d5 44 bd ea 98 21 bd a9 c8 94 3d 86 08 1d be
       -0.048054945 -0.03945247 0.072648354 -0.15335283
0000c0 1d 3a 76 bd 4a 4f ad bd 09 7e ca 3e 32 92 84 3d
       -0.060114015 -0.08462389 0.39549282 0.06473197
0000d0 37 23 c5 3b 19 9a 2c bc 4c 90 de 3d 1e 67 12 3e
       0.006016161 -0.010534787 0.10867366 0.14297149
0000e0 4d 44 70 3d 9e 40 84 3c 04 28 c9 bd 79 45 a3 bd
       0.058658887 0.016144093 -0.098220855 -0.07972235
0000f0 6f c4 e3 bd 75 81 41 3e f7 83 ae 3d fd 06 4a 3e
       -0.11121451 0.1889704 0.08521264 0.19729228
000100 11 dd 9d 3c b8 a3 3f bd 06 a1 35 bd 15 5d cc bd
       0.019270452 -0.046786994 -0.044343017 -0.099786915
000110 70 58 bd bd 5e ef 20 3e 86 09 99 3d 53 67 f3 3d
       -0.09245384 0.15716311 0.074725196 0.11884942
000120 d0 05 84 bd e2 81 50 3e a8 f7 f2 3d 34 cb 2e 3d
       -0.06446421 0.20362046 0.11863643 0.04267426
000130 69 00 18 be 68 60 36 3e 1c 59 2a bd 73 96 3e bc
       -0.14843906 0.17810214 -0.041588888 -0.01163255
000140 69 c1 84 bd 29 88 31 3e 15 70 87 3e 4c b7 5c bc
       -0.064822026 0.17337097 0.264527 -0.013471436
000150 f1 ff f1 bd dc 96 27 3d 38 19 ba bd 12 32 6d bd
       -0.11816395 0.040915355 -0.09086841 -0.05790908
000160 f8 80 78 3c 85 bc 3d 3e 20 cb 00 be c4 1f 23 bd
       0.015167467 0.18528946 -0.12577486 -0.039825216
000170 fe 5a 39 3c 27 ac 5f bd c6 65 17 3d 66 c3 80 bd
       0.011313198 -0.054607537 0.036962293 -0.06287269
000180 c6 ee 00 bd e3 54 d8 3d 99 8b 9d 3c 70 8c 12 bd
       -0.031477712 0.10563066 0.019231604 -0.035778463
000190 b1 0d a7 3d 0e a5 11 3d db c4 d4 3c 53 82 e2 bb
       0.08156908 0.0355578 0.025972774 -0.0069125085
0001a0 92 3c d1 3d ec 7e 44 3d ee 43 d0 3d 46 ab 41 3d
       0.10216631 0.047972605 0.101692066 0.04728248
0001b0 e8 ec 23 bc f7 30 e3 3d 3d dd 5c 3c 0b b4 b3 bd
       -0.010005213 0.11093324 0.013480482 -0.08774575
0001c0 f3 50 75 3c 17 6b 08 be 16 1e 10 3d 0f fc 11 3e
       0.014972913 -0.13322102 0.035184942 0.14256309
0001d0 0d 55 47 3d 3b 01 38 3d d2 bd d7 bd 3e c4 19 3e
       0.048665095 0.04492305 -0.10534252 0.15016267
0001e0 9c c7 6b 3c 48 b6 1b bd 0c 84 9a bd ca b8 8b 3d
       0.014390852 -0.038015634 -0.07544717 0.06822355
0001f0 74 93 d5 3c 37 48 7a 3e e1 50 de bd 61 f6 9b 3e
       0.026071288 0.2444161 -0.1085527 0.3046141
000200 25 df 01 bd 8b 2a 9e 3d df 4d d4 bd 17 1a ce 3c
       -0.031706948 0.07722958 -0.10366415 0.025158925
000210 0d 70 99 3c c0 33 5f be 39 be 0b be 56 ed 2b 3d
       0.018730188 -0.21797085 -0.13646783 0.041974388
000220 86 82 70 3d 19 da d0 bd 2f 1f 6c bd 02 da 0c be
       0.058718227 -0.10197849 -0.057646926 -0.13755038
000230 0c 04 61 3c 0b be 1c bc 1e ca d3 3e d5 12 9d 3c
       0.013733875 -0.009566794 0.4136514 0.019174019
000240 ed 28 d7 3c 45 65 c9 3c 2e b7 39 3c 8c 93 0d 3d
       0.026264632 0.024584422 0.011335177 0.03456454
000250 d4 57 ab bd a6 16 89 bd f8 57 86 3d d9 c4 04 3d
       -0.08366361 -0.06693773 0.065597475 0.03241429
000260 16 98 0c bd ed a8 c8 3d 2b a7 28 bc 33 24 2d 3e
       -0.034324728 0.09797845 -0.010293762 0.1690834
000270 1d 7f 16 bb bd 3b d3 bc b3 ce 00 be dd e0 cb 3d
       -0.002296395 -0.025785321 -0.1257885 0.09954999
000280 56 3e dc 3d b5 d1 70 bc 90 b7 27 3c 8f 31 dd 3d
       0.10754077 -0.014698436 0.010236636 0.10800468
000290 e7 86 32 bd 2f 56 1e bd 7c 17 83 3d ae fd 94 3c
       -0.043585684 -0.03865641 0.06400964 0.01818737
0002a0 c6 0f eb 3e 61 09 19 3e 12 9d 32 bd bf 38 39 be
       0.45910472 0.14944984 -0.043606825 -0.18088053
0002b0 0a aa c4 3c 3d 3e 64 bc db 7b fa 3c 52 48 bc 3d
       0.024006862 -0.013930854 0.030576637 0.091934815
0002c0 33 93 42 3e 24 3b b3 bc e4 71 06 3e 9f d4 a4 bb
       0.19001465 -0.021878786 0.13129383 -0.005030229
0002d0 17 fc 39 bc 4a 54 08 3d 10 da 0d 3e 0c 45 0c be
       -0.011351607 0.03328351 0.13852715 -0.13698214
0002e0 21 9e 4c bc 56 38 e2 bb 4e 78 bc 3d 0f d3 97 bd
       -0.012488873 -0.0069036884 0.09202634 -0.07413303
0002f0 20 4e 59 3e fd bd 49 3d 53 49 af bd c5 b9 b2 3d
       0.21221209 0.049253453 -0.08558907 0.08726839
000300 2d 76 0a 3c 54 d6 8d 3e 5c ad a1 3d bc d3 60 3d
       0.008451027 0.27702582 0.07894394 0.054889426
000310 93 88 20 3d f4 4f 87 bd 50 30 4d 3c f6 23 36 be
       0.039192747 -0.06607047 0.012523726 -0.17787156
000320 a0 cb b1 3d 92 bb bc bd 1b d5 de 3d 6a f9 ac bd
       0.086814165 -0.09215464 0.108804904 -0.084460095
000330 ab fc 60 3c 75 ac fb bc b6 4c 64 bd e6 94 4c bd
       0.013732116 -0.030721882 -0.05573722 -0.049946688
000340 eb 60 c6 bc aa 2f 2c bd 39 eb 24 be 1f ea 6a 3e
       -0.024216136 -0.042037643 -0.16105355 0.22940873
000350 0d a8 df bd 71 f2 65 3d 1f 15 0c 3d 01 b5 89 bc
       -0.10920725 0.056139413 0.03419983 -0.016809942
000360 38 b3 46 bc a8 1b 04 3d ba aa 9c 3c cf e8 92 bd
       -0.01212769 0.032252938 0.019124378 -0.07173311
000370 e6 43 0a 3e 12 fc 24 bb 85 c2 9c 3d 10 ac 9a 3d
       0.13502464 -0.002517466 0.07654289 0.075523496
000380 92 ca ac ba 6b 87 b0 3e 2e dc de 3d cb 44 d2 3d
       -0.0013182929 0.34478316 0.1088184 0.102670275
000390 de 40 56 3d a1 36 b8 bd 0a 47 4c bb 60 fa 46 bb
       0.052307956 -0.08994795 -0.0031170272 -0.0030361637
0003a0 72 b6 59 3d 83 df d1 3d 07 db f8 bc b5 eb c4 3d
       0.05315251 0.102477096 -0.030377878 0.0961527
0003b0 77 00 8f 3d ee f8 9d 3d 0e b7 66 bd 59 2f b2 3d
       0.069825105 0.07713495 -0.05632692 0.08700437
0003c0 aa 02 b6 bc 44 75 0c 3e 70 07 ab 3c e5 41 8e 3d
       -0.022218067 0.13716608 0.02087757 0.06946162
0003d0 bc dd 7e bd 88 41 25 be 4b b1 c8 bc c1 8f d5 bd
       -0.06222318 -0.1613828 -0.024498602 -0.104278095
0003e0 a4 48 82 bc e0 33 97 bd a0 84 7d 3e ae f3 1c 3c
       -0.015903778 -0.07382941 0.24757624 0.009579582
0003f0 61 17 c2 3c 24 47 61 bd 40 07 54 3b 8f c4 ab 3d
       0.023692789 -0.054999486 0.0032352954 0.083871

fc2.bias f4 [400]
000000 5f 6c b0 bd a7 ee 4f bc e2 02 08 bd 95 14 90 bd
       -0.0861442 -0.0126911765 -0.033205874 -0.07035176
000010 90 13 2d 3d e7 21 fb 3c fa 4f b1 bd 2f af 6a 3c
       0.042254984 0.030655814 -0.086578324 0.014323994
000020 f3 ea ff bd d9 08 e7 3c 62 c3 26 bd 34 02 59 bd
       -0.12495985 0.028202461 -0.040713675 -0.052980617
000030 30 6c 27 3b 39 56 1e 3c ed fb 77 bc 2b 12 9e 3d
       0.0025546663 0.009664112 -0.015135747 0.07718309
000040 a1 55 11 3d c5 2b 8d 3b 8a 76 9c 3c ae a3 7d bd
       0.035482053 0.0043081963 0.019099493 -0.061923675
000050 77 31 85 3c 52 01 19 bd 2d 2c b9 3d f6 b6 81 3c
       0.016258938 -0.037354775 0.09041629 0.015834313
000060 01 7f 09 3d ea 39 7b bc f0 13 f5 3c 68 ba fb bc
       0.033568386 -0.015333632 0.029916734 -0.030728534
000070 6c 1e e4 bc a4 6c 6f 3d e9 1f df 3b f9 b6 f4 bc
       -0.027846538 0.058453217 0.006809224 -0.029872404
000080 e7 41 07 3d e2 86 02 3c 6e 02 96 3d 60 a8 d2 3c
       0.033021834 0.007966729 0.07324682 0.025715053
000090 0d 2a f8 3c d6 83 12 bd eb 9b 0d bd 92 28 60 bc
       0.030293489 -0.03577026 -0.034572523 -0.013681548
0000a0 7c 11 a0 3b 62 e6 07 3d dd bb 22 bb 37 e9 53 3d
       0.004884897 0.033178695 -0.0024831214 0.051736083
0000b0 5d a6 cc bb 65 73 bd 3d c5 65 37 3d 27 37 9d bc
       -0.006245418 0.092505254 0.04477479 -0.019191338
0000c0 24 8a 01 bc f3 98 2a bd 57 99 91 bc 16 53 ad bc
       -0.00790647 -0.04164977 -0.017773313 -0.021157783
0000d0 cf cb 42 3d 78 ce b1 3d 9d f5 15 3b 00 57 ec 3c
       0.04755765 0.08681959 0.0022881993 0.028850079
0000e0 3e d5 a2 bc d2 8e 2c bd 59 31 04 3c 66 1f 28 bd
       -0.019877072 -0.04212839 0.008068406 -0.04104557
0000f0 59 98 4d 3c 22 74 9f 3c 35 62 0b bd 84 d1 c4 bd
       0.01254853 0.019464556 -0.034029204 -0.096102744
000100 e9 c3 da 3b 61 57 a1 bb ec 5d be ba 3c 5c 1f bb
       0.0066761863 -0.0049237465 -0.001452384 -0.002431645
000110 77 ec ab 3c 65 3c 59 3d 3a b5 fb 3c d7 96 7b 3d
       0.020986779 0.053036112 0.030726064 0.06142315
000120 52 28 19 3c e6 03 1f 3d 18 38 1c 3d 5f 6c 7d bc
       0.009347992 0.038822077 0.038139433 -0.015467732
000130 23 ae 43 3d ff a8 79 3d 8d db b1 bd e4 fa 26 bd
       0.04777349 0.060952183 -0.08684454 -0.04076661
000140 f5 ef 71 3d 12 99 8e 3d b0 00 d4 bc c5 26 37 3c
       0.05906673 0.069627896 -0.025879234 0.011178677
000150 d0 11 12 3d 78 27 0e 3d 6d b5 26 bb 7c da b5 3b
       0.03566152 0.03470561 -0.0025437728 0.005549727
000160 e2 db 81 3d e4 7b 6f bc 16 f3 7d 3d be ae f3 bc
       0.063407674 -0.01461694 0.061999403 -0.02974641
000170 8c fa 0d bd 49 7b 6f bd e2 d9 fe 3b cd 48 37 bd
       -0.03466277 -0.058467183 0.0077774385 -0.044747163
000180 97 73 47 bd 44 ca 80 bd 3f d8 37 3c 81 d9 e9 3c
       -0.04869422 -0.06288579 0.011220991 0.028546097
000190 f8 4a 8c 3d cf 26 1e 3d a2 46 12 bd f2 79 27 3c
       0.06850237 0.03861123 -0.035711892 0.010221945
0001a0 9c 89 4f 3d d0 9b 4c bd bc 8a a4 3c 96 c3 c7 3c
       0.050668344 -0.049953282 0.020085685 0.024385255
0001b0 44 d3 5d bc 2e f8 9d 3d ae e8 67 bc 4a 20 49 3d
       -0.013539139 0.07713352 -0.014154596 0.04910306
0001c0 4a 7a 96 3d 54 3d 87 bb 55 a8 01 3d 13 32 6f 3d
       0.073475435 -0.004127184 0.031654675 0.058397364
0001d0 1c f9 1d bd d1 81 d2 bd 2f 9d 79 bd 80 41 17 bd
       -0.038567647 -0.10278667 -0.060940918 -0.0369277
0001e0 6f bf 93 3d 0f 3f 93 3a 03 40 2c bd 78 f0 43 bb
       0.072142474 0.0011234003 -0.042053234 -0.002989797
0001f0 eb 7e f6 bc a0 9b 83 3d c4 01 4e 3c fc 8f 73 3d
       -0.030089816 0.064261675 0.012573663 0.059463486
000200 59 83 95 bc b5 3f 0e bd 74 ee db bc 78 03 61 3d
       -0.018251108 -0.034728725 -0.026847102 0.05493495
000210 40 3c f8 bb 2c 17 01 bd 7c a0 c6 3d 61 51 22 3a
       -0.0075755417 -0.03151624 0.09698579 0.0006191936
000220 b6 80 71 3c 15 29 8c 3d e1 a0 25 3d 9d 86 48 3d
       0.01474016 0.06843773 0.04043663 0.048956502
000230 3f b7 90 3d e7 ee 1f 3d db bd d4 3c ef 9b 28 b9
       0.070662014 0.039046194 0.025969436 -0.00016079818
000240 d6 ed a2 3d 20 39 fb bc 9b 8d 62 3d 43 9c aa bc
       0.0795552 -0.030666888 0.055310827 -0.020826465
000250 26 70 25 bd 60 e8 23 bd f3 48 40 bc bb 9b 03 bd
       -0.040390156 -0.040016532 -0.011736142 -0.032130938
000260 8b 3c 3c bd 96 b4 59 bc eb dd 4c bc 84 f0 4d 3d
       -0.045956176 -0.013287684 -0.012504081 0.0502782
000270 ee 0e 1f 3c ae 5a f2 bc 10 d7 9b bc fa 31 2c bc
       0.009708149 -0.029584255 -0.019023448 -0.010509962
000280 d7 70 3e 3d 6b 30 39 bd 71 b5 f4 3b 21 5f 9f 3d
       0.04649433 -0.04521219 0.0074679186 0.07781816
000290 9b e5 a3 bc a0 db e6 bc 66 dd 55 3c 30 7d ef 3b
       -0.020006945 -0.028180897 0.013053274 0.0073086247
0002a0 69 bd 64 bd 57 06 02 3d a8 2a ad bd 61 0f 6b 3d
       -0.055844698 0.031744327 -0.08455402 0.057387713
0002b0 eb 19 92 3c 36 e2 57 3d cc 93 65 3c 20 6e eb 3c
       0.017834624 0.052705966 0.014012288 0.028739035
0002c0 ce f3 a4 3d 72 d2 93 3b f4 b1 5b bd 42 6b 30 bd
       0.080543146 0.004511171 -0.053636506 -0.04307104
0002d0 66 0a 9b 3d a3 dd 52 bc 03 af 27 3c 66 ad 77 bd
       0.07570343 -0.012870225 0.010234597 -0.0604681
0002e0 1b 53 34 3d ba 59 37 3d ef 6c 74 3b 59 9b 12 3d
       0.044024568 0.044763304 0.0037296375 0.035792682
0002f0 bc 5c 3d 3d a6 bf ae 3c 27 eb 95 3d 33 23 12 3d
       0.046231017 0.02133162 0.073202424 0.0356781
000300 a8 cf ae 38 4b aa b0 3d 84 6f a2 bd 39 ca c0 3c
       8.3356455e-05 0.08626231 -0.07931426 0.023533927
000310 7d 9b 81 bb 6d 1f 49 bc ce 81 d0 3c 22 40 0c 3d
       -0.003955303 -0.012275559 0.02545252 0.03424085
000320 b9 ea 33 3c 86 7e 87 3d f9 a2 27 3d 85 64 99 bd
       0.010981255 0.06615929 0.040926907 -0.07489876
000330 90 c6 69 bd ee aa 27 3d 5d 5d 95 3d ec ec 3e bd
       -0.05707413 0.040934496 0.07293198 -0.046612665
000340 ff 77 a8 b9 48 b0 bb 3c bb 84 29 3d f9 0e 32 bd
       -0.0003213286 0.022911206 0.041386347 -0.04347131
000350 68 16 a0 3c 4b ee 7b 3d 49 95 04 bb 58 4d fa bc
       0.019541934 0.06150655 -0.0020230582 -0.030554458
000360 8f c0 52 3d 3a 25 2d 3d cc 14 8f bc 4f 6d 00 3d
       0.05145317 0.04227183 -0.017465971 0.031354245
000370 ff 43 6e 3d 2f b2 95 bd ec 78 8e 3c 83 41 4d bc
       0.058170315 -0.073093764 0.017391644 -0.012527826
000380 77 14 30 bd e7 7f b2 3d 7e 97 5a bd 11 30 48 bc
       -0.042988267 0.08715802 -0.05336713 -0.012218491
000390 09 4e c0 3d 53 3c 7c 3d d6 ce d5 3b ee b3 eb 3c
       0.09389884 0.061580967 0.006524901 0.02877232
0003a0 18 04 fd bb 0f 92 3a 3d e3 da c6 bd 98 dc ce 3b
       -0.0077214353 0.04554945 -0.09709718 0.006312918
0003b0 d0 31 99 3d 18 54 99 bc b5 e7 62 3b 4d 87 85 3d
       0.07480204 -0.018716857 0.0034622971 0.06519947
0003c0 b5 4f c5 bc 77 68 17 bc 76 11 05 bd 7a 2e ad bb
       -0.024085859 -0.009241215 -0.032487355 -0.0052850815
0003d0 21 92 2c bc cb 99 18 3d 00 60 1d 37 13 f1 18 bc
       -0.010532887 0.037256043 9.380281e-06 -0.00933482
0003e0 c7 12 27 3c f1 4a cf 3d 4f bc 3f 3d a7 19 4d 3d
       0.010197348 0.10121716 0.046810444 0.050073292
0003f0 11 ac 96 3d 85 a1 4a bc cd b8 48 bd 8f 93 46 bd
       0.07357038 -0.012367611 -0.049004365 -0.048480567

fc3.weight f4 [2, 400]
000000 55 46 85 be 82 aa 47 bb 0a b7 1e bd a3 ba 6e be
       -0.26030222 -0.003046662 -0.03874878 -0.23313384
000010 2a 87 ba 3d cc 76 66 bc be 62 8d be d7 01 a4 3c
       0.09107812 -0.014066409 -0.27614397 0.020020409
000020 c9 be a1 be 1b 79 37 bd b6 0c 53 bd cb fa 72 be
       -0.3159087 -0.04479323 -0.051525794 -0.23728482
000030 25 cf 66 be ea 91 d2 3c e7 99 d3 bd ab 54 88 3d
       -0.22539957 0.025704343 -0.10332089 0.06656774
000040 c4 6d 7a 3d 6a 9b 15 bd 25 13 c7 3d 46 4e 58 be
       0.061139837 -0.036525168 0.097204484 -0.21123609
000050 67 1f 80 3b 1c b0 b0 3c c9 8a d0 3d a3 7b 30 3b
       0.0039099935 0.02156835 0.10182721 0.0026929162
000060 b2 a6 64 3d 12 c5 78 be c2 e0 de 3d 3d 4e 5b be
       0.055823036 -0.24293926 0.10882713 -0.21416564
000070 b2 d3 05 be 78 d7 df 3d 64 12 ca 3d 40 7c 3d bd
       -0.13069037 0.10929769 0.09866789 -0.046261072
000080 88 0d aa bc 81 7f e5 3d 93 d3 e1 3d 29 9a b8 3d
       -0.020758405 0.1120596 0.11026683 0.09013779
000090 a0 37 96 bd 86 19 0d bd be 5b a8 3d 75 bc 84 3a
       -0.073348284 -0.03444817 0.082206234 0.0010126965
0000a0 5f 1a e4 3c f3 6a a6 3d d8 1e 18 3e 06 70 ea 3d
       0.027844606 0.08125868 0.14855516 0.11447148
0000b0 fa 40 8b bd 20 2e 95 3d 7e 6d ba 3d 0e 43 0c bb
       -0.06799503 0.07284188 0.09102915 -0.0021402272
0000c0 0b 65 20 be 82 fe 00 be c1 d8 f5 bb 85 be 00 3e
       -0.15663545 -0.12597087 -0.0075026457 0.12572677
0000d0 17 13 cb 3d 7a 43 0c 3e 9f 09 89 3d 22 28 ae 3d
       0.099157505 0.13697615 0.06691288 0.085037485
0000e0 f8 d1 2a 39 4a a6 db 3c 7e 90 cf 3d 00 98 c0 be
       0.00016290683 0.026812691 0.101349816 -0.37615967
0000f0 9e d6 9c b9 8c 24 5a bc 29 e6 66 bc 13 7f 58 be
       -0.0002991454 -0.0133143775 -0.01409296 -0.21142225
000100 e3 75 b4 3d 11 f1 29 3d c9 5f 1b bd 77 c6 b1 3d
       0.088115476 0.041489664 -0.037933145 0.08680432
000110 0f d1 28 bd 3f 49 f1 3d a5 06 42 3c f7 9f e8 3d
       -0.041215 0.11781549 0.0118424045 0.11358636
000120 40 2d 6c bd ba 84 c3 3b 9c da 72 bc e3 42 14 3e
       -0.05766034 0.00596675 -0.014822628 0.1447864
000130 42 08 31 bd 68 cd b6 3d 24 f8 7a be 41 0a 12 be
       -0.043220766 0.08925897 -0.2450872 -0.14261724
000140 c3 12 13 3e 86 71 f2 3c 3a 08 8e bc cd 49 ae 3d
       0.14362626 0.029595148 -0.017337907 0.0851017
000150 b1 a1 fd 3d c0 e2 96 3d 8a 08 a8 ba 27 80 bc bc
       0.12384356 0.07367468 -0.0012819928 -0.023010327
000160 dd 1a a6 3d 87 01 13 3d 46 47 96 3d dc b1 28 3b
       0.081105925 0.03589013 0.07337813 0.0025740778
000170 ca 19 e3 bc 2b ad 4b 3e dd 1e ee 3d c4 9d 15 bd
       -0.027722258 0.19890277 0.116269805 -0.03652741
000180 1f 4e 42 be 18 0d 1c be c0 9c 4e 3d 77 0d c4 3d
       -0.18975113 -0.1523937 0.050442457 0.09572881
000190 3c 21 d2 3d 5a 88 5e 3d 8a 9e 5e be 04 b3 ce 3d
       0.10260245 0.054329254 -0.21740165 0.10092738
0001a0 99 85 e8 3d ef 49 fb bc dc 6d 92 3d d9 df 80 3c
       0.11353607 -0.030674903 0.0714986 0.015731739
0001b0 74 7c 81 bc 71 a0 d2 3d df 9e 83 bc 5a 2e c6 3d
       -0.015806414 0.10284508 -0.016066967 0.096768096
0001c0 10 92 e7 3d 6d 11 ed bd 0b a7 b8 bc 51 34 da 3d
       0.11307156 -0.11575589 -0.02254059 0.1065451
0001d0 a1 36 32 be 67 75 5e be 2e e7 c9 3b ae 07 6a bd
       -0.17403652 -0.21724473 0.006161592 -0.05713623
0001e0 7c 63 d6 3d e0 0c 20 bc 7f d7 0f bc 19 f4 d4 bb
       0.10468194 -0.009768695 -0.008779406 -0.0064988253
0001f0 0e a3 cc 3c 9f d0 7c 3d 14 e1 fb bd 7f 14 bb 3d
       0.024980094 0.061722394 -0.122987896 0.09134769
000200 31 f3 02 3d 30 3b 7b be e9 a7 83 bc 48 46 9b bd
       0.031970207 -0.24534297 -0.016071277 -0.075817645
000210 fe 7a a2 3c 00 14 0f 3c 8a 65 96 3d c4 2c 9c bd
       0.019834038 0.008732796 0.07343586 -0.07625726
000220 20 85 83 bc 7e ee c8 bd f6 01 0c 3e c1 1e 0f 3e
       -0.01605469 -0.09811114 0.13672623 0.13976575
000230 bc 94 04 3e b6 2e d2 3d e9 b0 3f 3d a6 99 28 bc
       0.12947363 0.10262816 0.046799574 -0.010290539
000240 f4 fd ea 3d 39 37 7e be 4e d4 2b 3d c2 0a e6 bc
       0.11474219 -0.24825753 0.041950516 -0.028081302
000250 0f fc 88 be d6 73 a2 be 6d 97 38 bd 30 72 31 bc
       -0.26754805 -0.31729 -0.045066286 -0.010830447
000260 87 37 c7 3b 2f 6f e4 bc 91 7f c9 3d 35 33 c7 3d
       0.0060796174 -0.027885048 0.098387845 0.09726564
000270 8a 95 a3 3d 20 8a 1c 3d 5e f8 ad 3c 5f 1b a9 bd
       0.07987507 0.038217664 0.021236595 -0.08257174
000280 f0 5a 23 3d a2 b7 c1 3c 45 06 80 3d 57 05 8c 3d
       0.039881647 0.023647133 0.06251196 0.06836956
000290 2d c1 82 be 81 4b 20 be 02 63 7a bd 0c 94 99 bc
       -0.25538006 -0.15653802 -0.061129577 -0.018747352
0002a0 7a 32 5c be e3 40 ff bd e7 e6 0b be 73 60 93 3d
       -0.2150363 -0.12463548 -0.13662301 0.071961306
0002b0 90 87 36 bd 7a 64 c5 3d aa e1 c5 bc 77 10 24 3d
       -0.044562876 0.09638305 -0.024155457 0.040054765
0002c0 ce 81 00 3e e2 dd 03 3e 19 00 e8 39 58 ae a4 3c
       0.12549517 0.1287761 0.0004425056 0.020102665
0002d0 28 4e d3 3d b3 17 95 bd f9 09 9b 3d c7 8c 59 bd
       0.103176415 -0.07279911 0.075702615 -0.05311277
0002e0 75 c8 87 bc 6a 7f cc 3d 7c 32 04 3d aa c0 76 bd
       -0.016575078 0.0998524 0.03227471 -0.060242333
0002f0 48 f7 d0 3d b5 13 c6 3d 55 00 c7 3d 78 dc 6e bc
       0.10203415 0.096717276 0.0971686 -0.014578931
000300 13 10 40 bc 96 c0 ee 3d 1a 24 17 be d5 53 fc 3c
       -0.011722582 0.116578266 -0.14759865 0.030801693
000310 bf 03 d6 3d 43 60 f5 3c 23 ac 87 3d 22 a8 20 3d
       0.10449933 0.029953128 0.06624629 0.039222844
000320 f8 83 dd bc 06 bc a5 3d c2 c2 db 3c ee 00 42 be
       -0.027040467 0.08092503 0.026826266 -0.18945667
000330 27 44 32 be cf 44 2d 3d 58 76 e5 3d 42 a3 13 3b
       -0.1740881 0.04230195 0.11204213 0.002252773
000340 a8 a2 ad 3d 53 a8 11 3d e9 08 d4 3d b2 d0 5b be
       0.0847829 0.035560917 0.10353262 -0.2146633
000350 d2 af 97 bd aa cf c6 3d 15 91 b5 bd 07 54 71 ba
       -0.07406582 0.097075775 -0.08865563 -0.00092059415
000360 6e 42 d2 3d e1 07 12 bd fc 1a 1b bd 5c 12 ca 3d
       0.10266577 -0.035652045 -0.03786753 0.09866783
000370 ad 33 96 3d 82 61 aa bd ad 15 a6 3d a8 73 9f 3d
       0.07334075 -0.083193794 0.08109603 0.077857316
000380 1a 8b a1 be ca e7 d9 3d ca 45 e7 bc 0e 11 c1 3c
       -0.3155144 0.106399134 -0.02823152 0.023567703
000390 1a bf 91 3d d1 f2 b1 3d 97 b0 94 3d 70 6b d2 3d
       0.07116528 0.08688892 0.07260244 0.10274398
0003a0 a8 a1 71 bc 7d 72 64 bc 48 00 a3 be 2f 1a 38 3d
       -0.0147480145 -0.013943312 -0.31836152 0.044946846
0003b0 9c af df 3d 30 9f 84 bc ed 1d 32 3d a8 99 f9 3c
       0.10922167 -0.016189188 0.04348557 0.030468777
0003c0 aa d6 a4 3d d1 6b 1a bd 2b 19 e1 bd d7 20 26 be
       0.080487564 -0.037700478 -0.109911285 -0.16223465
0003d0 f6 6d 53 bd 74 63 c9 bb da 8f a5 bc fe c5 d0 3c
       -0.05161854 -0.006145889 -0.020210195 0.025485035
0003e0 50 f8 cf 3d 8d b2 8f 3d 03 cf da 3d 79 d8 04 3e
       0.10154784 0.07016478 0.106840156 0.12973203
0003f0 67 72 87 3d f6 73 e3 3b 00 5a 3b 3a ec 53 ba be
       0.066136174 0.006941314 0.0007146895 -0.36392152

fc3.bias f4 [2]
000000 99 69 f7 bb 1c 59 87 3d
       -0.00755043 0.06608793
